unitree_rl_gym/deploy/pre_train/go2/policy_2.pt (torch, 774664 bytes, 8 tensors)

weight f4 [512, 48]
0	0x3d6373dd	0.055530418
1	0xbe8210e7	-0.2540352
2	0x3e0ac5b7	0.13551985
3	0x3d2ce7a0	0.042213082
4	0xbe8e6b54	-0.2781626
5	0x3f03ae9f	0.51438326
6	0xbcae6381	-0.021287682
7	0x3e37c3cd	0.17945786
8	0x3df5fc1a	0.12010975
9	0xbc2ac562	-0.010423036
10	0x3e815e24	0.25267136
11	0xbf986c6a	-1.1908085
12	0xbe91a990	-0.28449678
13	0xbe1b570b	-0.15169923
14	0x3dee44ef	0.11634242
15	0x3eae6ef1	0.34069017
16	0x3dffadfc	0.12484357
17	0x3ed74aa6	0.4204914
18	0xbf1e5ffe	-0.6186522
19	0xbe543653	-0.20723848
20	0x3e308575	0.1723841
21	0x3e6a4dac	0.22881192
22	0xbef0537d	-0.46938697
23	0x3e90f249	0.2830985
24	0x3d9dd335	0.077063
25	0xbe7fd3bc	-0.24983114
26	0xbe17b369	-0.14814533
27	0xbdd3e5eb	-0.10346588
28	0x3e025f0f	0.12731574
29	0x3d40eaa7	0.047098782
30	0x3c38665a	0.011254871
31	0xbe4ecc7c	-0.20195192
32	0xbe15a7c3	-0.14614777
33	0xbec734d7	-0.389075
34	0x3d82bf82	0.063841835
35	0xbe3debac	-0.18546933
36	0x3d68efe0	0.056869388
37	0xb70efb51	-8.522374e-06
38	0x3d87e1d6	0.06634872
39	0xbd167116	-0.03672894
40	0x3cdbbdb2	0.026823852
41	0xbdcb5c41	-0.099297054
42	0x3b8ce577	0.0042998153
43	0x3cd9ecae	0.026602115
44	0x3c339efc	0.010963198
45	0xbdbb3e9e	-0.09142803
46	0x3cd2c862	0.025730316
47	0xbe52db10	-0.20591378
48	0x3c81b68b	0.015834114
49	0xbe0265d4	-0.12734157
50	0x3d8f8baa	0.07009061
51	0xbe4b3f5c	-0.19848388
52	0x3ed81096	0.42200154
53	0x3d31b55f	0.04338586
54	0x3e3059c1	0.17221738
55	0x3e9a1f8a	0.30102187
56	0x3e6ae82e	0.22940132
57	0xbc8ffdd6	-0.017577093
58	0xbc58234a	-0.013192007
59	0xbfba8f0d	-1.4574906
60	0x3edf81cd	0.43653718
61	0x3e71b493	0.2360404
62	0x3f3f7ea7	0.7480263
63	0xbda189d8	-0.0788762
64	0x3e3c6430	0.18397593
65	0x3e244e04	0.16045386
66	0xbd071cd8	-0.032986492
67	0xbb521d34	-0.0032060863
68	0xbb7a21fb	-0.0038167227
69	0xbeb01e46	-0.34398097
70	0x3d3f24a1	0.04666579
71	0x3eaf1cdf	0.34201714
72	0xbf10d1bb	-0.56570023
73	0xbeaa2e8c	-0.33238637
74	0x3bb2a432	0.0054517025
75	0x3ee756f3	0.45183524
76	0x3d10315f	0.035203334
77	0x3e69a553	0.22816972
78	0xbe4e451f	-0.20143555
79	0xbea4177d	-0.3204917
80	0xbc834e32	-0.016028497
81	0xbdaf7311	-0.08566869
82	0x3e04d66b	0.12972419
83	0x3ea1f3fc	0.31631458
84	0x3b80466e	0.003914646
85	0xbe067432	-0.13130262
86	0x3d64ed0c	0.055890128
87	0x3b0ced08	0.0021503586
88	0xbc26937d	-0.010167
89	0xbda2d68f	-0.0795108
90	0x3cf5e573	0.030016636
91	0xbd8e5d79	-0.06951422
92	0xbce94d2e	-0.028479185
93	0xbd7b4454	-0.06134446
94	0x3e0e7d98	0.13915098
95	0x3e49c852	0.19705322
96	0x3e6fb005	0.2340699
97	0xbe97eda4	-0.29673493
98	0x3e0a6978	0.13516796
99	0xbc889665	-0.016673276
100	0xbe942d65	-0.28940883
101	0xbe9fac8b	-0.31186327
102	0xbd6d48f6	-0.05793091
103	0xbe727904	-0.23678976
104	0x3dae6135	0.085146345
105	0xbe5d6dd7	-0.21623932
106	0x3e9f6d63	0.31138143
107	0x3eb4785f	0.35248086
108	0x3c989b0e	0.018628623
109	0x3defc802	0.1170807
110	0x3ec2a0dd	0.38013354
111	0x3e21fc21	0.15818836
112	0x3e6f8b01	0.2339287
113	0x3e0c173a	0.13680735
114	0x3e0c2147	0.1368457
115	0xbe410800	-0.18850708
116	0xbdb47ab8	-0.08812469
117	0xbe80e875	-0.2517735
118	0x3e3d0573	0.1845911
119	0x3e9abe7f	0.30223462
120	0xbd789313	-0.060687136
121	0xbd4d8f45	-0.05018546
122	0x3e385c1b	0.18003885
123	0x3da5f945	0.08104185
124	0x3d549c9b	0.051907163
125	0xbd848f82	-0.064726844
126	0xbee452e9	-0.44594505
127	0xbe8de465	-0.27713314
128	0xbbe12665	-0.006871032
129	0x3d9679b1	0.073474295
130	0x3ea2eeb8	0.31822753
131	0x3d74d897	0.05977687
132	0xbd68bb19	-0.056819055
133	0xbd0f8c52	-0.03504593
134	0xbdf7d1c7	-0.12100559
135	0x3d23e636	0.040014468
136	0xbca6a39c	-0.020341687
137	0x3ce50e0d	0.027960801
138	0xbd5d306c	-0.054001257
139	0x3d13bb27	0.036067154
140	0x3cc3a0e9	0.023880439
141	0x3ccb21d0	0.024796396
142	0xbdc300b6	-0.0952162
143	0x3c340114	0.010986585
144	0x3de491a2	0.1116059
145	0x3e0a68ea	0.13516584
146	0xbe43d884	-0.19125563
147	0x3e17a69a	0.14809647
148	0x3df56e6c	0.11983952
149	0xbdcf37cb	-0.101180635
150	0xbd13ec34	-0.036113933
151	0x3ccab497	0.024744315
152	0x3d647331	0.055773918
153	0xbdf9134b	-0.12161883
154	0xbe255ecf	-0.16149448
155	0x3d15eae9	0.03660098
156	0xbed176b5	-0.4091088
157	0x3e97546e	0.29556602
158	0xbefc8aa0	-0.49324512
159	0x3e054ebb	0.13018315
160	0xbe98e925	-0.29865375
161	0x3e8ecffb	0.27893052
162	0x3d305640	0.043051004
163	0xbd8c796e	-0.068590984
164	0xbe404be3	-0.18778948
165	0xbead70ed	-0.33875218
166	0xbe7f3f46	-0.2492648
167	0xbc50816b	-0.012726168
168	0x3e3c9a5b	0.18418257
169	0x3ea46a21	0.3211222
170	0x3dfaf0ac	0.12252936
171	0x3f1e8001	0.6191407
172	0x3e33262c	0.1749503
173	0xbccacc22	-0.024755541
174	0xbdbda49f	-0.092599146
175	0xbe82a359	-0.2551525
176	0x3ce2a9e6	0.027668905
177	0xbe05ea0b	-0.13077562
178	0xbe65c6c4	-0.22439104
179	0xbde49f5e	-0.111632094
180	0xbc0f2b1c	-0.008738305
181	0xbd092cb6	-0.033489905
182	0x3db897f4	0.09013358
183	0xbd8551e4	-0.0650976
184	0x3d4307e2	0.04761494
185	0x3d48dadc	0.049036846
186	0xbdab3e61	-0.08361507
187	0xb93eff65	-0.00018214954
188	0xbbf89746	-0.0075863926
189	0xbd49412c	-0.04913442
190	0x3cf159f2	0.029461835
191	0xbd068260	-0.03283918
192	0x3c5e7766	0.0135782715
193	0x3d19dae2	0.03756226
194	0xbcf48621	-0.029849114
195	0x3e0d9bc6	0.13828954
196	0x3cdfb60a	0.027308483
197	0x3e00d234	0.12580186
198	0xbdf831e6	-0.12118892
199	0xbf03e176	-0.515159
200	0x3c1c7ac5	0.009550755
201	0xbe8d88d2	-0.27643448
202	0xbea8a3b3	-0.32937393
203	0x3eff8bcb	0.4991134
204	0x3f130cb6	0.5744127
205	0xbf14cf7c	-0.58129096
206	0x3de7fec6	0.11327891
207	0x3f198f3f	0.599842
208	0xbe11321c	-0.14179271
209	0xbe379847	-0.17929183
210	0x3e8addd7	0.27122375
211	0xbdad930d	-0.08475313
212	0x3e38b7b2	0.18038824
213	0x3eb9517b	0.36194977
214	0xbeadb688	-0.33928323
215	0x3d8c0bd7	0.06838196
216	0x3ea47300	0.32118988
217	0xbe3606f3	-0.17776088
218	0xbe76d269	-0.24103703
219	0xbc78dd7a	-0.015189523
220	0x3e44052f	0.19142602
221	0xbd95b1f6	-0.07309334
222	0x3d8d3df0	0.06896579
223	0xbe8b5a72	-0.27217442
224	0xbe1d2f59	-0.15350093
225	0x3d9026ef	0.07038676
226	0xbeb8a179	-0.36060694
227	0x3e3e5651	0.18587615
228	0x3e70fb44	0.2353335
229	0xbd3ff233	-0.04686184
230	0xbd98bdd7	-0.07458084
231	0x3e18fac9	0.14939417
232	0xbc342c75	-0.0109969275
233	0x3b304c13	0.0026900813
234	0x3d823b52	0.06358971
235	0xbdaa7567	-0.08323174
236	0x3d95d545	0.073160686
237	0xbd890f5e	-0.06692384
238	0xbd94563b	-0.0724301
239	0xbe0734ff	-0.1320381
240	0x3d43520d	0.04768567
241	0xbc24b4d1	-0.010052876
242	0xbdfd4d76	-0.1236829
243	0xbc82b77a	-0.015956629
244	0x3da60909	0.08107192
245	0xbe90263a	-0.28154165
246	0x3c7c6aa1	0.015406282
247	0x3dec8af0	0.11549938
248	0x3e44a81a	0.1920475
249	0xbe2bf8be	-0.16794106
250	0x3d04d6c1	0.032431368
251	0xbdf572f1	-0.11984814
252	0xbf68bf33	-0.90916747
253	0x3f094784	0.5362475
254	0x3b6ebc56	0.0036428175
255	0x3c4b06b2	0.012391733

bias f4 [512]
0	0xbe176b98	-0.14787138
1	0xbe1f06df	-0.15529965
2	0xbd4b5bb3	-0.049647998
3	0xbd97d18f	-0.07413017
4	0xbe16ba1a	-0.1471943
5	0xbda55f6a	-0.080748394
6	0xbd57a84d	-0.05265074
7	0xbe61ac79	-0.2203845
8	0xbdf5bf23	-0.11999347
9	0xbce3fff1	-0.027832003
10	0xbde16d58	-0.11007184
11	0xbd4044be	-0.046940558
12	0x3d6448d3	0.055733513
13	0xbe81823a	-0.25294667
14	0xbe4044b6	-0.18776211
15	0xbe8c0a5c	-0.27351654
16	0xbd3216cc	-0.043478772
17	0xbea44d14	-0.32090056
18	0xbe48788e	-0.19577238
19	0x3c03dfae	0.008048935
20	0xbd74ac5a	-0.05973468
21	0xbe300a3a	-0.17191401
22	0xbe079e05	-0.13243873
23	0xbe745ee7	-0.23864327
24	0x3decbc2d	0.11559329
25	0x3dd975c0	0.10618162
26	0xbe3831fd	-0.17987819
27	0xbd2d073d	-0.04224323
28	0xbd34dd42	-0.04415632
29	0xbe136a1b	-0.14395945
30	0xbe088482	-0.13331798
31	0x3d775610	0.06038481
32	0xbdf712e7	-0.12064152
33	0xbe473e23	-0.19457297
34	0xbcd60d65	-0.026129434
35	0x3cc65eac	0.024215065
36	0x3d785a1f	0.06063282
37	0x3d7fea5b	0.06247936
38	0x3d4f2701	0.050574306
39	0x3d462080	0.04837084
40	0x3e20b66c	0.15694588
41	0x3d41806d	0.047241617
42	0xbe889c50	-0.26681757
43	0x3e1eaf75	0.15496619
44	0xbe72cb6c	-0.23710412
45	0xbe449810	-0.19198632
46	0xbe90f734	-0.283136
47	0x3bfff7f7	0.007811542
48	0xbe316414	-0.17323333
49	0x3e021938	0.12704933
50	0xbdb8f713	-0.09031501
51	0x3dbb8811	0.09156812
52	0xbdc4388f	-0.095811
53	0xbdc4db8d	-0.096121885
54	0xbe38df79	-0.18053998
55	0xbd8f9322	-0.07010485
56	0x3d118b3a	0.035533167
57	0xbd370d5b	-0.04469047
58	0xbdb5dbdf	-0.08879828
59	0xbde34be4	-0.11098459
60	0xbdfa0e8f	-0.12209808
61	0xbe3419a3	-0.17587905
62	0xbe3c70b7	-0.18402372
63	0xbd1e8ea5	-0.038710255
64	0xbda69837	-0.081345014
65	0xbdf9c3f6	-0.1219558
66	0xbcc2e30e	-0.023789909
67	0xbd6b688c	-0.05747275
68	0xbdf05cbc	-0.11736438
69	0xbd43c867	-0.04779854
70	0xbe4d0d1a	-0.20024529
71	0xbe0cf93e	-0.13766953
72	0xbe41d1dc	-0.18927711
73	0x3e3ddf63	0.18542247
74	0x3dd3c52f	0.10340344
75	0xbdf124eb	-0.1177462
76	0x3da66f2a	0.081266716
77	0xbde0c4c9	-0.10975034
78	0x3d1d3832	0.03838367
79	0xbe08190b	-0.13290803
80	0x3dc78966	0.097430035
81	0x3d6de0c9	0.0580757
82	0xbe199471	-0.14998032
83	0xbd264c84	-0.040600315
84	0xbd6d7978	-0.05797717
85	0x3d05489d	0.032539953
86	0xbdca4d62	-0.09878041
87	0xbde538c8	-0.11192471
88	0xbdc947ae	-0.09828125
89	0x3de9117c	0.11380288
90	0xbde0ba7a	-0.109730676
91	0xbeb64a24	-0.3560344
92	0x3dadac6b	0.08480152
93	0xbd5158a6	-0.051109932
94	0x3d04079d	0.032233823
95	0xbe0a5f42	-0.135129
96	0xbd0e20e6	-0.034699343
97	0xbe4a552a	-0.1975905
98	0x3d81fe02	0.06347276
99	0x3d65dd8d	0.05611949
100	0xbd36ba9e	-0.044611566
101	0xbe41f69c	-0.1894173
102	0x3c953c4d	0.01821723
103	0xbe6c2c77	-0.23063837
104	0xbe6b5394	-0.22981101
105	0xbdb41615	-0.08793274
106	0xbe036866	-0.12832794
107	0xbda3d62f	-0.07999837
108	0x3d5f4196	0.054505907
109	0xbe1e1037	-0.15435873
110	0xbc0eca11	-0.008715169
111	0xbdfde645	-0.12397436
112	0xbd73adb3	-0.059491824
113	0x3e3f4e0e	0.18682119
114	0xbe130025	-0.14355524
115	0xbe02e9d2	-0.12784508
116	0xbdfe7798	-0.124251544
117	0xbe55f703	-0.20895009
118	0x3dff02f4	0.12451735
119	0xbe3cdb43	-0.18443017
120	0xbe1d691a	-0.15372124
121	0xbd833178	-0.0640592
122	0x3dc5dfb6	0.0966181
123	0x3da1f2c1	0.0790763
124	0xbe50dd08	-0.20396817
125	0xbe13a6ea	-0.14419141
126	0x3d89a574	0.06721011
127	0xbdf23a38	-0.118275106
128	0xbdc9326e	-0.09824072
129	0xbd42238a	-0.047397174
130	0xbe85537a	-0.2604025
131	0x3e88dc17	0.26730415
132	0xbc30d448	-0.010792799
133	0x3e1a9a08	0.15097821
134	0xbdf65277	-0.12027448
135	0x3e0370f5	0.12836058
136	0xbdc6c6d7	-0.097058944
137	0x3c554e64	0.013019178
138	0xbddcf69a	-0.10789223
139	0xbea428f0	-0.32062483
140	0xbd91cd19	-0.071191974
141	0xbd08383c	-0.033256754
142	0xbd68ed5f	-0.056867
143	0xbd8076ae	-0.06272636
144	0xbda8d84b	-0.082443796
145	0x3c288fa8	0.010288157
146	0x3d690e57	0.05689844
147	0x3d02b45d	0.03191029
148	0xbcc44204	-0.02395726
149	0xbe36972a	-0.17831102
150	0xbe14df7e	-0.1453838
151	0x3e6d87a6	0.23196277
152	0xbde30562	-0.11085011
153	0x3de9c1f2	0.11413945
154	0x3d280ffb	0.041030865
155	0xbe23bea3	-0.15990691
156	0xbd660033	-0.056152534
157	0x3ddc952c	0.1077064
158	0xbd8af7fe	-0.06785582
159	0xbd8a1540	-0.06742334
160	0x3dd4d236	0.10391657
161	0xbdf9e1f9	-0.12201304
162	0xbda22654	-0.07917467
163	0xbea42871	-0.32062104
164	0xbbfc0f04	-0.0076922197
165	0x3d42c5d6	0.047551952
166	0xbd24f970	-0.040276945
167	0x3e424bbd	0.18974204
168	0xbe3b0e2c	-0.18267125
169	0xbd3b2b4b	-0.045695584
170	0xbd594ac0	-0.053049803
171	0x3dd97099	0.106171794
172	0xbc181f59	-0.009284818
173	0xbe2ccad1	-0.16874243
174	0x3ce59a9e	0.028027829
175	0x3da294a5	0.07938508
176	0xbdf4180c	-0.11918649
177	0x3d830a75	0.06398479
178	0xbcee5000	-0.029090881
179	0xbe6aa7f4	-0.22915632
180	0xbc47a441	-0.012185157
181	0x3d83d5b6	0.064372465
182	0xbd6fcdbc	-0.058545813
183	0xbe14817a	-0.14502516
184	0xbd47a020	-0.04873669
185	0xbd7f3afc	-0.06231211
186	0xbe2245b3	-0.158469
187	0xbbb1c396	-0.005424927
188	0x3da77a09	0.08177573
189	0xbe70af34	-0.23504335
190	0xbdde3533	-0.10849991
191	0x3c07c57f	0.008286833
192	0xbd434062	-0.047668822
193	0x3b22aad4	0.002482106
194	0xbdc4ad30	-0.096033454
195	0xbdf71105	-0.12063793
196	0x3d35c021	0.04437268
197	0xbe2749d8	-0.16336763
198	0x3dd22b13	0.10262122
199	0xbe19c722	-0.1501737
200	0x391dc7ee	0.00015047166
201	0x3c6a1e90	0.014289513
202	0x3e045452	0.1292279
203	0xbd953245	-0.07284979
204	0xbe522883	-0.20523266
205	0xbe9049e9	-0.2818139
206	0xbe1c19bc	-0.15244192
207	0x3d51aefe	0.051192276
208	0xbdcc080b	-0.099624716
209	0x3db64254	0.0889937
210	0xbe1c319a	-0.15253296
211	0xbdfc5b32	-0.123220816
212	0xbd0808b2	-0.033211417
213	0x3caa19a0	0.020764172
214	0xbe6c3777	-0.23068033
215	0x3bd81da8	0.006595332
216	0xbe0bad37	-0.13640295
217	0x3dc967dd	0.098342635
218	0x3db709f5	0.08937446
219	0x3db22316	0.08698098
220	0x3dbc6b9c	0.09200212
221	0xbd44f5c7	-0.048085954
222	0xbdd25e82	-0.10271932
223	0xbc267f1d	-0.010162142
224	0xbd02afb6	-0.031905852
225	0xbd7ecf8d	-0.062209655
226	0x3db0fff2	0.08642568
227	0x3db0e070	0.08636558
228	0xbd929dbe	-0.07158993
229	0xbcd9c1a8	-0.0265816
230	0xbea3d9c3	-0.32002077
231	0x3ae4a6e5	0.0017444758
232	0x3e05d3d5	0.13069089
233	0xbe001cc8	-0.12510979
234	0xbcab52d5	-0.02091352
235	0xbe5d1d20	-0.21593142
236	0x3de0019d	0.10937808
237	0x3d9619bd	0.07329128
238	0xbda385b8	-0.07984489
239	0xbd41e7ae	-0.047340088
240	0xbdcc34dc	-0.099710196
241	0x3dbe434d	0.0929018
242	0x3e0cf804	0.13766485
243	0xbe392fe9	-0.18084683
244	0xbe116d3b	-0.14201824
245	0xbda34dfa	-0.07973857
246	0x3b99bad3	0.0046914606
247	0xbe2dc5ae	-0.1696994
248	0x3dca3b5c	0.09874603
249	0x3d2e2e99	0.042524908
250	0xbda1195b	-0.07866164
251	0xbe0ba0c5	-0.13635547
252	0x3b6107f7	0.0034337023
253	0xbd356536	-0.044285975
254	0xbd424426	-0.047428273
255	0x3d47ceb6	0.04878112

weight f4 [256, 512]
0	0xbdc7865b	-0.09742423
1	0x3cf053bf	0.029336808
2	0xbe11c82c	-0.14236516
3	0xbd9c61de	-0.07635854
4	0xbcce2b94	-0.025167264
5	0x3d7dba00	0.06194496
6	0x3e178519	0.14796866
7	0x3d0c9398	0.034320444
8	0xbe0f6f69	-0.14007343
9	0x3d872e2a	0.06600602
10	0xbd3ee577	-0.046605553
11	0xbd65b6f0	-0.056082666
12	0x3cde4b97	0.027135653
13	0xbe09f2bc	-0.13471502
14	0xbd303e26	-0.04302802
15	0xbc7a2bbb	-0.015269215
16	0x3d714da9	0.058911953
17	0xbb417435	-0.0029518728
18	0xbd965ee0	-0.07342315
19	0x3de1787e	0.1100931
20	0x3d1bc325	0.0380279
21	0xbdfc8de7	-0.12331753
22	0xbe073a95	-0.13205941
23	0xbdf9d848	-0.121994555
24	0xbc40a1e6	-0.01175735
25	0xbe4f72d2	-0.20258644
26	0xbd84f9ca	-0.06492956
27	0x3daf0cf9	0.08547396
28	0xbe58542a	-0.21125856
29	0x3cd10304	0.025514133
30	0xbc583fd4	-0.013198812
31	0xbccdfa7f	-0.02514386
32	0xbe39ba1b	-0.181374
33	0x3dc5f57c	0.09665963
34	0x3e433666	0.1906372
35	0x3e2ff15e	0.17181918
36	0x3dc67404	0.09690097
37	0xbdf4d188	-0.119540274
38	0xbc51b5fa	-0.012799734
39	0xbe09f789	-0.13473333
40	0xbd9e6357	-0.07733791
41	0xbb1fad5d	-0.0024364807
42	0x3ccfde23	0.025374478
43	0x3d047aa4	0.03234352
44	0xbd7566d7	-0.05991253
45	0x3cd79a0f	0.026318578
46	0x3dd78bf6	0.10524742
47	0xbcc8983c	-0.024486654
48	0x3e4a3400	0.19746399
49	0xbe2efd45	-0.17088802
50	0x3e5f1d71	0.21788575
51	0x3e2fc434	0.1716469
52	0x3e3d16e0	0.18465757
53	0xbdc26197	-0.0949127
54	0xbe302458	-0.17201364
55	0xbdc3c29c	-0.09558603
56	0x3d2a03c6	0.041507505
57	0xbd889d75	-0.066706575
58	0x3dc5b28f	0.09653198
59	0xbc8252a5	-0.015908549
60	0x3d692e45	0.05692889
61	0x3e41a559	0.18910731
62	0xbda9e99a	-0.08296509
63	0xbdbb157f	-0.091349594
64	0x3ddc2a8c	0.10750303
65	0xbe06ca17	-0.13163029
66	0x3d950065	0.07275466
67	0xbb81fc7e	-0.003966867
68	0xbdbeb96d	-0.09312711
69	0x3dbf8472	0.09351434
70	0xbb9372c3	-0.0044997646
71	0x3ca12296	0.019669812
72	0x3cf9d542	0.030497197
73	0xbd4c2cc9	-0.049847398
74	0xbe00201e	-0.12512252
75	0xbe416d1b	-0.18889277
76	0x3d391e08	0.045194656
77	0x3e587ac5	0.21140583
78	0xbcedeb2d	-0.029042805
79	0x3d87b553	0.06626382
80	0x3e531596	0.20613703
81	0xbd82cb80	-0.06386471
82	0xbdf4ead0	-0.119588494
83	0xbd471b00	-0.048609734
84	0xbd1a7343	-0.03770758
85	0x3cfed26c	0.031106196
86	0xbda7527e	-0.08170031
87	0xbaee86ae	-0.0018198097
88	0xbd60a78b	-0.05484728
89	0xbdcfb2cb	-0.10141524
90	0xbd4c13a3	-0.049823415
91	0xbc22dd36	-0.009940436
92	0x3dc455f4	0.09586707
93	0xbe3657cc	-0.1780693
94	0xbde4b967	-0.11168175
95	0x3d3421ae	0.043977432
96	0xbdd5bc57	-0.104363136
97	0x3db6f039	0.089325376
98	0xbdcea6b6	-0.10090391
99	0xbe61b3d3	-0.22041254
100	0xbce274ce	-0.027643587
101	0x3e22a500	0.15883255
102	0xbe6aeca7	-0.22941838
103	0xbd919cee	-0.0711001
104	0xbdedae7e	-0.11605547
105	0x3e4332e6	0.19062385
106	0xbdea09d0	-0.11427653
107	0xbddddc6d	-0.108330585
108	0xbd81c4a0	-0.06336331
109	0x3d822cdd	0.06356213
110	0x3d3d9067	0.04628029
111	0x3d75e7d4	0.06003554
112	0xbc5859ac	-0.013204973
113	0xbe17b726	-0.1481596
114	0x3e03edfb	0.12883751
115	0xbd7083b1	-0.05871934
116	0x3da29021	0.07937647
117	0x3d7f7bcb	0.062373918
118	0xbd51d6ec	-0.051230356
119	0x3db24c5f	0.08705973
120	0x3d13932a	0.03602902
121	0x3d4610df	0.048355933
122	0x3c90eb9a	0.017690469
123	0xbde05cc7	-0.10955196
124	0xbcd6147a	-0.02613281
125	0x3d866e90	0.06564057
126	0x3e369583	0.17830472
127	0x3e076960	0.13223791
128	0x3d944915	0.07240502
129	0xbd4e7c66	-0.050411604
130	0x3cf0bfa7	0.029388262
131	0x3e28b893	0.1647666
132	0xbd73f2cf	-0.059557732
133	0x3c14a6a6	0.009072935
134	0x3d3b04a7	0.045658734
135	0xbd655ad2	-0.055994816
136	0xbe28aa99	-0.16471328
137	0xbe48798e	-0.1957762
138	0x3d0410b4	0.03224249
139	0x3dd0aca8	0.101891816
140	0xbe93edec	-0.28892457
141	0xbd3fc869	-0.046821985
142	0x3e12a3b5	0.14320262
143	0xbd979109	-0.0740071
144	0x3e21aeba	0.15789309
145	0xbc273d05	-0.010207419
146	0xbdb20de7	-0.08694058
147	0xbe591cfa	-0.2120246
148	0xbd9fc2db	-0.078008376
149	0xbd3d8a2a	-0.04627434
150	0xbd31f078	-0.04344222
151	0x3d73b193	0.05949552
152	0x3e03bead	0.12865706
153	0xbe3060c9	-0.1722442
154	0x3c6131f0	0.013744816
155	0xbcc2724a	-0.023736138
156	0x3d4be21b	0.049776178
157	0xbc5eadda	-0.013591254
158	0xbd52197f	-0.051293846
159	0xbdb2a211	-0.08722318
160	0x3e29ef34	0.16595155
161	0xbd191d2c	-0.037381336
162	0x3d02f10d	0.031968165
163	0xbd8dad01	-0.069177635
164	0xbe7dafd4	-0.24774104
165	0x3d7dfcde	0.06200873
166	0x3d0d5b4b	0.034510892
167	0xbe378a57	-0.17923866
168	0x3dfb7574	0.12278262
169	0x3cc8ec99	0.024526881
170	0x3c880505	0.016603956
171	0xbd7c7780	-0.0616374
172	0xbe07af86	-0.1325055
173	0xbd54576d	-0.05184119
174	0xbd0b35b8	-0.033986777
175	0x3e1d3f07	0.15356074
176	0x3bbc9fa7	0.0057563367
177	0xbbd20f7c	-0.0064105373
178	0xbe06dff5	-0.1317137
179	0x3c0f64d5	0.008752068
180	0x3c2ec204	0.010666374
181	0x3d9e9b38	0.077444494
182	0xbc838ebe	-0.016059276
183	0x3de1efa6	0.110320374
184	0xbe2a1b15	-0.16611893
185	0xbd1bd7b3	-0.038047504
186	0xbd0f2b23	-0.034953248
187	0xbc59f83c	-0.013303813
188	0x3d8985b3	0.06714954
189	0xbd31be18	-0.04339418
190	0x38aa7820	8.128607e-05
191	0xbd901b1f	-0.07036423
192	0x3e0238a0	0.12716913
193	0x3d9d8ba5	0.07692651
194	0xbd8b7ef7	-0.06811326
195	0xbd2c2aea	-0.042033114
196	0xbda454e5	-0.08024005
197	0x3dc8378c	0.0977622
198	0x3d00f0cc	0.03147964
199	0x3e0a9cbd	0.13536353
200	0xbe1a31e4	-0.15058094
201	0xbd561e7a	-0.05227516
202	0xbd17bada	-0.03704343
203	0xbdd03f06	-0.10168271
204	0x3e1b719d	0.15180059
205	0x3bde8e62	0.0067918757
206	0x3e1ce5db	0.15322058
207	0x3e5e732c	0.21723622
208	0x3d9df764	0.07713202
209	0xbbb6fe43	-0.0055845096
210	0x3d5a726f	0.05333179
211	0x3cfea181	0.03108287
212	0xbe0c5907	-0.13705836
213	0x3dd943cc	0.10608634
214	0xbc85a663	-0.016314691
215	0x3e801996	0.2501952
216	0xbd184004	-0.037170425
217	0x3cfa487d	0.030552143
218	0xbdda63f9	-0.106635995
219	0xbd867355	-0.065649666
220	0x3da04163	0.078249715
221	0xbe1cfb7d	-0.1533031
222	0xbe1bab3b	-0.15202038
223	0xbd882d8d	-0.06649313
224	0x3e112b1b	0.141766
225	0x3d15efaa	0.036605515
226	0xbe4c81bf	-0.19971369
227	0xbda94f50	-0.08267081
228	0x3c48bab9	0.012251549
229	0xbc92139d	-0.017831618
230	0xbd5922c0	-0.053011656
231	0x3e27c5e5	0.16384085
232	0x3d4a62c6	0.049410604
233	0x3d7f27c5	0.062293787
234	0xbc87414c	-0.016510628
235	0xbafeccfe	-0.0019439755
236	0x3e1557cf	0.14584278
237	0x3d921b13	0.0713407
238	0xbda16bba	-0.07881875
239	0x3dd63658	0.10459584
240	0x3e21d83d	0.15805145
241	0x3bd7fa54	0.0065911207
242	0x3d951f1d	0.07281325
243	0xbe0722ea	-0.13196912
244	0x3cb1d393	0.021707332
245	0xbe457f80	-0.19286919
246	0xbc1b4d75	-0.009478916
247	0xbdd67319	-0.10471172
248	0x3cbebbca	0.023282904
249	0xbe23d123	-0.15997748
250	0xbd28d0d5	-0.041214783
251	0xbcc5b071	-0.024131985
252	0x3d891852	0.06694092
253	0x3c606199	0.013695144
254	0xbdedd516	-0.116129085
255	0xbe94f43b	-0.29092583

bias f4 [256]
0	0xbd831977	-0.064013414
1	0x3b69d60e	0.0035680565
2	0xbded3e22	-0.115841165
3	0xbe59b8c3	-0.21261887
4	0xbdbd169e	-0.092328295
5	0xbe02a830	-0.12759471
6	0xbdc5c179	-0.096560426
7	0xbea5dac7	-0.32393476
8	0xbe0532b9	-0.1300763
9	0xbdf7d9c6	-0.12102084
10	0xbd2221a6	-0.03958287
11	0xbe04673b	-0.12930004
12	0xbd624906	-0.05524542
13	0xbd64ba75	-0.05584188
14	0xbe2e09a6	-0.16995868
15	0xbd9d9956	-0.07695262
16	0xbda8fc7d	-0.08251283
17	0xbe34a1d4	-0.17639858
18	0xbebfa59a	-0.3743103
19	0xbdcc6181	-0.09979535
20	0xbe26619c	-0.16248173
21	0xbe365cc7	-0.17808829
22	0xbcd520d3	-0.026016628
23	0xbdad2914	-0.08455101
24	0xbd771c36	-0.06032964
25	0xbe52d5b0	-0.20589328
26	0xbdfe5534	-0.12418595
27	0xbe8c79d4	-0.27436697
28	0xbd57f9e9	-0.052728567
29	0xbe30cc8c	-0.17265528
30	0xbe140329	-0.1445433
31	0xbead4163	-0.3383895
32	0xbd5ba01d	-0.053619493
33	0xbd4da16c	-0.050202772
34	0xbe3aab16	-0.18229327
35	0xbd8a90dc	-0.06765911
36	0xbdb00854	-0.085953385
37	0xbe2b16c7	-0.16707908
38	0xbe609e5b	-0.21935408
39	0xbd8f94af	-0.07010781
40	0xbdc91db0	-0.098201156
41	0xbdd419ba	-0.103564695
42	0xbe4003a9	-0.18751396
43	0xbee70607	-0.45121786
44	0xbcddafd4	-0.02706138
45	0xbddb7ef6	-0.10717575
46	0xbd895fdb	-0.06707736
47	0xbdd97485	-0.106179275
48	0xbddeb70e	-0.10874759
49	0xbdd6e5c4	-0.10493043
50	0xbe048a48	-0.12943375
51	0xbd3ad5a8	-0.045613915
52	0xbf07dafd	-0.53068525
53	0xbe2753b9	-0.16340531
54	0xbe26e978	-0.16299999
55	0xbd0eceb9	-0.034865115
56	0xbbb4d94d	-0.0055190683
57	0xbe4f8df9	-0.20269002
58	0xbd8d06c0	-0.06886053
59	0xbe9941f6	-0.29933137
60	0xbc63d980	-0.0139068365
61	0xbe4f8cf1	-0.20268609
62	0xbe7fc38f	-0.24976943
63	0x3d16dea4	0.03683342
64	0xbe2bd174	-0.16779119
65	0xbcc3a10a	-0.0238805
66	0xbe0193bb	-0.12654011
67	0xbe2c0807	-0.16799937
68	0x3d581308	0.052752525
69	0xbde7f44a	-0.11325891
70	0xbe304ced	-0.17216845
71	0xbcf4f936	-0.02990399
72	0xbdfdc289	-0.1239062
73	0xbceff80d	-0.029293085
74	0x3cb226ba	0.021746982
75	0xbe6e8f65	-0.23296888
76	0xbe49f613	-0.19722776
77	0xbe5f7903	-0.21823506
78	0x3d681067	0.056656267
79	0x3cb8f127	0.022575928
80	0xbe51c163	-0.20483927
81	0xbccf65b1	-0.025317045
82	0xbe259b07	-0.1617242
83	0xbda7b438	-0.08188671
84	0xbdd28be4	-0.10280588
85	0xbdea31aa	-0.11435254
86	0xbe0366db	-0.12832205
87	0xbd9740d6	-0.07385413
88	0xbe093c94	-0.13402015
89	0xbd7e2c03	-0.06205369
90	0xbe084909	-0.1330911
91	0xbdd7ea5a	-0.10542746
92	0xbe022d4f	-0.12712596
93	0xbd9a9e68	-0.07549745
94	0xbdb17cae	-0.08666359
95	0xbe15d5ac	-0.1463229
96	0xbdd15467	-0.102211766
97	0xbdf7c0d1	-0.12097324
98	0xbe1f5795	-0.15560754
99	0xbe86c91c	-0.2632531
100	0xbe379500	-0.17927933
101	0xbd0bf03a	-0.034164645
102	0xbefd75a6	-0.4950382
103	0xbe56fabf	-0.2099409
104	0x3bf69a87	0.0075257453
105	0xbe7615e3	-0.24031787
106	0xbe507d06	-0.20360193
107	0xbe69bd01	-0.22826006
108	0xbdac779f	-0.084212534
109	0xbdd5c4d6	-0.10437934
110	0xbe83041a	-0.25589067
111	0xbdff1d8a	-0.12456806
112	0xbce94b9d	-0.028478438
113	0xbe4ba352	-0.1988652
114	0x3d626f55	0.055281956
115	0xbe22e7f9	-0.15908803
116	0xbdc67498	-0.09690207
117	0xbe732cd1	-0.23747565
118	0xbe27d254	-0.16388828
119	0xbebd0f17	-0.36925575
120	0xbdf42c28	-0.11922485
121	0xbdb21a30	-0.08696401
122	0xbdeb8d97	-0.115016155
123	0xbe23dda1	-0.16002513
124	0xbd9af6c7	-0.075666
125	0xbd750d62	-0.059827216
126	0xbe0bc2a3	-0.13648467
127	0xbe4a14b2	-0.19734457
128	0xbd441d45	-0.047879476
129	0xbe4961b0	-0.19666171
130	0xbd957cb9	-0.072991796
131	0xbdc60650	-0.09669173
132	0xbe19907e	-0.14996526
133	0x3c9bd515	0.019022504
134	0xbd4633cd	-0.048389245
135	0xbe96114e	-0.29310077
136	0xbde2933b	-0.11063238
137	0xbe4aae08	-0.1979295
138	0xbcdf9954	-0.027294792
139	0xbe34e8bc	-0.17666906
140	0xbe72a094	-0.23694068
141	0xbde66ba1	-0.11250997
142	0xbe1127ff	-0.14175414
143	0xbde07b45	-0.10961012
144	0xbe3313af	-0.17487977
145	0xbeb13379	-0.34609583
146	0xbd99fc43	-0.07518818
147	0xbe0416a9	-0.12899269
148	0xbd7bf4d4	-0.061512783
149	0xbe669ba8	-0.22520316
150	0xbdd2bf74	-0.10290423
151	0xbe1bb0ca	-0.15204158
152	0xbdd97fea	-0.10620101
153	0x3d1bfaa5	0.03808083
154	0xbe53e62f	-0.20693277
155	0xbe7cbb1b	-0.2468075
156	0xbdb2f180	-0.08737469
157	0xbe1a6c18	-0.15080297
158	0xbe0e028d	-0.1386816
159	0xbe1797b0	-0.14803958
160	0xbe08fa93	-0.13376836
161	0xbe049348	-0.12946808
162	0xbe93cf79	-0.28869227
163	0xbe2ca2c2	-0.16858962
164	0xbe089c38	-0.13340843
165	0xbe6a47fb	-0.22879021
166	0xbd497474	-0.049183324
167	0xbd3e77c6	-0.046500944
168	0xbe21c862	-0.15799096
169	0xbdb3f6c6	-0.08787303
170	0xbd12385c	-0.03569828
171	0x3d51e805	0.05124666
172	0xbd558a33	-0.05213375
173	0xbdce2fbf	-0.100677006
174	0xbe082ef9	-0.13299169
175	0xbe7e2f32	-0.24822691
176	0xbe248262	-0.16065362
177	0xbd4dd637	-0.05025312
178	0xbdf0a97b	-0.11751076
179	0xbe0857af	-0.13314699
180	0xbe4a911b	-0.19781916
181	0xbe64c9c4	-0.22342592
182	0xbed7be60	-0.42137432
183	0xbdca4990	-0.09877312
184	0xbe9969d0	-0.2996354
185	0xbe6f9ec3	-0.23400407
186	0xbd6b45a1	-0.05743945
187	0xbeb1bdd5	-0.34715143
188	0xbe296d6f	-0.16545652
189	0xbde0b521	-0.109720476
190	0xbd1fc5a6	-0.03900685
191	0x3d332807	0.043739345
192	0xbe24e1c1	-0.16101743
193	0xbe2066de	-0.1566424
194	0xbd99fa4c	-0.075184435
195	0x3d396274	0.045259908
196	0xbe61f94d	-0.22067757
197	0xbe73f76e	-0.23824856
198	0xbde4e93f	-0.11177301
199	0xbd1b00d6	-0.037842594
200	0xbde358aa	-0.11100896
201	0xbbb03bcb	-0.0053782216
202	0xbdb6ee4f	-0.089321725
203	0xbdaf5471	-0.08561028
204	0xbd96e2c2	-0.07367469
205	0xbe01dd0b	-0.12681977
206	0xbe836ae7	-0.25667498
207	0xbe18980c	-0.14901751
208	0xbe5f6f9b	-0.21819918
209	0xbe0521fa	-0.13001242
210	0xbe2ae4ec	-0.1668889
211	0xbdc97156	-0.0983607
212	0xbe2ff773	-0.17184238
213	0xbe186c11	-0.14884974
214	0xbd3439d0	-0.044000447
215	0xbe20cee9	-0.1570393
216	0xbe172a45	-0.14762218
217	0xbd99ce05	-0.07509998
218	0xbe21607a	-0.15759459
219	0xbdcaf8be	-0.09910725
220	0xbd94c093	-0.07263293
221	0xbcaf719c	-0.021416478
222	0xbd9160d6	-0.07098548
223	0xbe0785b9	-0.13234605
224	0xbe9df1f9	-0.30848673
225	0xbddccd39	-0.107813306
226	0x3bcf23e8	0.006321419
227	0xbe07c1c4	-0.1325751
228	0xbe0995dd	-0.13436075
229	0x3c9262e8	0.017869428
230	0xbe05a271	-0.13050248
231	0xbe271070	-0.16314864
232	0xbe4d9cff	-0.2007942
233	0xbd9cf91e	-0.07664703
234	0xbe413052	-0.18866089
235	0xbde9bcda	-0.11412974
236	0xbd5dca2f	-0.054147895
237	0xbd9ea783	-0.07746794
238	0xbe0b042d	-0.13575812
239	0xbee0c04d	-0.43896714
240	0xbd26fad3	-0.04076655
241	0xbe0b45af	-0.13600801
242	0xbe343f45	-0.1760226
243	0xbcdb99f4	-0.026806809
244	0xbdcd774f	-0.10032522
245	0xbdac5429	-0.0841449
246	0xbe325364	-0.17414623
247	0xbdd9f896	-0.10643117
248	0xbe6ead6e	-0.23308346
249	0xbe442e06	-0.19158182
250	0xbb481349	-0.0030529073
251	0xbe410e89	-0.18853201
252	0xbe198e20	-0.14995623
253	0xbd53419e	-0.05157625
254	0xbe0d50ce	-0.13800356
255	0xbdd12d92	-0.1021377

weight f4 [128, 256]
0	0x3d07caf2	0.033152528
1	0xbe067a20	-0.13132524
2	0xbe0fb0b7	-0.14032255
3	0x3dfdcde4	0.12392786
4	0x3d182cee	0.037152223
5	0x3da9dbf8	0.08293909
6	0xbd956665	-0.07294921
7	0xbd05a6d2	-0.032629795
8	0x3dfb8da7	0.122828774
9	0x3d1d68ff	0.03843021
10	0xbde9fed1	-0.114255555
11	0xbde82bdf	-0.11336493
12	0xbd9cc52a	-0.076547936
13	0x3cc069a6	0.023487877
14	0x3d0863e9	0.033298407
15	0x3d9f19c4	0.07768586
16	0xbe10fad6	-0.14158186
17	0x3d7838df	0.06060111
18	0xbc642bae	-0.01392643
19	0xbc27c96b	-0.010240893
20	0xbda2e3cc	-0.07953605
21	0xbdd1f170	-0.10251129
22	0x3d3aaeef	0.045576986
23	0xbdafc212	-0.08581938
24	0xbc30033a	-0.010742957
25	0xbdbe4ff2	-0.09292592
26	0x3dc0ca8f	0.09413635
27	0x3cb857d6	0.022502821
28	0xbce54e97	-0.027991576
29	0xbbd8c6dc	-0.0066155028
30	0xbda29278	-0.07938093
31	0xbd372482	-0.04471255
32	0x3d2a9d45	0.04165389
33	0xbcc7173f	-0.024303077
34	0x3d2c6eda	0.042097904
35	0x3ce45f3f	0.027877448
36	0xbdcd13f3	-0.10013571
37	0xbe9904bc	-0.29886425
38	0xbde7df86	-0.113219306
39	0xbc48e3ae	-0.012261314
40	0x3cf21502	0.029551033
41	0x3e1397d1	0.14413382
42	0xbe177d84	-0.14793974
43	0x3d71ca73	0.05903096
44	0xbdc1588c	-0.09440717
45	0x3cad3012	0.021141086
46	0x3e6582e3	0.2241321
47	0xbd8f371a	-0.06992932
48	0xbe3476d0	-0.17623448
49	0xbdb8c5aa	-0.090220764
50	0xbda9189f	-0.08256649
51	0xbdec7aa5	-0.1154683
52	0xbd28203b	-0.041046362
53	0x3d654fbf	0.055984255
54	0xbc6f0d9d	-0.014590648
55	0xbd06cd2e	-0.03291052
56	0x3dbf7dd3	0.09350171
57	0xbd1a5a63	-0.037683856
58	0x3a595172	0.00082900294
59	0xbe45ca0b	-0.19315355
60	0xba6cb755	-0.0009030004
61	0x3ddacee2	0.10683991
62	0xbd7f3c02	-0.062313087
63	0xbd27cde4	-0.040967837
64	0x3c37081b	0.011171366
65	0x3d8c0641	0.0683713
66	0x3cf0583f	0.029338954
67	0x3ba0ee5f	0.0049112285
68	0x3e029580	0.12752342
69	0xbda40363	-0.080084585
70	0x3c194d2d	0.009356779
71	0xbb971b14	-0.0046113823
72	0x3e0312b9	0.12800111
73	0xbdd262fe	-0.102727875
74	0xbd4e9422	-0.05043424
75	0xbd269065	-0.04066505
76	0xbbd205f5	-0.0064094015
77	0x3db669f6	0.08906929
78	0xbdc0d0cf	-0.09414827
79	0xbd4f7f16	-0.050658308
80	0xbdd7edaf	-0.105433814
81	0xbc4f53d6	-0.012654265
82	0x3ccca2ac	0.024979912
83	0xbd12193e	-0.035668604
84	0x3c023667	0.007947541
85	0x3e1e31b6	0.1544865
86	0x3e2115c8	0.15730965
87	0x3d9e2dba	0.077235654
88	0x3d932e8d	0.07186613
89	0xbd97f3d8	-0.074195564
90	0x397c58f8	0.00024065736
91	0x3c0a8343	0.008454147
92	0xbddf8217	-0.109134845
93	0xbcddcc9b	-0.027075103
94	0x3dcbef7e	0.09957789
95	0x3c05d3fc	0.008168217
96	0xbdac1618	-0.084026515
97	0xbd585014	-0.052810743
98	0x3da9bdd7	0.08288162
99	0xbb6d482e	-0.0036206353
100	0x3de3bc37	0.111198835
101	0xbcc0a9e7	-0.023518516
102	0x3e021ee7	0.12707101
103	0xbd69a9cd	-0.0570467
104	0x3dd315ab	0.10306867
105	0x3d35657c	0.044286236
106	0xbdbfccae	-0.093652114
107	0xbd5ca455	-0.053867657
108	0xbe1aaa24	-0.15103966
109	0x3c5d71f5	0.013515939
110	0x3cf0e065	0.029403875
111	0xbe069d7e	-0.13146016
112	0xbd5aaf1f	-0.053389665
113	0xb95884de	-0.00020648862
114	0x3da312b8	0.07962555
115	0x3ddfde20	0.10931039
116	0x3da5db93	0.08098521
117	0xbe660522	-0.22462896
118	0xbe1e1870	-0.1543901
119	0xbd259be7	-0.040431883
120	0xbe8f21bb	-0.27955422
121	0xbc7fae27	-0.015605486
122	0x3cdcff3c	0.026977174
123	0xbbdd839b	-0.0067600734
124	0x3d86bbbe	0.06578778
125	0xbdf6c643	-0.12049534
126	0x3d223db9	0.039609645
127	0x3d8e5b64	0.06951025
128	0x3e53a812	0.20669582
129	0x3de478ec	0.111558765
130	0x3da18a9a	0.07887764
131	0xbe2c40b6	-0.1682156
132	0xbcdc86f9	-0.026919829
133	0xbd9ff0c6	-0.07809596
134	0x3d7e32fb	0.062060338
135	0x3e46fc05	0.19432075
136	0xbdbadb5e	-0.09123872
137	0x3cf61749	0.0300404
138	0xbde3b62e	-0.111187324
139	0x3d08d893	0.033409666
140	0xbddccd3f	-0.10781335
141	0x3d4eecf3	0.05051894
142	0x3daff9ce	0.08592568
143	0x3d92222c	0.07135424
144	0x3d131d8f	0.03591686
145	0xbda83e2a	-0.08214982
146	0x3c283837	0.010267309
147	0xbc6fbeb0	-0.014632866
148	0x3d87a8c4	0.06623986
149	0x3d4f8eb9	0.05067322
150	0xbd8fa1b2	-0.07013263
151	0x3db60150	0.08886969
152	0x3c5d670c	0.013513338
153	0x3c584199	0.013199233
154	0xbc888f2b	-0.01666983
155	0x3d4d9f04	0.050200477
156	0x3df235a1	0.11826635
157	0x3d302c8f	0.043011244
158	0x3de574f6	0.11203949
159	0xbdbaebb3	-0.09126987
160	0xbda7ebc7	-0.08199268
161	0x3d62bcf6	0.05535599
162	0x3dd1b60f	0.10239803
163	0x3b042836	0.002016557
164	0xbe44c9ae	-0.1921756
165	0xbc5dfacf	-0.013548567
166	0x3e00269e	0.12514731
167	0xbcaf8f0b	-0.021430513
168	0x3d715585	0.05891945
169	0x3cfc09e7	0.03076644
170	0xbddceba1	-0.1078713
171	0xbda55751	-0.08073295
172	0xbe495f2e	-0.19665214
173	0x3cb96982	0.022633318
174	0xbd9b0382	-0.075690284
175	0x3dbb0f8b	0.09133824
176	0xbd7cd231	-0.06172389
177	0xbe24106d	-0.16021891
178	0x3c55a8d9	0.013040745
179	0xbe667d30	-0.22508693
180	0x3db388a3	0.08766296
181	0xbcd85a70	-0.026410311
182	0x3dca4e7a	0.098782495
183	0xbe47e768	-0.19521868
184	0xbd9a2024	-0.075256616
185	0xbd06a238	-0.032869548
186	0xbda91e99	-0.08257789
187	0x3d9f5049	0.07778985
188	0x3e0174e5	0.12642248
189	0x3da5189c	0.080613345
190	0xbd2a5baa	-0.041591324
191	0xba5dab68	-0.00084560225
192	0xbcaf9893	-0.021435058
193	0x3dbf0215	0.09326569
194	0xbe67c21c	-0.2263264
195	0x3da337c7	0.07969623
196	0xbe27130a	-0.16315857
197	0x3db9a53a	0.090647176
198	0xbd6b4dc7	-0.05744722
199	0xbd87d5b0	-0.066325545
200	0x3d9cdc0c	0.07659158
201	0x3d46b1d9	0.048509452
202	0xbd8b9ac2	-0.06816627
203	0xbe002b36	-0.12516484
204	0x3e0b2ea4	0.1359201
205	0xbe677002	-0.22601321
206	0xbe280cb2	-0.16411093
207	0x3cda11ef	0.02661988
208	0x3d8e913e	0.069612965
209	0x3dcca5a3	0.0999253
210	0x3d8152e5	0.06314639
211	0xbd84b4b4	-0.06479779
212	0x3d9e1d15	0.07720391
213	0xbd637f0b	-0.05554108
214	0xbe2e5b53	-0.17027025
215	0x3e5d2679	0.21596707
216	0x3d33e005	0.043914814
217	0x3db1d6b9	0.08683533
218	0xbe3b2746	-0.182767
219	0xbce5d9b7	-0.028057916
220	0x3b2c20d4	0.0026264684
221	0x3b6d7717	0.0036234313
222	0x3d0fa47e	0.03506898
223	0xbce9d493	-0.028543746
224	0xbda1c9af	-0.07899796
225	0x3da7e77e	0.081984505
226	0xbca5df91	-0.020248206
227	0xbd796259	-0.060884807
228	0x3c75071c	0.014955308
229	0x3cb8b6de	0.022548135
230	0x3a1ea578	0.00060518784
231	0xbe3909fe	-0.18070218
232	0xbd32f149	-0.04368714
233	0x3ce9220a	0.028458614
234	0xbdeab6ab	-0.114606224
235	0x3b8d5e9f	0.004314258
236	0x3d6fe677	0.058569398
237	0xbe19c484	-0.15016371
238	0x3d151eaf	0.036406215
239	0x3dfc26a8	0.123120606
240	0x3d2de439	0.04245398
241	0x3d79478e	0.060859255
242	0xbe8aca45	-0.27107444
243	0xbcc90ade	-0.024541315
244	0xbd1b8b1d	-0.037974466
245	0xbc238507	-0.009980447
246	0x3cd91d81	0.026503326
247	0xbe068dd8	-0.13140047
248	0xbdf6c293	-0.12048831
249	0x3d1ce8da	0.038308002
250	0xbe00f12e	-0.12592003
251	0x3cb0f082	0.021599058
252	0x3da169b0	0.078814864
253	0x3dff885f	0.124771826
254	0xbda4eb45	-0.080526866
255	0xbc4f83f7	-0.01266574

bias f4 [128]
0	0xbe494449	-0.19654955
1	0xbe018702	-0.12649158
2	0xbe0d1bd5	-0.13780148
3	0xbd34aba0	-0.044108987
4	0xbdd0892f	-0.10182416
5	0xbdc3c006	-0.0955811
6	0xbe287f3d	-0.16454788
7	0xbe0785c8	-0.13234627
8	0xbd3a0162	-0.045411475
9	0xbde2e3dd	-0.11078618
10	0xbd8f3cc5	-0.06994013
11	0x3c2c66d2	0.010522561
12	0xbd52436c	-0.05133383
13	0xbdbd9b34	-0.09258118
14	0xbd84d7c3	-0.06486466
15	0xbe02dba2	-0.12779096
16	0xbe23da21	-0.16001178
17	0xbe31c9f8	-0.17362201
18	0xbd5a19a0	-0.053247094
19	0xbe3077e8	-0.1723324
20	0xbe559a21	-0.20859577
21	0xbdf405d9	-0.11915178
22	0xbdc2cf07	-0.095121436
23	0xbb6ebb78	-0.0036427658
24	0xbde9ac91	-0.114098676
25	0xbde8cdf1	-0.11367405
26	0xbdc5ba2a	-0.096546486
27	0xbe1d8d14	-0.15385848
28	0xbdc0fe1c	-0.094234675
29	0xbd81ed99	-0.06344146
30	0xbec51e41	-0.38499644
31	0xbdb5f1f8	-0.088840425
32	0xbd0f32aa	-0.034960426
33	0xbe393f22	-0.1809049
34	0xbd7ff457	-0.06248888
35	0x3d46e6a8	0.048559815
36	0xbdd16d26	-0.102258965
37	0xbea68507	-0.32523367
38	0xbdaee2f5	-0.08539382
39	0xbdf4bc05	-0.119499244
40	0xbe90228b	-0.28151354
41	0xbe11b9d7	-0.14231049
42	0xbe3a602f	-0.18200754
43	0xbd46630e	-0.04843431
44	0xbeaec498	-0.34134364
45	0xbdddf3c2	-0.10837509
46	0xbe6a1756	-0.22860464
47	0x3c627886	0.01382268
48	0x3cf690fe	0.030098435
49	0xbe0f69ca	-0.14005199
50	0xbd9c8d22	-0.076441064
51	0xbddfc891	-0.10926927
52	0xbe0ad174	-0.13556463
53	0xbeb2da24	-0.34932053
54	0xbe1c0da1	-0.15239574
55	0xbddaf964	-0.10692099
56	0xbe25c0a0	-0.16186762
57	0xbd7391cd	-0.05946522
58	0xbd0aa798	-0.033851236
59	0xbd39e496	-0.045384012
60	0xbdd62d3a	-0.10457845
61	0xbe454d41	-0.19267751
62	0xbd89aa62	-0.06721951
63	0x3c2adb93	0.010428327
64	0xbde2680c	-0.110550016
65	0xbd87ff7c	-0.06640527
66	0xbe316319	-0.17322959
67	0xbd5fae68	-0.054609686
68	0xbd73a243	-0.059480917
69	0xbdf9c757	-0.12196224
70	0xbe3bddd4	-0.1834634
71	0xbd8adc8c	-0.06780347
72	0xbe267522	-0.1625562
73	0xbd913bfa	-0.07091518
74	0xbd5a58fb	-0.053307515
75	0xbd24b1a5	-0.040208478
76	0xbdd54e42	-0.10415317
77	0xbd337013	-0.043808054
78	0xbe17798b	-0.14792459
79	0xbed74865	-0.4204742
80	0xbe0971d4	-0.13422328
81	0xbd960340	-0.07324839
82	0x3df495e8	0.11942655
83	0xbd80ebf8	-0.062950075
84	0xbdaed917	-0.085375
85	0xbd08bf90	-0.033385813
86	0xbdddf76d	-0.10838208
87	0xbda89fcd	-0.082336046
88	0xbe071992	-0.13193348
89	0xbdc0d047	-0.09414726
90	0xbd858b30	-0.065206885
91	0xbd4fc965	-0.050729174
92	0xbe6e9e62	-0.23302606
93	0x3d343460	0.04399526
94	0x3c7d1525	0.015446936
95	0xbd8ebb13	-0.06969275
96	0xbe1e0b57	-0.15434013
97	0xbe15cff4	-0.14630109
98	0xbe0a7322	-0.13520482
99	0xbe79b90c	-0.24386996
100	0xbe219e67	-0.15783082
101	0xbd3f3f20	-0.04669106
102	0xbd60fc2e	-0.054927997
103	0xbdcf0e4e	-0.1011015
104	0xbdc8455c	-0.09778854
105	0x3d1c7519	0.03819761
106	0xbe0eeeed	-0.1395833
107	0xbe3a2b7a	-0.18180647
108	0xbcd7b20a	-0.026330013
109	0xbe068ce7	-0.13139687
110	0xbe022cb0	-0.1271236
111	0xbd98a9cd	-0.07454262
112	0xbdc9ebb8	-0.09859413
113	0xbd86d4b7	-0.06583541
114	0xbe93459c	-0.28764045
115	0x3d85e6b9	0.065381475
116	0xbd70b47e	-0.05876588
117	0x3c98d5a7	0.018656565
118	0xbe530bcf	-0.20609973
119	0xbe4947b6	-0.19656262
120	0xbdd16036	-0.10223429
121	0xbd9b5050	-0.07583678
122	0xbe24bba0	-0.16087198
123	0xbde355f1	-0.111003764
124	0xbe12e5e4	-0.14345509
125	0xbd45b495	-0.04826792
126	0xbd410009	-0.047119174
127	0xbdaf244e	-0.085518464

weight f4 [12, 128]
0	0xbc8c96c4	-0.017161734
1	0x3d15dbff	0.036586758
2	0x3d16fc1f	0.036861535
3	0xbcdc7989	-0.026913421
4	0x3dcb26a8	0.099194825
5	0xbc6ed3a5	-0.014576827
6	0xbd13601a	-0.03598032
7	0x3c91ce7d	0.017798657
8	0x3cce2a28	0.025166586
9	0x3c22259f	0.009896665
10	0xbc2dd05a	-0.010608757
11	0x3ce3cd36	0.027807813
12	0xbc01d243	-0.007923665
13	0xbce38b42	-0.027776364
14	0x3c03c122	0.008041652
15	0xbcbc86a8	-0.023013428
16	0x3d304031	0.043029968
17	0x3d257e8a	0.04040388
18	0xbcd00c78	-0.02539657
19	0xbcb4a85b	-0.022052934
20	0x3d26d04d	0.040725995
21	0xbc2d2ebe	-0.010570226
22	0x3d094efb	0.033522587
23	0xbd9b1f46	-0.07574324
24	0xbdbd4518	-0.09241694
25	0xbbd84792	-0.0066003287
26	0xbd0a4981	-0.033761505
27	0x3d3739b6	0.04473277
28	0xbd0f0492	-0.034916468
29	0x3d5dfb62	0.054194815
30	0x3ce54631	0.027987571
31	0x3d988186	0.0744658
32	0xbba39fc0	-0.004993409
33	0x3c1b6bd0	0.009486154
34	0x3c8187d5	0.01581184
35	0x3c8f8aef	0.017522303
36	0x3c473e16	0.012160799
37	0x3d01bb1e	0.03167259
38	0xbc186f02	-0.00930381
39	0xbd9c905c	-0.07644722
40	0xbbb86d64	-0.0056282748
41	0xbd81da09	-0.06340415
42	0x3d027e72	0.03185887
43	0x3bc88a3b	0.006119994
44	0x3b2cb290	0.0026351549
45	0x3c8393be	0.01606166
46	0xbc201e26	-0.009772813
47	0x3d49fee0	0.049315333
48	0x3ba235ff	0.0049502845
49	0xbcebdd2a	-0.028791983
50	0xbd002d3c	-0.03129314
51	0x3cd756f0	0.026286572
52	0xbc853189	-0.016258972
53	0x3df2b2b3	0.118504904
54	0x3ca79f97	0.02046184
55	0xbc744f83	-0.014911535
56	0x3d5cb730	0.05388564
57	0xbca8f110	-0.02062276
58	0x3c0e2a62	0.008677097
59	0xbbbed1c0	-0.005823344
60	0xbb9f8900	-0.0048686266
61	0x397e0ff9	0.00024229278
62	0xba4d08ba	-0.000782143
63	0xbb04e35d	-0.002027712
64	0x3bfada80	0.0076554418
65	0xbcddda33	-0.027081585
66	0x3d5f49f4	0.054513887
67	0xbc581208	-0.013187893
68	0xbd384241	-0.04498506
69	0xbc922474	-0.017839648
70	0xbb468e33	-0.003029716
71	0xbcb2977e	-0.021800753
72	0xbc5f9f5a	-0.013648832
73	0x3cb31ec0	0.021865249
74	0x3cd74537	0.026278121
75	0xbd1ef153	-0.038804363
76	0x3cac859a	0.0210598
77	0xbbdd3482	-0.006750644
78	0x3c32b987	0.010908491
79	0xbde7d098	-0.11319083
80	0xbd5289bf	-0.051400896
81	0x3b6b4d18	0.0035904106
82	0xbd623257	-0.05522379
83	0x3cc91243	0.02454484
84	0x3c895276	0.016762953
85	0x3cb803ac	0.022462688
86	0xbd01ad2c	-0.03165929
87	0x3cae759b	0.021296313
88	0xbd2f2551	-0.042760197
89	0x3cf1e2d7	0.029527111
90	0x3ccc4da0	0.024939358
91	0x3bd61a77	0.0065339166
92	0x3d1c0682	0.038092144
93	0xbccd2a97	-0.025044722
94	0xbc82c22b	-0.015961727
95	0x3dfe3a9c	0.124135226
96	0x3cfd9fd4	0.030960001
97	0xbbbe62af	-0.005810104
98	0xbc6cf588	-0.014462836
99	0xbdfedebd	-0.12444828
100	0x39aaa025	0.00032544244
101	0x3a6c7fa4	0.00090217055
102	0xbc971539	-0.018442737
103	0x3cc59aa2	0.024121586
104	0x3cdbd2e3	0.026833957
105	0xbd094973	-0.033517312
106	0xbd6dface	-0.058100514
107	0x3aaed165	0.0013337551
108	0xbc3c628b	-0.011498104
109	0x3d97706f	0.07394492
110	0xbb983cfe	-0.0046459427
111	0xbc8e839f	-0.017396746
112	0x3c67164a	0.014104435
113	0x3c4b450f	0.012406602
114	0x3bb0db8d	0.0053972662
115	0xbd9de5c8	-0.07709843
116	0x3c7cc695	0.015428205
117	0xbcdb333f	-0.026757834
118	0x3ce1371a	0.027492095
119	0xbd8f14e6	-0.06986408
120	0x3a391214	0.0007059884
121	0xbc9e5574	-0.019327857
122	0x3d91156a	0.070841625
123	0x3cac0e31	0.02100286
124	0x3cf9b476	0.030481558
125	0x3d418a43	0.047250997
126	0x3a087b96	0.0005206404
127	0x3ba86926	0.005139488
128	0xbc1b770e	-0.009488834
129	0xbcb7ef03	-0.022452837
130	0x3bd4c1ee	0.006492845
131	0x3cb9a0ea	0.022659738
132	0x3d75ff16	0.060057722
133	0xbd30851d	-0.043095697
134	0x3cee2965	0.029072473
135	0xbbc3d4ba	-0.0059762867
136	0xbcd92157	-0.026505155
137	0x3db0db7c	0.08635613
138	0x3b072472	0.0020621088
139	0x3d2687d3	0.040656876
140	0xbd867dee	-0.06566988
141	0xbb4ad86b	-0.003095175
142	0x3d0dc17c	0.03460835
143	0x3d85e49a	0.06537743
144	0x3d61dcd2	0.05514223
145	0x3d3f1b52	0.046656914
146	0x3c856db2	0.016287658
147	0xbd059d0d	-0.03262048
148	0xbd42efd8	-0.047592014
149	0xbbdcc227	-0.006737012
150	0xbc3aca3e	-0.011400757
151	0xbd93c804	-0.07215884
152	0x3c8263fe	0.01591682
153	0xbb4f0271	-0.0031587149
154	0x3d8bc451	0.06824554
155	0x3d2f3161	0.0427717
156	0xbb89a9bb	-0.0042011417
157	0x3d4ed2ed	0.050494123
158	0x3d9b9105	0.0759602
159	0xbd4fc384	-0.050723568
160	0x3bcaded7	0.0061911154
161	0xbbf6b8cf	-0.007529355
162	0xbc48af6c	-0.012248855
163	0xbd61a8d8	-0.055092663
164	0x3d23d361	0.03999651
165	0xbd46fff4	-0.04858394
166	0xbc5a3cb8	-0.013320141
167	0x3c90139b	0.017587474
168	0x3a055eb5	0.000508766
169	0x3d6159ae	0.055017166
170	0xbd2ae7cb	-0.04172496
171	0xbd9cb9f8	-0.07652658
172	0x3c1c6092	0.0095445085
173	0xbc3467e7	-0.0110111
174	0x3c9528c5	0.018207917
175	0x3bda1240	0.0066550076
176	0xbcaa4a9f	-0.020787535
177	0x3c805ac7	0.015668286
178	0xbc9696fa	-0.018382538
179	0x3d2872ff	0.041125294
180	0xbb048bf3	-0.0020225018
181	0x3c79e36f	0.015251978
182	0x3cb66acb	0.02226772
183	0xbbea0cc2	-0.007142634
184	0x3d7e7cfa	0.062130906
185	0xbd3773f8	-0.04478833
186	0xbce79160	-0.028267562
187	0xbc6b1afa	-0.014349693
188	0x3d2373d6	0.03990539
189	0x3c306bce	0.01076789
190	0x3d3f2f0f	0.046675738
191	0x3cdbea13	0.026845014
192	0xbcef49d0	-0.029210001
193	0xbba1aeae	-0.0049341535
194	0xbd8afd52	-0.06786598
195	0x3b7dca0e	0.003872517
196	0x3d027e83	0.031858932
197	0xbcc93d39	-0.024565326
198	0x3a6cb7ae	0.0009030056
199	0xbd2e9812	-0.042625494
200	0xbcb6501c	-0.022254996
201	0xbc4d70e9	-0.012539127
202	0x3d183101	0.03715611
203	0xbdcc250e	-0.09968005
204	0x3d5f497b	0.054513436
205	0xbc168bc9	-0.009188601
206	0x3ca2ca20	0.019871771
207	0x3ba8fe78	0.005157288
208	0x3d989869	0.07450945
209	0x3b9a3103	0.0047055497
210	0x3d95a3db	0.073066436
211	0x3d0ddeed	0.034636427
212	0xbcc22255	-0.023698011
213	0x3cfaca5a	0.030614067
214	0x3d8312e3	0.06400087
215	0xbdad58ad	-0.08464179
216	0xbcea2e78	-0.028586611
217	0xbdd486ce	-0.103772745
218	0xbc7271fe	-0.014797686
219	0xbc4f05c4	-0.012635652
220	0xba339f0e	-0.0006852009
221	0xbd18c7b3	-0.037299823
222	0xbd58d43b	-0.052936774
223	0xbc95b1fc	-0.018273346
224	0xb956adb9	-0.00020473347
225	0xbb54a4ec	-0.0032446934
226	0x3d442889	0.04789022
227	0x3b82a3a8	0.0039867945
228	0x3db6c10b	0.08923539
229	0xbdfdf9c4	-0.12401155
230	0x3c44a9dc	0.012003388
231	0x3ba923de	0.0051617464
232	0x3d4b9be9	0.049709234
233	0xbcbdfb34	-0.023191072
234	0xbc8b4180	-0.016999006
235	0x3d41e7a7	0.04734006
236	0xbca3cf29	-0.019996243
237	0xbb7b1b93	-0.0038315996
238	0xbc901d01	-0.017591955
239	0xbd7ef238	-0.062242717
240	0x39f7f4d2	0.00047293917
241	0xbc801ba4	-0.01563818
242	0x3e112da6	0.1417757
243	0xbd650b6c	-0.055919096
244	0x3bb46070	0.0055046603
245	0x3c9c9c4c	0.019117497
246	0xbd2562a3	-0.04037727
247	0x3a2f10f6	0.00066782476
248	0xbd1608c0	-0.03662944
249	0x3c407b3b	0.01174813
250	0xbad4d7cc	-0.0016238629
251	0x3b0879cd	0.0020824552
252	0xbce10f6c	-0.027473174
253	0xbcb369ca	-0.02190103
254	0xbe0717a2	-0.13192609
255	0xbc564572	-0.0130780805

bias f4 [12]
0	0x3dbc3068	0.0918892
1	0x3e0ab930	0.13547206
2	0xbd6241e5	-0.055238623
3	0xbcf22a6b	-0.029561242
4	0x3dbdb3bb	0.092627965
5	0xbcfdcb2a	-0.030980665
6	0xbdad054d	-0.08448277
7	0xbdb64118	-0.088991344
8	0xbd567994	-0.05236204
9	0x3d3ee879	0.046608422
10	0xbe3db616	-0.18526492
11	0x3c98d274	0.01865504
