unitree_rl_gym/deploy/pre_train/go2/policy_1.pt (torch, 774664 bytes, 8 tensors)

weight f4 [512, 48]
0	0xbc356868	-0.011072256
1	0x3d767709	0.060172115
2	0xbe029a85	-0.12754257
3	0x3e50dd41	0.20396902
4	0x3f1a472b	0.60264844
5	0x3db27a60	0.087147474
6	0xbe9552f5	-0.29164854
7	0xbf669bc9	-0.9008146
8	0x3d9e565e	0.07731317
9	0xbd9e9813	-0.077438496
10	0xbceec3c4	-0.029146083
11	0xbd176736	-0.036963664
12	0x3ea95273	0.33070716
13	0x3f16c337	0.58891624
14	0x3ec2f794	0.38079512
15	0x3f1ce663	0.6128904
16	0xbe906895	-0.2820479
17	0xbf2f79c2	-0.6854516
18	0x3a570c7e	0.00082034606
19	0x3d648aa6	0.055796288
20	0x3f22b429	0.6355615
21	0x3eabd7fa	0.33563215
22	0x3e5f4cf1	0.21806695
23	0x3da61bc3	0.08110764
24	0x3e7e5058	0.24835336
25	0x3dfe5f8f	0.1242057
26	0xbc6924e9	-0.0142299915
27	0x3c90cfc0	0.017677188
28	0x3d5edd27	0.054410126
29	0xbedacd0c	-0.42734563
30	0x3da8ec57	0.08248203
31	0x3e08a707	0.13344966
32	0x3ea0e9cd	0.31428376
33	0x3ded1c7c	0.115776986
34	0x3de9f8bf	0.11424398
35	0x3dd76bed	0.10518632
36	0xbb312c98	-0.0027034637
37	0x3bd42db0	0.006475173
38	0xbc5ab9c6	-0.013349956
39	0xbcea1065	-0.02857227
40	0xbd458e21	-0.048231248
41	0x3e214c4c	0.15751761
42	0x3d058eb1	0.032606784
43	0x3d754bbe	0.059886687
44	0xbdf06299	-0.11737556
45	0x3cd4e9c8	0.025990382
46	0xbd58bc8d	-0.05291419
47	0xbbf7ef0f	-0.00756634
48	0xbd562560	-0.052281737
49	0x3e001daa	0.12511316
50	0xbe0ded95	-0.13860162
51	0xbea93716	-0.3304984
52	0x3f3f0c50	0.7462816
53	0x3f5234e1	0.82111937
54	0x3f29de45	0.6635478
55	0xbf87292d	-1.0559441
56	0x3deed6b4	0.11662045
57	0x3db7230f	0.08942234
58	0xbe405b63	-0.18784861
59	0xbf3be74d	-0.7339981
60	0x3cf5e045	0.030014167
61	0xbec5c8d7	-0.3862979
62	0xbe57c4e4	-0.21071202
63	0xbf0c95c2	-0.5491601
64	0x3dc7898c	0.09743032
65	0xbdfde4bd	-0.12397144
66	0xbf0f4b2c	-0.5597408
67	0xbf016351	-0.5054217
68	0x3dd5374c	0.10410938
69	0x3e0379ba	0.12839404
70	0xbe8d69cb	-0.27619776
71	0xbebd664a	-0.36992103
72	0x3a4c2337	0.000778723
73	0x3eec4be4	0.4615165
74	0xbda9b8ac	-0.082871765
75	0x3edc31b3	0.43006667
76	0xbe6ab083	-0.22918896
77	0xbe1bb9e0	-0.15207624
78	0x3d452a10	0.048135817
79	0xbe3f802c	-0.18701237
80	0xbc4867b7	-0.012231759
81	0xbe57d8f7	-0.2107886
82	0xbd416217	-0.047212686
83	0x3e655985	0.2239743
84	0xbe7d5fd3	-0.24743585
85	0x3b92ce62	0.004480169
86	0xbca504a0	-0.020143807
87	0x3cbe728b	0.023247978
88	0x3e074505	0.13209923
89	0xbd71d680	-0.059042454
90	0xbdc53f29	-0.096311875
91	0x3d1f085a	0.038826324
92	0xbc15ab43	-0.00913507
93	0xbe081cfc	-0.13292307
94	0x3cd4a1e6	0.025956105
95	0xbd14c3d3	-0.036319565
96	0xbc57a3f2	-0.013161646
97	0xbccb9f64	-0.024856277
98	0xbe77daaa	-0.24204507
99	0x3e8ab238	0.27089095
100	0x3e25efc7	0.16204749
101	0xbde86edd	-0.113492705
102	0xbe6637bc	-0.22482198
103	0xbf046c50	-0.5172777
104	0x3d78d78e	0.060752444
105	0x3b1831c1	0.0023223015
106	0x3c5ce2ae	0.013481779
107	0x3f26f16a	0.6521212
108	0x3ed4eb0e	0.41585582
109	0x3e82a1bb	0.25514016
110	0x3f2dda3f	0.6791114
111	0x3f05cb25	0.522631
112	0x3db71129	0.0893882
113	0xbf2bd276	-0.6711801
114	0xbef9cba0	-0.48788166
115	0xbf22e866	-0.6363586
116	0xbd288ab6	-0.04114791
117	0xbf35c4e5	-0.7100356
118	0xbe4d850f	-0.20070289
119	0x3f08bb75	0.53411037
120	0x3d35c13d	0.04437374
121	0xbe88ed0e	-0.26743358
122	0x3e8ae079	0.27124384
123	0x3cba833d	0.022767657
124	0xbf079309	-0.5295873
125	0x3f3f586c	0.74744296
126	0xbdaad347	-0.08341079
127	0x3d00dd8a	0.031461276
128	0x3e4a7e5d	0.19774766
129	0x3dc58db3	0.096461676
130	0x3b9fb710	0.0048741177
131	0x3e9eb02c	0.30993783
132	0x3da71e59	0.08160085
133	0xbbb0efa4	-0.005399661
134	0xbda219d5	-0.07915083
135	0x3d6ee768	0.058326155
136	0x3daadf3d	0.083433606
137	0x3cf337e1	0.029689731
138	0x3d02f16b	0.031968515
139	0x3d0b95e9	0.034078512
140	0xbd14fc33	-0.03637333
141	0x3df004c9	0.11719663
142	0x3a9c8208	0.0011940608
143	0xbe1f3f8e	-0.15551588
144	0xbd6e6289	-0.05819944
145	0xbe14fbf9	-0.14549245
146	0xbea46fdb	-0.3211659
147	0xbcfbe056	-0.03074662
148	0x3dbe7073	0.09298792
149	0x3e0457a3	0.12924056
150	0xbee0f483	-0.43936548
151	0xbf5dff0f	-0.86717314
152	0x3d936c4a	0.07198389
153	0xbb8e05ac	-0.0043341722
154	0x3dbd49ae	0.09242569
155	0x3d578f3f	0.052626844
156	0x3d00a843	0.031410467
157	0xbf389ae1	-0.72111326
158	0x3f0eb7d0	0.55749226
159	0x3ecee0cc	0.4040588
160	0xbeb73405	-0.35781875
161	0x3d107217	0.035265055
162	0xbf0373f2	-0.51348794
163	0x3e70ca32	0.23514631
164	0x3f489730	0.78355694
165	0xbbd9ed9e	-0.0066506406
166	0xbf157e0f	-0.58395475
167	0x3f20f045	0.6286662
168	0xbdf7632a	-0.12079461
169	0xbf318bab	-0.6935374
170	0xbeb0c074	-0.3452183
171	0x3e6e2189	0.2325498
172	0x3ed657a3	0.41863737
173	0xbf49f174	-0.78884053
174	0xbe38107e	-0.17975041
175	0xbcd3a5f9	-0.025835978
176	0xbf1f34b2	-0.6218978
177	0xbc4d44a7	-0.012528575
178	0xbec6596a	-0.38740093
179	0x3d9986b2	0.07496394
180	0xbbe8e94e	-0.00710789
181	0xbc9fecdb	-0.019522121
182	0xbedab152	-0.4271341
183	0xbbbbf9bc	-0.0057365578
184	0xbc510224	-0.012756858
185	0xbdb6872c	-0.08912501
186	0x3d1c053d	0.038090933
187	0x3d7799a4	0.060449257
188	0xbd97dbd6	-0.07414977
189	0x3e3b1135	0.18268283
190	0xbe429677	-0.1900271
191	0xbed316cb	-0.41228327
192	0x3ce5298f	0.027973918
193	0xbb6130b0	-0.0034361295
194	0x3c3e6c8c	0.011622559
195	0xbd98f84e	-0.07469235
196	0xbc40e0f5	-0.011772384
197	0x3d9decfa	0.07711215
198	0xbf43845d	-0.76373845
199	0x3e84549f	0.2584581
200	0x3d244eac	0.04011409
201	0xbcf797dd	-0.030223781
202	0xbc33526b	-0.010944943
203	0x3d34a0bc	0.0440986
204	0xbd38ed16	-0.045147978
205	0x3d0e09d6	0.03467735
206	0xbe5d2175	-0.21594794
207	0xbd1496ac	-0.036276504
208	0x3e4ad614	0.19808227
209	0xbdaf6024	-0.08563259
210	0x3d932990	0.07185662
211	0xbee83f94	-0.45361006
212	0x3ed17e0a	0.40916473
213	0x3ebfdff7	0.3747556
214	0xbe89409e	-0.26807112
215	0x3f2ffb94	0.6874325
216	0x3e824e16	0.254502
217	0x3cd536d1	0.026027115
218	0x3d20f95a	0.0393003
219	0xbe0f1bc5	-0.13975437
220	0x3d0b9b68	0.034083754
221	0xbd314a53	-0.04328377
222	0x3dfa6bd8	0.12227601
223	0xbe5b71b5	-0.21430095
224	0x3e5cd4a6	0.21565494
225	0x3dab5cb2	0.083672896
226	0xbe16bcd4	-0.1472047
227	0x3d888f52	0.06667961
228	0xbcfb01be	-0.03064048
229	0x3900a85a	0.00012269747
230	0x3d2db484	0.04240848
231	0xb9acfd59	-0.00032995155
232	0x3c0ca4ca	0.008584211
233	0x3ce5a5b3	0.028033113
234	0xbd8a330f	-0.0674802
235	0x3da52242	0.08063175
236	0xbda0804a	-0.07836969
237	0xbd0916c2	-0.03346897
238	0x3de520f6	0.111879274
239	0xbdd6a971	-0.10481537
240	0x3e5c70c7	0.21527396
241	0xbda2c957	-0.07948559
242	0x3db68af7	0.08913224
243	0x3cf35537	0.02970372
244	0xbc954890	-0.018223077
245	0x3e23edd9	0.160087
246	0x3efd94a2	0.4952746
247	0xbbdb08d8	-0.006684404
248	0x3b93a2d8	0.0045054965
249	0xbe1d88fc	-0.15384287
250	0xbe54649b	-0.20741503
251	0xbfd364db	-1.6515154
252	0x3f867199	1.0503417
253	0x3dc23e62	0.09484555
254	0xbe8883dc	-0.266631
255	0x3e7fb40c	0.24971026

bias f4 [512]
0	0xbe2c94ec	-0.16853684
1	0xbe9d845d	-0.30765048
2	0x3dd0dff0	0.10198963
3	0xbe3a8938	-0.18216407
4	0xbe00eee5	-0.12591131
5	0xbdb50c28	-0.08840209
6	0xbeb27f75	-0.34862867
7	0xbf051e7f	-0.5199966
8	0xbe312c17	-0.17301975
9	0xbe2d4b62	-0.16923288
10	0x3d8232e4	0.06357363
11	0xbd930720	-0.07179093
12	0xbe4ddd7e	-0.20104024
13	0xbdcb4d6b	-0.09926876
14	0xbd9d5016	-0.07681291
15	0xbe7bf61a	-0.24605599
16	0x3e2cb9e3	0.16867785
17	0x3da323ff	0.0796585
18	0xbeafeda4	-0.34360993
19	0xbe25e96e	-0.16202328
20	0x3e1b395a	0.15158597
21	0xbea7669b	-0.3269547
22	0xbee0a78f	-0.43877837
23	0xbe08d24c	-0.13361472
24	0xbe3716ed	-0.17879839
25	0x3e273b91	0.16331317
26	0x3d083eca	0.033263005
27	0x3e44ca42	0.1921778
28	0x3e1260c3	0.14294724
29	0x3dae3300	0.08505821
30	0xbd056491	-0.03256661
31	0xbed6f223	-0.4198161
32	0xbea9496f	-0.33063838
33	0xbec846f1	-0.39116624
34	0xbd5a4108	-0.053284675
35	0xbdbabef8	-0.09118456
36	0xbcb21a1b	-0.021740964
37	0x3e198097	0.1499046
38	0x3dbd00b6	0.09228651
39	0xbb9bc356	-0.0047535105
40	0x3d35a366	0.044345282
41	0xbe8bced0	-0.27306223
42	0xbe5d3cc8	-0.21605217
43	0xbd0cd896	-0.03438624
44	0x3d615c83	0.055019867
45	0xbdd1a724	-0.10236958
46	0xbefe05b3	-0.49613723
47	0xbee293c2	-0.44253355
48	0x3e5bd804	0.21469122
49	0x3e1fa7a4	0.15591294
50	0xbe9c91c1	-0.3057995
51	0xbc72d9ae	-0.014822407
52	0x3e81f36d	0.25381032
53	0xbed574b5	-0.41690603
54	0xbe9eb406	-0.30996722
55	0x3db772dc	0.089574546
56	0xbda9f3ea	-0.08298476
57	0xbeec083a	-0.46100026
58	0xbc0d7b2c	-0.0086353235
59	0xbd26f8e2	-0.040764697
60	0xbdd477c5	-0.10374407
61	0xbda63d59	-0.0811717
62	0xbe018f86	-0.12652406
63	0x3e0da8ed	0.13833971
64	0xbed16568	-0.4089768
65	0x3e84235d	0.2580823
66	0x3e1a8c79	0.15092649
67	0x3dd2b515	0.10288445
68	0xbe156f51	-0.14593245
69	0xbdbcb5e8	-0.09214383
70	0xbcc332a3	-0.023827856
71	0xbe5ab512	-0.21358135
72	0xbefb0158	-0.49024463
73	0xbd73edce	-0.05955296
74	0xbe9317d8	-0.2872913
75	0x3dd50ea7	0.10403185
76	0xbe5ee569	-0.217672
77	0x3cf663a3	0.030076807
78	0x3ec3114f	0.38099143
79	0xbf11fd47	-0.57027096
80	0xbd81fbe2	-0.06346871
81	0xbdd2ac5e	-0.10286783
82	0xbd667395	-0.05626257
83	0x3d25338f	0.040332373
84	0xbddaba02	-0.106800094
85	0xbe3108d3	-0.17288522
86	0xbe8a6011	-0.27026418
87	0xbe30e1f9	-0.17273702
88	0xbdd3e3ef	-0.10346209
89	0xbd4d00b7	-0.05004951
90	0x3e4286a0	0.18996668
91	0x3e44a223	0.19202475
92	0xbe5f9ddb	-0.21837561
93	0xbe6aa52c	-0.2291457
94	0xbe082960	-0.13297033
95	0xbcc5021e	-0.024048861
96	0xbe48fe03	-0.19628148
97	0x3e242899	0.16031112
98	0xbf082203	-0.531769
99	0xbee0e2f7	-0.4392316
100	0xbe28c0cc	-0.16479796
101	0xbd01d96a	-0.031701483
102	0xbe0cd178	-0.13751781
103	0xbe687733	-0.22701721
104	0x3d52656f	0.051366266
105	0xbdad682c	-0.08467135
106	0xbeb5208f	-0.35376403
107	0x3c2a3c71	0.010390387
108	0xbafd1c0d	-0.0019310728
109	0xbd478434	-0.048710063
110	0xbe8dd3a5	-0.27700534
111	0xbeadb3a2	-0.3392611
112	0xbe937664	-0.28801262
113	0x3d321361	0.043475512
114	0xbe545b14	-0.20737869
115	0xbe9f0dcb	-0.3106521
116	0xbddfb0a5	-0.10922364
117	0x3d4c4069	0.049866114
118	0x3e3d22fe	0.1847038
119	0xbec99e05	-0.39378372
120	0xbbbb7ab7	-0.005721416
121	0x3e094166	0.13403854
122	0xbeb6de11	-0.35716298
123	0xbe247616	-0.16060671
124	0xbea09e77	-0.313709
125	0xbe997f2f	-0.29979846
126	0xbd39497a	-0.04523609
127	0xbed4acf1	-0.41538194
128	0xbeca8c18	-0.39560008
129	0xbdd45585	-0.10367874
130	0xbdb0e613	-0.08637633
131	0x3e757cf3	0.23973446
132	0x3e1be82b	0.15225284
133	0xbc89e919	-0.016834782
134	0xbd568f0b	-0.05238251
135	0xbdf61d45	-0.120173015
136	0xbd82ca3f	-0.06386232
137	0x3d15ea59	0.036600444
138	0x3ecf3c31	0.4047561
139	0x3e9657f3	0.29363975
140	0xbeb2306a	-0.34802562
141	0x3e565558	0.20930994
142	0xbe94a590	-0.29032564
143	0x3e08da12	0.13364437
144	0xbe8ac774	-0.27105296
145	0xbe876fe8	-0.26452565
146	0x3e11f575	0.1425379
147	0xbdd631b5	-0.104586996
148	0xbe988eb0	-0.29796362
149	0xbc8248b8	-0.015903816
150	0xbe2113ae	-0.15730163
151	0x3e6aeb7c	0.22941393
152	0x3d1cf234	0.03831692
153	0xbe316bc2	-0.17326263
154	0xbed1c08c	-0.40967214
155	0xbe8353e0	-0.2564993
156	0xbda2653b	-0.079294644
157	0xbe8998bb	-0.26874337
158	0x3e6a1809	0.22860731
159	0x3e72f782	0.23727229
160	0xbee21ba7	-0.44161722
161	0xbe0a868e	-0.13527891
162	0xbe90033d	-0.2812747
163	0xbeb00d2a	-0.34385043
164	0xbf1f9dab	-0.6234996
165	0xbd4f6dd3	-0.050641846
166	0xbf0938f2	-0.53602517
167	0xbe80ab75	-0.2513081
168	0xbe808850	-0.25103998
169	0x3e819f04	0.25316632
170	0xbf265b9d	-0.6498354
171	0xbe9d72c5	-0.30751625
172	0xbde3cc79	-0.111229844
173	0x3e2cfd89	0.16893591
174	0x3d2a8a5a	0.04163585
175	0xbee8f650	-0.45500422
176	0xbeb7c4d4	-0.35892355
177	0xbe8ef8b1	-0.2792411
178	0xbe5803b1	-0.21095158
179	0xbf180f0d	-0.59397966
180	0xbe51ac8a	-0.20475975
181	0xbe13efb2	-0.14446905
182	0x3e43b564	0.19112164
183	0xbddf8c42	-0.10915424
184	0xbd7db0b3	-0.06193609
185	0x3e647d49	0.22313417
186	0xbed72b18	-0.42025065
187	0xbeb7380f	-0.35784957
188	0x3cca3881	0.024685146
189	0xbe5bb125	-0.21454294
190	0xbeaa771d	-0.33294
191	0xbe1cfa73	-0.15329914
192	0x3d6370e2	0.055527575
193	0x3e0cf90a	0.13766876
194	0x3da826b9	0.08210511
195	0xbe5cacf9	-0.21550359
196	0xbe977fa9	-0.29589584
197	0x3e6b35fe	0.22969815
198	0x3d575917	0.052575197
199	0xbedb0580	-0.42777634
200	0xbe9249a8	-0.2857182
201	0x3d3b766b	0.04576723
202	0x3de4d3c8	0.111732066
203	0xbe8d1d1d	-0.27561274
204	0xbe0e7fbe	-0.13915917
205	0xbf4b247e	-0.7935256
206	0x3db27291	0.08713258
207	0x3e86e212	0.26344353
208	0xbd657310	-0.056017935
209	0xbe957513	-0.29190883
210	0xbcd58552	-0.026064549
211	0x3ddab7db	0.10679599
212	0x3e328bf3	0.17436199
213	0x3bbd3b70	0.005774908
214	0x3d69f4f9	0.05711839
215	0xbe693197	-0.22772823
216	0xbdf5fd49	-0.12011201
217	0xbd96abf0	-0.07357013
218	0xbb72bb27	-0.003703782
219	0x3e3526d4	0.17690593
220	0x3df061b1	0.11737383
221	0xbed76457	-0.4206874
222	0xbe303ff9	-0.17211904
223	0xbe38ad3c	-0.18034834
224	0xbe240d00	-0.16020584
225	0x3d0f064e	0.034918122
226	0x3b964e20	0.00458695
227	0x3d360ab4	0.0444438
228	0xbf40ac79	-0.7526317
229	0xbed868d6	-0.42267483
230	0x3c1eca58	0.009691797
231	0xbe24ec72	-0.16105822
232	0xbebca81e	-0.36847013
233	0xbe7872a3	-0.2426248
234	0xbe2c4576	-0.16823372
235	0xbe3941b3	-0.18091469
236	0x3d3291a8	0.04359594
237	0xbeb68a03	-0.3565217
238	0xbeb0357e	-0.3441581
239	0x3d3de9ab	0.04636542
240	0x3da95a04	0.08269122
241	0xbeaa84bf	-0.33304402
242	0xbf05bf46	-0.52244985
243	0x3d08da6b	0.033411425
244	0xbeec7025	-0.4617931
245	0x3e368ed2	0.17827919
246	0xbeeec962	-0.46638018
247	0xbe5011e6	-0.20319328
248	0xbec9c9eb	-0.39411864
249	0x3e67cfc7	0.22637855
250	0xbe834ff5	-0.2564694
251	0x3e24abb6	0.16081128
252	0xbe946715	-0.28984895
253	0xbdc59109	-0.09646804
254	0xbdb9b9f0	-0.09068668
255	0x3e0a11fd	0.13483424

weight f4 [256, 512]
0	0x3ec6baa7	0.3881428
1	0x3ee23c10	0.4418645
2	0xbe82aa24	-0.25520432
3	0x3e28b9e8	0.16477168
4	0x3db1747f	0.08664798
5	0x3e2b7abc	0.16746038
6	0xbe9be05c	-0.3044461
7	0x3ea20209	0.31642178
8	0x3dbf71dc	0.09347889
9	0x3f209b1d	0.62736684
10	0xbe51bb20	-0.20481539
11	0x3f077bb2	0.5292312
12	0xbeafc380	-0.34328842
13	0x3e6f8974	0.23392278
14	0xbe94b85a	-0.290469
15	0xbe383e46	-0.17992505
16	0xbf5d1a3f	-0.86368173
17	0xbedfbfb3	-0.43700942
18	0x3f0f6e78	0.56027937
19	0x3eaa339b	0.33242497
20	0x3e346c70	0.1761949
21	0x3d50c7db	0.050971847
22	0xbdb72c8f	-0.08944046
23	0x3da055c1	0.07828856
24	0x3e597549	0.21236147
25	0xbdc08fd5	-0.09402434
26	0xbd11da34	-0.035608485
27	0xbe845ad3	-0.25850543
28	0xbf223348	-0.633595
29	0xbdd631de	-0.1045873
30	0xbe31ad51	-0.17351271
31	0x3e0e5d0e	0.13902685
32	0x3f1c5e03	0.6108095
33	0x3e318cfe	0.1733894
34	0x3e26e740	0.16299152
35	0x3e0be77b	0.13662522
36	0x3e613cb3	0.21995811
37	0xbed9e4dc	-0.42557418
38	0x3f16b8b8	0.5887561
39	0x3c8759fb	0.016522398
40	0xbde6ee22	-0.11275889
41	0x3cbcd24d	0.023049498
42	0x3eaa82e8	0.33303
43	0x3d5e7100	0.054306984
44	0x3ea937d5	0.3305041
45	0x3f2558de	0.64588726
46	0x3e31b1c3	0.17352967
47	0xbdc13c2b	-0.09435304
48	0xbebde574	-0.3708912
49	0xbf091b96	-0.5355772
50	0xbe3fc293	-0.18726568
51	0x3f1c46d5	0.6104558
52	0xbe2624cd	-0.16224976
53	0x3f2e12d1	0.6799746
54	0xbe395477	-0.18098627
55	0x3d7a140f	0.061054286
56	0xbea3c587	-0.3198664
57	0x3d5b9579	0.053609345
58	0x3eadb876	0.33929795
59	0xbd1245b9	-0.035711024
60	0x3ea20185	0.31641784
61	0x3dac0c2e	0.084007606
62	0x3f0a21a7	0.539576
63	0xbd1c84ee	-0.03821271
64	0xbc4c8aed	-0.012484294
65	0xbf5145bf	-0.8174705
66	0xbe9ae7d5	-0.30255
67	0x3da72df3	0.08163061
68	0xbe735cec	-0.23765916
69	0xbebebb64	-0.37252343
70	0x3e3cfe0d	0.18456288
71	0x3ef15ddd	0.47141925
72	0xbf01b7b2	-0.5067092
73	0xbe89de15	-0.26927248
74	0x3f0b5348	0.5442395
75	0xbed2a04c	-0.41137922
76	0xbf08ed68	-0.53487253
77	0xbed07289	-0.40712383
78	0xbe3fd499	-0.18733443
79	0xbeaf5f44	-0.3425237
80	0x3c9f4c03	0.019445425
81	0x3dd0590a	0.10173233
82	0x3f181bb4	0.5941727
83	0x3df50cb5	0.11965314
84	0x3ec802e4	0.39064705
85	0x3e9a575b	0.30144772
86	0x3e5554b7	0.20833097
87	0x3d338145	0.043824453
88	0x3e9536f8	0.291435
89	0x3dcc93b3	0.09989109
90	0xbe1923b5	-0.14955027
91	0x3e7737be	0.24142358
92	0x3eb4b537	0.35294506
93	0x3e0a1f1e	0.13488433
94	0x3d694b85	0.056956787
95	0xbe68796f	-0.22702573
96	0xbe4100f4	-0.1884802
97	0xbec2031d	-0.37893
98	0xbed9943c	-0.42495906
99	0x3eafd75a	0.34343988
100	0x3e88a086	0.2668497
101	0x3daa9dc1	0.083308704
102	0xbe9dc8e2	-0.30817324
103	0x3ec5181c	0.38494956
104	0xbd3bfecd	-0.045897294
105	0xbe6aa6d5	-0.22915204
106	0x3e888929	0.26667145
107	0xbf3a45bc	-0.72762656
108	0xbea60cd9	-0.32431677
109	0xbdda5031	-0.106598265
110	0x3ea8e541	0.32987407
111	0x3f100444	0.5625651
112	0x3e816e40	0.25279427
113	0xbe9355b8	-0.28776336
114	0xbe1aea70	-0.15128493
115	0x3ef855e3	0.48503026
116	0x3ed22847	0.41046354
117	0x3ea1d8d6	0.31610745
118	0xbe625e99	-0.22106399
119	0x3f1655ca	0.58724654
120	0xbf50dace	-0.8158387
121	0xbee1ae56	-0.4407832
122	0x3ea08d68	0.31357884
123	0x3ee4ba6a	0.44673473
124	0x3eb56176	0.3542592
125	0x3e812f95	0.25231615
126	0x3e124c99	0.14287032
127	0x3eb039e7	0.34419176
128	0xbe8ec251	-0.27882627
129	0xbe457540	-0.19283009
130	0xbca80b8b	-0.020513317
131	0xbe196d2e	-0.14983055
132	0x3d6fe868	0.05857125
133	0xbeabecee	-0.335792
134	0x3e23aaa2	0.1598306
135	0x3e931e5a	0.28734094
136	0xbeb9bd43	-0.36277208
137	0xbe57ca93	-0.2107337
138	0x3cc06b00	0.023488522
139	0xbf182dc7	-0.5944485
140	0x3ec92b42	0.39290816
141	0xbd17ae3b	-0.037031393
142	0xbc79166e	-0.015203102
143	0xbe8ee0ef	-0.27905986
144	0x3f1575d6	0.5838293
145	0x3e4ed4cb	0.20198362
146	0xbecbe028	-0.39819455
147	0x3e698475	0.22804435
148	0x3e271e35	0.16320117
149	0xbd838eef	-0.06423747
150	0xbeb9a2a4	-0.36256897
151	0xbd74f62d	-0.059805084
152	0xbedc1925	-0.42987934
153	0x3db3ad9d	0.087733485
154	0xbe8f747b	-0.28018555
155	0x3bc7686d	0.0060854466
156	0x3e3c8079	0.18408383
157	0xbe88aad2	-0.26692826
158	0xbf0525dc	-0.52010894
159	0xbe6be55a	-0.2303671
160	0x3f2525cb	0.6451079
161	0xbd9a4002	-0.0753174
162	0xbc7912b8	-0.015202217
163	0x3f390555	0.7227376
164	0x3ef4acde	0.47788137
165	0xbd7a9b10	-0.061183035
166	0x3e7693a5	0.2407976
167	0x3f0c32fa	0.54765284
168	0x3e6077f2	0.21920756
169	0xbf8a8205	-1.0820929
170	0x3f0ac955	0.5421346
171	0x3e1299b6	0.14316449
172	0x3ebd1968	0.36933446
173	0x3ea2752b	0.31730017
174	0x3e86f209	0.26356533
175	0x3ea966f7	0.33086368
176	0x3e994cec	0.299415
177	0xbd9ac8be	-0.0755782
178	0xbd1beaf0	-0.03806585
179	0x3e26c9ad	0.1628787
180	0xbc447061	-0.011989684
181	0x3e96bf57	0.29442856
182	0xbf71e753	-0.944936
183	0x3e0a1f5b	0.13488524
184	0x3dca4ec0	0.098783016
185	0xbe7958c0	-0.24350262
186	0x3ed3d996	0.41376942
187	0x3da20d10	0.07912648
188	0x3ebd91ea	0.37025386
189	0x3ed7ceda	0.42150003
190	0xbd977729	-0.07395775
191	0xbcb2af1d	-0.021812016
192	0xbe298ed1	-0.16558386
193	0xbe408ed1	-0.1880448
194	0xbe75e6bb	-0.24013798
195	0x3e297ca9	0.1655146
196	0xbe8383dd	-0.2568654
197	0x3d8fff48	0.07031113
198	0xbea3f346	-0.3202154
199	0x3f709bb1	0.93987566
200	0x3e9ec2b1	0.31007913
201	0x3e841597	0.25797722
202	0xbda753fd	-0.08170316
203	0xbd9dac19	-0.07698841
204	0x3e54e5be	0.20790765
205	0x3f7574eb	0.9588153
206	0xbe9cc926	-0.30622214
207	0x3e0f10ea	0.13971296
208	0xbdbd1f88	-0.0923453
209	0x3ef1b8bd	0.47211257
210	0xbea44dbd	-0.3209056
211	0xbe746439	-0.23866357
212	0xbe19eb9d	-0.15031286
213	0xbf0ff001	-0.5622559
214	0xbe3e02a3	-0.18555693
215	0x3e878f2b	0.26476416
216	0x3e4d1c01	0.20030214
217	0xbde3f315	-0.111303486
218	0x3dbb8c34	0.09157601
219	0xbeacf574	-0.33781016
220	0x3b6c3307	0.0036041157
221	0x3ec36776	0.38164872
222	0xbdfa16b2	-0.1221136
223	0x3ec446ac	0.38335168
224	0xbebf2282	-0.37331015
225	0xbe33b78d	-0.17550488
226	0xbe532304	-0.20618826
227	0x3dad3a13	0.084583424
228	0x3ef8663f	0.48515508
229	0x3e53d030	0.20684886
230	0xbd6f1bba	-0.05837605
231	0xbda8f9f1	-0.082507975
232	0x3e7c11bb	0.24616139
233	0x3e72f038	0.23724449
234	0x3e45eaa5	0.19327791
235	0xbd3fa1d2	-0.046785183
236	0x3e970fb4	0.29504168
237	0x3dbdce0a	0.092678145
238	0x3eb95678	0.36198783
239	0x3dd2ff2f	0.10302579
240	0x3e8d982b	0.27655157
241	0x3f5779ec	0.84170413
242	0x3f8582e0	1.0430565
243	0x3e3fd5a4	0.18733841
244	0xbe127756	-0.14303336
245	0x3dbd5b8e	0.09245978
246	0x3ebaa112	0.36451012
247	0xbee6f7fb	-0.4511107
248	0x3ef07969	0.4696763
249	0x3cc2ac21	0.023763718
250	0x3e5a0adc	0.21293205
251	0xbe078f45	-0.13238247
252	0xbf3aad47	-0.7292065
253	0xbd26c3b8	-0.040713996
254	0xbe92c359	-0.28664663
255	0x3d4c2852	0.04984314

bias f4 [256]
0	0xbf4a4bee	-0.7902211
1	0xbe8e1e94	-0.27757704
2	0xbe2f12d8	-0.17097032
3	0xbf68d56a	-0.90950644
4	0xbe0a3cb1	-0.13499714
5	0x3c9a76b4	0.01885543
6	0xbe1566b7	-0.14589964
7	0xbdbf54bb	-0.09342333
8	0x3cb52a2a	0.022114832
9	0xbe1280ba	-0.14306918
10	0xbe382852	-0.17984131
11	0xbe1d5da9	-0.1536776
12	0xbdd26b56	-0.10274379
13	0xbeb8acef	-0.36069438
14	0xbdcb7e15	-0.099361576
15	0xbc502709	-0.012704619
16	0xbe264cb6	-0.162402
17	0xbd62da86	-0.05538418
18	0xbe8df53b	-0.27726158
19	0xbda24fff	-0.07925414
20	0xbd8fa959	-0.070147224
21	0xbe536af3	-0.20646267
22	0xbe437a5d	-0.19089647
23	0xbcc2c753	-0.023776686
24	0xbe14ef6a	-0.14544454
25	0xbd38145a	-0.044941284
26	0xbe8c43fd	-0.2739562
27	0xbd188c3a	-0.037243105
28	0xbdcb07d3	-0.09913602
29	0xbe02beb8	-0.12768066
30	0xbe336960	-0.17520666
31	0xbe69bcbb	-0.22825901
32	0xbe1f16e5	-0.15536077
33	0xbdb6bed7	-0.089231186
34	0xbecbec93	-0.3982893
35	0xbe52c6a4	-0.20583588
36	0xbe59aeaa	-0.21258035
37	0xbe465154	-0.19366962
38	0xbe719c83	-0.2359486
39	0x3df9d3fa	0.121986344
40	0xbe197d5a	-0.14989224
41	0xbe91f59c	-0.28507698
42	0xbe14de0c	-0.14537829
43	0xbed6dc93	-0.4196516
44	0xbd9261ed	-0.07147584
45	0xbe91b36f	-0.2845721
46	0xbdba0fc3	-0.090850376
47	0xbe272d85	-0.16325958
48	0xbbfa4f04	-0.007638814
49	0x3e5f99af	0.2183597
50	0xbe8454d6	-0.25845975
51	0xbd21929d	-0.039446462
52	0xbe8aad4c	-0.2708534
53	0xbe7ddbad	-0.24790831
54	0xbeeeab3c	-0.46615016
55	0xbeaa10b9	-0.33215883
56	0xbe8efbc6	-0.27926463
57	0xbeaccc21	-0.33749488
58	0xbe24c673	-0.16091327
59	0xbe33a932	-0.17545012
60	0xbe166a06	-0.14688882
61	0xbe387575	-0.18013556
62	0xbdb3cbb7	-0.0877909
63	0xbe0d160e	-0.13777944
64	0xbe52f041	-0.20599462
65	0xbeb410da	-0.35169107
66	0xbe623557	-0.2209066
67	0xbe9d7c48	-0.30758882
68	0xbeeea2a3	-0.46608457
69	0xbca8a66d	-0.02058717
70	0xbd8187e5	-0.06324748
71	0xbe827238	-0.25477767
72	0xbcf44181	-0.029816391
73	0xbea60d92	-0.32432228
74	0xbe51b4df	-0.20479153
75	0xbdca8172	-0.09887971
76	0x3d5528cf	0.05204087
77	0x3cffda4e	0.031232025
78	0xbe158050	-0.14599729
79	0xbe1896d6	-0.1490129
80	0xbecff5cc	-0.40617216
81	0xbebb1db5	-0.36546102
82	0xbc999b84	-0.018750913
83	0xbdfa3cc6	-0.12218623
84	0xbe08b72f	-0.13351129
85	0xbf5375d9	-0.82601696
86	0xbde684e8	-0.112558186
87	0xbe56d913	-0.20981245
88	0xbe011f6c	-0.12609643
89	0xbe109ecd	-0.14123078
90	0xbe84b96b	-0.25922713
91	0xbe818c2b	-0.25302252
92	0xbec49f0f	-0.38402602
93	0xbd16927b	-0.03676079
94	0xbe02920b	-0.12751023
95	0xbe2a5de3	-0.16637377
96	0xbe877d5a	-0.26462823
97	0x3d51936f	0.051165994
98	0xbd3dec59	-0.046367977
99	0xbe528408	-0.20558178
100	0xbdbe7d1f	-0.09301209
101	0xbdd97ca4	-0.106194764
102	0xbec64ebe	-0.3873195
103	0xbec6182d	-0.3869032
104	0x3d9eeafc	0.077596635
105	0xbe732cf6	-0.2374762
106	0x3c2b1668	0.010442354
107	0x3c5cb4b8	0.013470821
108	0xbe701f44	-0.23449427
109	0xbe3e026e	-0.18555614
110	0x3e4857ea	0.19564787
111	0xbea941ad	-0.3305792
112	0xbd940820	-0.07228112
113	0xbeb5dc12	-0.35519463
114	0xbdfa932e	-0.122351035
115	0x3c714668	0.014726259
116	0xbd76b082	-0.060226925
117	0xbe471692	-0.19442204
118	0xbd8d50bc	-0.069001645
119	0xbdaa6cf4	-0.083215624
120	0xbd245384	-0.04011871
121	0xbe254c45	-0.16142376
122	0xbe003315	-0.12519486
123	0xbdd36d4d	-0.10323582
124	0xbea6bbed	-0.3256525
125	0xbdb19710	-0.08671391
126	0xbe103294	-0.14081794
127	0xbe40e891	-0.18838717
128	0xbd4da73f	-0.050208326
129	0xbf1aa5a4	-0.60409
130	0xbdef3fd0	-0.11682093
131	0xbe649694	-0.22323066
132	0xbe1239af	-0.14279817
133	0xbd83a812	-0.06428541
134	0xbf0350f0	-0.51295376
135	0xbeb65f3a	-0.35619527
136	0xbea812ff	-0.32826993
137	0xbe026923	-0.12735419
138	0xbd98fd56	-0.07470195
139	0xbeabde40	-0.33568
140	0xbdbb8789	-0.09156711
141	0xbe40198b	-0.18759744
142	0xbd3a7108	-0.04551795
143	0xbd8dd580	-0.069254875
144	0xbe7a9354	-0.24470264
145	0xbdba40d8	-0.09094399
146	0xbe82a322	-0.25515085
147	0xbe8e2b1d	-0.27767268
148	0xbe8c31dc	-0.2738179
149	0xbe853a93	-0.2602125
150	0xbe89efe1	-0.26940826
151	0xbec9421b	-0.39308247
152	0xbe1f5922	-0.15561345
153	0x3ca84dac	0.02054485
154	0xbd6414f8	-0.05568406
155	0x3eb3238f	0.34988067
156	0xbd9da9ce	-0.07698403
157	0xbe50d2ee	-0.20392963
158	0xbe8eb46a	-0.2787202
159	0xbe7e98cd	-0.24862976
160	0xbe328724	-0.17434365
161	0xbe6fa05b	-0.23401015
162	0xbccf1c08	-0.025281921
163	0xbe6284ec	-0.22121018
164	0xbdeca438	-0.1155476
165	0xbeb0e321	-0.34548286
166	0xbe240695	-0.16018136
167	0xbdd408d1	-0.10353244
168	0xbd211b1b	-0.03933249
169	0xbc425d08	-0.011863001
170	0xbeb3485b	-0.3501614
171	0xbd7841c4	-0.060609594
172	0xbbbb95a8	-0.0057246275
173	0x3e0c78aa	0.13717905
174	0xbe4da511	-0.20082499
175	0xbe135cb2	-0.14390829
176	0xbe77d63e	-0.2420282
177	0xbe8200dd	-0.25391284
178	0xbebcfe0e	-0.36912578
179	0xbf390bb8	-0.72283506
180	0xbde815ca	-0.11332281
181	0xbd9c5d6c	-0.07635006
182	0xbe5e35a6	-0.21700153
183	0xbde6f723	-0.11277606
184	0xbda2c006	-0.07946782
185	0xbe2e3c67	-0.17015229
186	0xbf39b758	-0.72545385
187	0xbdd73cbe	-0.105096325
188	0xbe3c824b	-0.18409078
189	0xbdadc19c	-0.08484194
190	0xbe3cf568	-0.1845299
191	0xbe824c75	-0.25448957
192	0xbeace4e0	-0.33768368
193	0xbe5d9ed1	-0.21642615
194	0xbf1fa354	-0.62358594
195	0xbe1363f3	-0.14393596
196	0x3cae269b	0.021258643
197	0xbe786ff8	-0.24261463
198	0xbdf0a941	-0.117510326
199	0xbe89e63a	-0.2693346
200	0xbd580951	-0.05274326
201	0xbdeda72b	-0.116041504
202	0xbdcf1034	-0.101105124
203	0xbeb788f6	-0.3584668
204	0xbe24e503	-0.16102986
205	0xbe5af2a8	-0.21381629
206	0xbe72f1b4	-0.23725015
207	0xbea89ff5	-0.32934538
208	0xbea28371	-0.31740907
209	0xbe633b26	-0.22190532
210	0xbe6d999c	-0.23203129
211	0xbd829eef	-0.063779704
212	0xbdb42bce	-0.087974176
213	0x3c868baf	0.016424028
214	0xbe889f8c	-0.26684225
215	0xbe9c0892	-0.3047529
216	0xbe4a55f5	-0.19759353
217	0xbe274987	-0.16336642
218	0x3e875c34	0.26437533
219	0xbe78e8cc	-0.24307555
220	0xbec8bc0e	-0.39205974
221	0xbe20ab76	-0.15690407
222	0xbe84c408	-0.2593081
223	0xbd3e660e	-0.046484046
224	0x3c52c7d4	0.012865026
225	0x3cd61b3b	0.026136031
226	0xbc969450	-0.018381268
227	0xbdbf7b9f	-0.09349751
228	0xbdd104e5	-0.10206012
229	0x3cc3e92e	0.0239149
230	0xbea78aa7	-0.3272297
231	0xbe1458ba	-0.14486971
232	0xbe1c3cb7	-0.15257536
233	0xbe90b5a0	-0.2826357
234	0xbe25f973	-0.16208439
235	0xbdfc5ec3	-0.12322762
236	0xbe768ccc	-0.24077147
237	0xbe1e23ec	-0.1544339
238	0xbe401edc	-0.18761772
239	0xbf304507	-0.6885533
240	0xbe17831c	-0.14796108
241	0xbe50ffea	-0.20410123
242	0xbf8c3d90	-1.0956287
243	0xbf67d7b3	-0.90563506
244	0xbe6ba769	-0.2301308
245	0xbdfa79e5	-0.12230281
246	0xbe065eb1	-0.1312206
247	0xbdd3521d	-0.10318396
248	0x3e5a954b	0.21346013
249	0xbcfcaba8	-0.03084357
250	0xbf208300	-0.6269989
251	0xbe813acd	-0.25240174
252	0x3d4e6ca6	0.050396584
253	0xbe01aaba	-0.12662783
254	0xbdef9c1d	-0.11699698
255	0xbe9b1ca3	-0.30295286

weight f4 [128, 256]
0	0xbde2cf3a	-0.110746816
1	0x3d8f1e26	0.06988172
2	0xbd9b72df	-0.07590269
3	0x3d1d76bd	0.038443316
4	0xbebd0dc3	-0.36924562
5	0xbe237b66	-0.15965042
6	0xbe06adf2	-0.13152292
7	0xbdd4fd5d	-0.10399888
8	0xbe82c31a	-0.25539476
9	0xbd18d385	-0.037311096
10	0xbe87e2b5	-0.2654015
11	0xbe279926	-0.16367015
12	0x3e23875b	0.15969603
13	0x3e3f5d7b	0.18688004
14	0xbe867b0f	-0.2626576
15	0xbbecee09	-0.0072305244
16	0x3ce9aeb9	0.028525697
17	0xbe620295	-0.22071297
18	0x3e79ef8b	0.24407785
19	0x3d273a5c	0.04082714
20	0x3e317c73	0.1733263
21	0x3e040cf5	0.12895568
22	0x3e58ec0e	0.21183798
23	0xbce2885b	-0.02765291
24	0xbd262311	-0.040560786
25	0xbd80804a	-0.06274469
26	0xbdc731e3	-0.09726312
27	0x3dd6db4e	0.10491048
28	0xbd044a95	-0.03229769
29	0xbe250993	-0.16116934
30	0x3e2c40e1	0.16821624
31	0x3e1a65b9	0.15077867
32	0xbdba2a0b	-0.0909005
33	0x3d8d4fbd	0.068999745
34	0x3e29c11f	0.16577576
35	0x3e23df2b	0.160031
36	0x3e0a1a75	0.13486655
37	0x3e075be3	0.13218646
38	0x3d22735f	0.039660808
39	0xbd23f41f	-0.040027734
40	0xbe5262ef	-0.20545553
41	0x3c347e62	0.01101646
42	0x3ddae070	0.10687339
43	0xbcb05aa1	-0.02152759
44	0xbda13c7a	-0.07872863
45	0xbdef8407	-0.11695104
46	0xbe65eaae	-0.22452804
47	0xbd9e7acf	-0.07738268
48	0x3d9fe0a2	0.07806517
49	0xbe240bc1	-0.16020109
50	0x3e0e664d	0.13906212
51	0xbd372d97	-0.044721212
52	0x3e47d73a	0.19515696
53	0x3d8622fc	0.065496415
54	0xbe3e1dcf	-0.18566059
55	0x3eb32e1d	0.3499612
56	0x3c2cd892	0.010549681
57	0x3e9829b3	0.29719314
58	0x3cab216c	0.02088996
59	0x3cb68f75	0.022285203
60	0xbda3e175	-0.08001987
61	0x3d03d2f3	0.0321836
62	0x3e3131c5	0.17304142
63	0xbe84258e	-0.25809902
64	0x3da24830	0.07923925
65	0x3d8410cf	0.064485185
66	0xbd8abe29	-0.067745514
67	0x3ddd515e	0.10806535
68	0xbdb9d9e4	-0.090747625
69	0x3d9d1b7f	0.0767126
70	0xbd75daeb	-0.06002323
71	0xbecc5399	-0.3990753
72	0xbe138fe1	-0.14410354
73	0x3e9e1826	0.308778
74	0xbd828dba	-0.063746884
75	0x3d82b156	0.063814804
76	0x3d273f9a	0.04083214
77	0xbccfb5c7	-0.025355233
78	0x3e01e7f5	0.12686141
79	0xbe0eb0d0	-0.13934636
80	0xbd1d8a25	-0.038461823
81	0xbe2399df	-0.15976666
82	0x3cb94e69	0.022620397
83	0x3e177b96	0.14793238
84	0xbd9dcb0f	-0.07704746
85	0xbe5eef79	-0.21771039
86	0x3e766a86	0.24064073
87	0xbe3226af	-0.17397569
88	0x3e5334d2	0.20625618
89	0xbc6ff9ac	-0.014646929
90	0xbde60488	-0.11231333
91	0xbe152535	-0.14564975
92	0xbd6edf96	-0.058318697
93	0xbe303a8a	-0.17209831
94	0xbca34e9c	-0.019934945
95	0x3e058296	0.13038096
96	0xbe276d2a	-0.16350237
97	0xbd127d7f	-0.035764214
98	0x3dbd0d19	0.09231014
99	0xbf00a5e0	-0.50253105
100	0xbe0c88fa	-0.13724127
101	0xbde62fed	-0.1123961
102	0x3d3d5216	0.04622086
103	0xbe64926b	-0.22321479
104	0xbed80792	-0.42193276
105	0x3d52f740	0.051505327
106	0x3d6037aa	0.054740585
107	0xbcec9263	-0.028878396
108	0x3e9a1168	0.30091405
109	0xbdd5c732	-0.10438384
110	0xbe09fb42	-0.13474753
111	0xbe2501b4	-0.16113931
112	0x3d291202	0.04127694
113	0xbdb582f2	-0.088628665
114	0xbf106e3d	-0.5641821
115	0xbe706719	-0.23476829
116	0xbdd17e2b	-0.10229143
117	0xbde134c4	-0.10996392
118	0x3dc344b9	0.09534592
119	0x3d9b475b	0.07581969
120	0xbdb50046	-0.08837943
121	0x3c9f7532	0.019465063
122	0x3df61716	0.12016122
123	0x3d08b593	0.033376288
124	0xbd807eeb	-0.06274208
125	0x3de1b562	0.11020924
126	0x3e3fc28a	0.18726555
127	0xbd9b6ef7	-0.07589524
128	0xbe3773ff	-0.17915343
129	0x3e5ba533	0.21449737
130	0x3cb6bd6e	0.022307124
131	0xbde2cb6d	-0.11073957
132	0x3e94d7dc	0.29070938
133	0x3c1899fd	0.009314057
134	0x3e07a112	0.13245037
135	0x3d687468	0.05675164
136	0x3d733c9d	0.059383977
137	0xbddc3515	-0.10752312
138	0xbcfb175d	-0.030650789
139	0xbe40ab6c	-0.18815392
140	0xbded201e	-0.115783915
141	0xbe23d190	-0.1599791
142	0x3d565454	0.052326515
143	0x3e05af8f	0.13055252
144	0x3e09a7b4	0.1344288
145	0xbcbee39a	-0.023301888
146	0xbe260481	-0.16212656
147	0x3da19523	0.07889774
148	0x3cced2d1	0.02524701
149	0x3d978b42	0.07399608
150	0xbe8465cc	-0.25858915
151	0xbd453ca3	-0.04815353
152	0xbcdbd7c2	-0.02683628
153	0xbc760ebc	-0.015018161
154	0xbe3a1270	-0.18171096
155	0xbe5954c4	-0.21223742
156	0xbaee1be8	-0.0018166276
157	0xbe6d44eb	-0.23170821
158	0x3cf32e7e	0.029685255
159	0xba3c2259	-0.0007176749
160	0x3e23e807	0.1600648
161	0x3e1388ff	0.14407729
162	0xbdfe59d1	-0.12419475
163	0x3dfc8b5d	0.12331269
164	0xbe398ef7	-0.18120943
165	0xbd5741b5	-0.052552897
166	0xbe0671c1	-0.13129331
167	0x3db8994f	0.09013616
168	0x3e375ebc	0.17907232
169	0x3cd0c8e2	0.025486413
170	0x3ef8744f	0.48526236
171	0xbe3dc8b5	-0.18533595
172	0x3da1e9c6	0.07905917
173	0x3e10df55	0.14147694
174	0x3d7957df	0.060874816
175	0xbd78b78d	-0.060721923
176	0x3cddc64c	0.027072094
177	0x3c70c4ed	0.014695388
178	0xbe4c6226	-0.19959316
179	0x3df950e3	0.12173631
180	0xbf81a729	-1.0129138
181	0x3d88f9fa	0.06688304
182	0xbe0e9e00	-0.1392746
183	0xbcbc0d92	-0.02295569
184	0x3cc271e0	0.02373594
185	0xbed205c0	-0.41020012
186	0xbe5afcf5	-0.21385558
187	0x3c3de88b	0.011591087
188	0xbdaf55a1	-0.08561254
189	0xbd846fce	-0.064666376
190	0x3dc2d213	0.09512725
191	0xbee12515	-0.43973604
192	0x3e53d9fd	0.20688625
193	0xbf152704	-0.5826266
194	0x3c0b1c45	0.008490627
195	0x3c4e33e7	0.012585617
196	0x3cdcabc9	0.026937382
197	0xbe10e3ea	-0.14149442
198	0x3e8a69ce	0.27033848
199	0xbd8c99eb	-0.06865295
200	0x3d08b74e	0.033377938
201	0x3cbaeecb	0.022818943
202	0xbd91db99	-0.07121963
203	0x3c862687	0.016375793
204	0x3eb6ad32	0.35679013
205	0x3e585753	0.21127062
206	0xbe2d24db	-0.1690859
207	0x3e2cc451	0.16871764
208	0xbd420001	-0.047363285
209	0xbdda57e7	-0.10661297
210	0x3c17cd26	0.00926522
211	0xbda8f02b	-0.082489334
212	0x3e27afb6	0.16375622
213	0x3e40c74e	0.18826029
214	0x3d8d4f79	0.06899924
215	0xbd38c8ea	-0.04511348
216	0xbea0e76f	-0.3142657
217	0xbea11a9e	-0.3146562
218	0xbe1737bf	-0.14767359
219	0x3db7cc62	0.0897453
220	0xbddbb29d	-0.10727427
221	0x3e1b71a1	0.15180065
222	0x3e140828	0.14456236
223	0xbdf5863a	-0.11988492
224	0xbd4e7034	-0.050399974
225	0xbdca55e3	-0.09879663
226	0x3da3bd29	0.07995064
227	0xbdfefd1d	-0.12450621
228	0xbe91d54f	-0.28483054
229	0x3dd53f0f	0.10412418
230	0x3df0a06a	0.117493466
231	0x3e2ba138	0.16760719
232	0x3e34dba8	0.17661917
233	0xbe199e15	-0.1500171
234	0xbe97895e	-0.2959699
235	0x3e0628e1	0.13101532
236	0xbe3f6359	-0.18690242
237	0xbd9959c8	-0.074878275
238	0x3e90091d	0.28131953
239	0x3c8d4c82	0.017248396
240	0xbd1b4bf5	-0.037914235
241	0x3d415371	0.047198717
242	0xbeadf6c3	-0.33977327
243	0xbeab1b38	-0.33419204
244	0x3e07fdd1	0.13280417
245	0xbe367969	-0.17819752
246	0x3eb3120c	0.34974706
247	0x3e43f9ef	0.19138311
248	0xbde7d7d2	-0.11320461
249	0x3ca1a970	0.019734114
250	0x3ddca43a	0.10773511
251	0xbe82a01b	-0.25512776
252	0xbe3d11b4	-0.18463784
253	0x3dc8616a	0.09784205
254	0xbec3ecb6	-0.38266534
255	0x3e52356d	0.20528193

bias f4 [128]
0	0xbd607185	-0.05479576
1	0xbe3648e6	-0.17801246
2	0xbe66ff67	-0.22558366
3	0xbe0bab49	-0.13639559
4	0xbe1414e7	-0.14461099
5	0xbea49eb1	-0.32152322
6	0xbdd99ad7	-0.106252365
7	0x3e0fa245	0.14026745
8	0xbe302826	-0.17202815
9	0xbe4da656	-0.20082983
10	0xbd93f1ba	-0.0722384
11	0x3a10bd15	0.00055213395
12	0xbe8a0c05	-0.26962295
13	0xbe914b77	-0.28377888
14	0xbe047321	-0.12934543
15	0xbe7ae3fb	-0.2450103
16	0x3e8fdd31	0.28098443
17	0xbddda911	-0.108232625
18	0xbec92540	-0.39286232
19	0xbea58453	-0.32327518
20	0xbe22fab7	-0.15915953
21	0xbe345fe0	-0.17614698
22	0xbd3fadf5	-0.046796758
23	0xbe550757	-0.20803581
24	0x3dab3869	0.08360369
25	0xbe8e31e1	-0.2777243
26	0xbe3b6ad0	-0.18302464
27	0xbe84362a	-0.25822574
28	0xbe9898d0	-0.29804087
29	0xbdd3873a	-0.10328527
30	0xbe328921	-0.17435123
31	0xbe854cc7	-0.2603514
32	0xbe3a1691	-0.18172671
33	0xbe96fd20	-0.29489994
34	0xbdc6cdf2	-0.0970725
35	0xbe76a68f	-0.24086975
36	0xbe93e308	-0.2888415
37	0xbea8a24f	-0.32936332
38	0xbf5abffe	-0.85449207
39	0xbe358847	-0.17727767
40	0xbe656616	-0.22402224
41	0xbf0d1f5c	-0.55125976
42	0x3d23f1b3	0.040025424
43	0xbdc58fde	-0.09646581
44	0xbe564a03	-0.2092667
45	0x3e4a7bc3	0.19773774
46	0xbe4bc317	-0.1989864
47	0xbdc7887d	-0.0974283
48	0xbebd536b	-0.36977705
49	0xbebd5149	-0.36976078
50	0xbf3d8e69	-0.74045426
51	0xbe3a2ba1	-0.18180706
52	0xbe86c911	-0.26325276
53	0xbe8e8e3e	-0.27842897
54	0xbeae24e3	-0.34012517
55	0xbe661120	-0.2246747
56	0xbd5feae3	-0.054667365
57	0xbe941f47	-0.28930113
58	0xbe55bae0	-0.20872068
59	0xbe3bdab1	-0.18345143
60	0xbec93cdd	-0.39304247
61	0xbe24ab61	-0.16081001
62	0xbe888108	-0.26660943
63	0xbe37004f	-0.17871211
64	0xbeef5511	-0.46744588
65	0xbe85a957	-0.2610576
66	0xbe13422a	-0.14380708
67	0xbdb7615d	-0.089541174
68	0xbe0cdefb	-0.13756935
69	0xbdf3ed08	-0.119104445
70	0xbe516a4c	-0.20450705
71	0xbe8f93b1	-0.28042367
72	0xbe016b19	-0.12638511
73	0xbbd125d9	-0.0063826856
74	0xbe5cbff7	-0.21557604
75	0xbe81904a	-0.25305396
76	0xbe655f38	-0.22399604
77	0xbe5d2922	-0.21597722
78	0xbf3b6aed	-0.7321003
79	0xbe8bac66	-0.27279967
80	0xbe558704	-0.20852286
81	0xbeb91057	-0.3614528
82	0xbdc4e73b	-0.09614416
83	0xbe915e8b	-0.28392443
84	0xbe736397	-0.2376846
85	0xbe7e9a39	-0.24863519
86	0xbeaebe02	-0.3412934
87	0xbe670c12	-0.22563198
88	0xbdc43080	-0.09579563
89	0xbe09d5e9	-0.13460506
90	0x3c814ce1	0.015783729
91	0xbe24c052	-0.1608899
92	0xbf651154	-0.89479566
93	0xbe4d7a83	-0.20066266
94	0xbec60701	-0.3867722
95	0xbdbb957d	-0.09159372
96	0xbe54776a	-0.20748678
97	0xbe2016a6	-0.1563364
98	0xbc8988e7	-0.016788913
99	0xbe2b0ce1	-0.16704132
100	0xbe13ae93	-0.14422064
101	0xbe14d2af	-0.14533494
102	0x3c1d63cc	0.009606313
103	0xbd529806	-0.051414512
104	0xbe85a15d	-0.26099673
105	0xbf1750f0	-0.59107876
106	0xbe3f27c6	-0.18667516
107	0xbc99fabf	-0.018796323
108	0xbd69f8d0	-0.05712205
109	0xbe11674a	-0.14199558
110	0xbdfff11b	-0.12497159
111	0xbe864d94	-0.26231062
112	0xbf020e4f	-0.50803083
113	0xbe61ca94	-0.22049934
114	0xbe63df11	-0.22253062
115	0xbd3dc163	-0.046327006
116	0xbe81ada2	-0.25327784
117	0xbceeec30	-0.029165357
118	0xbddfe22a	-0.10931809
119	0xbe0367d9	-0.12832583
120	0xbd8ce1c2	-0.068789974
121	0xbec2cea2	-0.38048273
122	0xbe1c44cb	-0.15260617
123	0xbd82b4f2	-0.06382169
124	0x3d8a47a7	0.06751948
125	0xbe8f5dcc	-0.2800125
126	0xbdd581c2	-0.1042514
127	0xbe37d157	-0.1795095

weight f4 [12, 128]
0	0xbc453480	-0.012036443
1	0xbc393680	-0.011304498
2	0xbc853c4d	-0.016264105
3	0xbc9600f0	-0.018310994
4	0x3c976b59	0.018483805
5	0xbc88a4ef	-0.016680209
6	0x3cb60e21	0.022223534
7	0xbd0399b5	-0.03212901
8	0xbcbcab59	-0.023030924
9	0xbcf03f3a	-0.029327024
10	0x3a203603	0.0006111564
11	0x3d25943e	0.040424578
12	0xbd90234e	-0.07037984
13	0xbbc2f7d7	-0.005949955
14	0x3baff23a	0.005369452
15	0x3ca3a5f6	0.019976597
16	0xbd1a7389	-0.03770784
17	0x3b8cadcb	0.0042931787
18	0xbccd71f6	-0.025078755
19	0xbd8e2e83	-0.06942465
20	0x3cc81da9	0.024428206
21	0xbc4a14bd	-0.012334046
22	0xbc12489f	-0.008928447
23	0x3d15e5d5	0.036596138
24	0x3cb6602f	0.02226266
25	0x3c62ea4f	0.013849809
26	0x3d018bb0	0.031627357
27	0x3c9b2750	0.018939644
28	0xbc0a6edb	-0.008449282
29	0xbb86ab12	-0.0041097486
30	0x3c38da95	0.011282583
31	0xbc309d59	-0.010779702
32	0x3ce996f6	0.028514367
33	0xbc52919a	-0.012852097
34	0x3cbe0bb5	0.023198942
35	0x3c0288f7	0.007967225
36	0xbb9e37c3	-0.0048284247
37	0xbbaee45e	-0.005337282
38	0x3dfdfdb7	0.12401908
39	0x3ba3708a	0.004987781
40	0xbc30ce4a	-0.010791371
41	0x3cd66509	0.026171224
42	0xbc88fcd7	-0.016722126
43	0x3c359d19	0.011084818
44	0xbcc2aca7	-0.023763968
45	0x3d8a5cd5	0.067559876
46	0xbc672f0a	-0.014110336
47	0xbc7d15ab	-0.015447061
48	0x3c6c5268	0.014423944
49	0xbb4c022e	-0.003112923
50	0x3d196470	0.0374493
51	0xbd07cb1b	-0.03315268
52	0x3c05bd77	0.008162848
53	0xbc8f2d57	-0.017477674
54	0x3cb3f3de	0.02196687
55	0x3c57aeac	0.013164204
56	0x3bc4736d	0.005995205
57	0xbbef9906	-0.007311943
58	0x3d3e9d5d	0.046536792
59	0x3cfe5620	0.031046927
60	0x3ce286c8	0.02765216
61	0xbc38ff24	-0.011291299
62	0x3d5f67cc	0.054542348
63	0xbc1467ec	-0.00905798
64	0x3d7d902c	0.06190507
65	0xbb21e57f	-0.002470344
66	0x3be3584e	0.006938017
67	0xbc01023e	-0.00787407
68	0x39c52ad8	0.0003760669
69	0x3bec91ef	0.007219545
70	0x3cd67f15	0.026183644
71	0xbc523815	-0.012830754
72	0x3ca108ff	0.01965761
73	0x3ce0c4b2	0.027437542
74	0x3d1d8956	0.038461052
75	0xbb1193b1	-0.0022213275
76	0xbcc81df2	-0.024428342
77	0x3d0991c2	0.03358627
78	0x3db578aa	0.088609055
79	0x3bd960a2	0.006633834
80	0x3ce7eb07	0.028310312
81	0xbca338d8	-0.019924566
82	0xbd28dbb1	-0.04122514
83	0xbc876f8a	-0.016532678
84	0x3d45d0bb	0.048294764
85	0xbc153498	-0.009106778
86	0xbcf797b3	-0.030223703
87	0x3d62343f	0.055225607
88	0xbd42b27c	-0.047533497
89	0xbb8ab315	-0.004232774
90	0x3c17468f	0.009233131
91	0x3ba6d834	0.0050916914
92	0x3e28be1b	0.1647877
93	0xbbab4d6a	-0.0052277343
94	0xbc32a3d3	-0.010903317
95	0x3d38dc1d	0.04513179
96	0x3c6ce017	0.014457724
97	0xbd1cc881	-0.038277153
98	0xbd286b10	-0.041117728
99	0xba98699d	-0.0011628155
100	0xbbcab002	-0.0061855325
101	0x3c310968	0.010805465
102	0xbd55e2e2	-0.052218325
103	0xbd2d5115	-0.042313654
104	0xba579234	-0.0008223385
105	0x3d3b81d8	0.045778126
106	0xb9d208e9	-0.0004006096
107	0x3ad6a8e9	0.0016377243
108	0xbbf2b7cf	-0.0074071656
109	0xbd30a116	-0.043122374
110	0xbca2af1c	-0.01985889
111	0x3a2035e0	0.00061115436
112	0x3bd43b72	0.006476813
113	0xbc76d620	-0.0150657
114	0xbd005bc5	-0.03133752
115	0xbb8217ea	-0.003970136
116	0x3d497c77	0.049190965
117	0x3c5a0822	0.013307603
118	0xbc8e054d	-0.017336512
119	0xbca9bd0e	-0.020720031
120	0xbc3e8a0f	-0.011629595
121	0x3bec7364	0.007215904
122	0x3c3dd650	0.011586741
123	0xbb95acfc	-0.0045677405
124	0xbd948bb7	-0.07253211
125	0xbc9927aa	-0.018695671
126	0x3c57287f	0.013132214
127	0xbd1bde87	-0.038054015
128	0x3ac1f3c2	0.0014797377
129	0x3be71fb6	0.007053341
130	0x3c83c957	0.016087217
131	0xbb8939b9	-0.0041877893
132	0xbd37aa4f	-0.044840153
133	0x3b837322	0.0040115276
134	0xbb458999	-0.003014183
135	0x3d0b645d	0.03403126
136	0xbba31b5c	-0.0049776267
137	0xbcee206c	-0.029068194
138	0xbc109e2e	-0.0088267755
139	0xbe19c576	-0.15016732
140	0x3b26e08c	0.002546343
141	0xbcdae74b	-0.026721617
142	0x3c6820ed	0.014168006
143	0x3ca940f4	0.020660855
144	0xbd64074b	-0.055671018
145	0xbb3017d1	-0.0026869664
146	0x3d8895e1	0.06669212
147	0xbc74e8c4	-0.014948074
148	0x3c973bb6	0.01846109
149	0x3c2cd32a	0.010548392
150	0x3ccb63d4	0.024827875
151	0x3bd38944	0.0064555723
152	0xbca316ec	-0.019908391
153	0x3d0f444d	0.034977246
154	0x3c0db3d2	0.00864883
155	0xbc4ce251	-0.01250513
156	0xbd9ed9e5	-0.07756404
157	0x3c1d410c	0.009598028
158	0xbc6752d5	-0.01411887
159	0xbb03ece0	-0.0020130202
160	0xbc3194f5	-0.010838737
161	0xbd008edb	-0.031386238
162	0xbc2d41e0	-0.010574788
163	0xbc771413	-0.01508047
164	0xbcc1c3ec	-0.023652993
165	0x3c15035b	0.009095038
166	0x3d3dd0aa	0.046341576
167	0xbc84ae4e	-0.016196396
168	0xbd8d6ec7	-0.06905895
169	0x3b36e645	0.0027908247
170	0x3d8e937a	0.06961723
171	0xbd4a49d3	-0.04938681
172	0x3cb5a0ae	0.022171345
173	0x3b03b0c7	0.0020094381
174	0xbd097e1b	-0.03356753
175	0x3c2bfa70	0.010496721
176	0xbc9c8ff5	-0.019111613
177	0x3be95b3e	0.0071214726
178	0xbd034eaa	-0.03205744
179	0x3b3246de	0.0027202885
180	0xbcd35b2f	-0.025800316
181	0xbc03d08e	-0.008045329
182	0x3d448113	0.047974657
183	0x3d28c304	0.041201606
184	0xbd7b0078	-0.061279744
185	0x3beb4d61	0.007180855
186	0x3ca037c0	0.019557834
187	0xbc80770a	-0.015681762
188	0x3c0fea60	0.008783907
189	0x3d032cdf	0.032025214
190	0x3c74e4b1	0.014947102
191	0xbb0c117b	-0.0021372724
192	0xbb826e74	-0.003980452
193	0xbc954d46	-0.018225323
194	0x3a4863cc	0.00076442654
195	0x3cbf3491	0.023340495
196	0xbcbb8243	-0.022889262
197	0x38a1c173	7.713111e-05
198	0xba2f6b4f	-0.00066917104
199	0x3c8de5eb	0.017321547
200	0xbbe30518	-0.0069280975
201	0x3ce104cc	0.027468108
202	0xbc1dfb68	-0.009642459
203	0x3c04d983	0.008108499
204	0xbb31de0d	-0.002714041
205	0xbd1cb85d	-0.03826176
206	0x3c21a2d5	0.009865482
207	0xbb61fc6e	-0.0034482735
208	0x3c40976d	0.011754853
209	0x3c781323	0.015141281
210	0xbca1befb	-0.019744387
211	0xbc3babfb	-0.011454578
212	0xbbfeeb59	-0.0077795205
213	0x3c1e6185	0.009666805
214	0xbc278120	-0.010223657
215	0x3d9b2e30	0.07577169
216	0xbd2ac2c3	-0.041689645
217	0xbaf4c466	-0.0018674254
218	0xbb269e56	-0.0025423965
219	0x3c4725b8	0.012154989
220	0x3dc6c7a7	0.097060494
221	0xbcaabb95	-0.0208414
222	0x3c853280	0.016259432
223	0xbd023149	-0.031785283
224	0x3d0ce4a5	0.03439774
225	0x3b7b1496	0.003831183
226	0x3ce71d95	0.028212348
227	0xbc7512c9	-0.014958092
228	0x3d0ef9b0	0.03490609
229	0x3ca8e1f7	0.020615561
230	0xbc81fe7e	-0.015868422
231	0xbcc3f15d	-0.023918802
232	0xbd0b583d	-0.034019697
233	0x3d88c249	0.06677682
234	0x3cc9e4de	0.024645265
235	0xbd5327ed	-0.051551748
236	0x3d015ea4	0.031584397
237	0x3da66cfb	0.08126255
238	0xbbcd9977	-0.006274398
239	0xba92e4f9	-0.0011207155
240	0x3c3bba1d	0.011457947
241	0x3c12d228	0.008961238
242	0x3c04d057	0.008106313
243	0xbae80819	-0.0017702609
244	0x39c1bdbb	0.0003695319
245	0x392ab927	0.00016281438
246	0xbb761525	-0.0037549224
247	0x3b10454d	0.0022013963
248	0xbbb6ba17	-0.005576383
249	0xbc54df92	-0.012992756
250	0xbce7466e	-0.028231826
251	0x3c4dbf9b	0.012557889
252	0xbcb136c5	-0.021632561
253	0x3c464497	0.012101314
254	0xbbfa9585	-0.0076472186
255	0x3aebc2d2	0.0017987138

bias f4 [12]
0	0xbd693a0c	-0.056940123
1	0xbe7b505f	-0.24542378
2	0x3e0c5874	0.13705617
3	0x3df5ef8a	0.12008579
4	0xbe82838e	-0.25490993
5	0x3dee04d4	0.11622015
6	0xbe19e8b4	-0.15030175
7	0xbe21ca26	-0.1579977
8	0x3e9b0c16	0.30282658
9	0x3e6fcbe9	0.2341763
10	0xbe2998d8	-0.16562212
11	0x3e094125	0.13403757
