unitree_rl_gym/deploy/pre_train/g1/policy_lstm_1.pt (torch, 145745 bytes, 10 tensors)

hidden_state f4 [1, 1, 64]
00000000: 0000 0000 0000 0000 0000 0000 0000 0000
00000010: 0000 0000 0000 0000 0000 0000 0000 0000
00000020: 0000 0000 0000 0000 0000 0000 0000 0000
00000030: 0000 0000 0000 0000 0000 0000 0000 0000
00000040: 0000 0000 0000 0000 0000 0000 0000 0000
00000050: 0000 0000 0000 0000 0000 0000 0000 0000
00000060: 0000 0000 0000 0000 0000 0000 0000 0000
00000070: 0000 0000 0000 0000 0000 0000 0000 0000
00000080: 0000 0000 0000 0000 0000 0000 0000 0000
00000090: 0000 0000 0000 0000 0000 0000 0000 0000
000000a0: 0000 0000 0000 0000 0000 0000 0000 0000
000000b0: 0000 0000 0000 0000 0000 0000 0000 0000
000000c0: 0000 0000 0000 0000 0000 0000 0000 0000
000000d0: 0000 0000 0000 0000 0000 0000 0000 0000
000000e0: 0000 0000 0000 0000 0000 0000 0000 0000
000000f0: 0000 0000 0000 0000 0000 0000 0000 0000
0.0 0.0 0.0 0.0 0.0 0.0 0.0 0.0
0.0 0.0 0.0 0.0 0.0 0.0 0.0 0.0
0.0 0.0 0.0 0.0 0.0 0.0 0.0 0.0
0.0 0.0 0.0 0.0 0.0 0.0 0.0 0.0
0.0 0.0 0.0 0.0 0.0 0.0 0.0 0.0
0.0 0.0 0.0 0.0 0.0 0.0 0.0 0.0
0.0 0.0 0.0 0.0 0.0 0.0 0.0 0.0
0.0 0.0 0.0 0.0 0.0 0.0 0.0 0.0

cell_state f4 [1, 1, 64]
00000000: 0000 0000 0000 0000 0000 0000 0000 0000
00000010: 0000 0000 0000 0000 0000 0000 0000 0000
00000020: 0000 0000 0000 0000 0000 0000 0000 0000
00000030: 0000 0000 0000 0000 0000 0000 0000 0000
00000040: 0000 0000 0000 0000 0000 0000 0000 0000
00000050: 0000 0000 0000 0000 0000 0000 0000 0000
00000060: 0000 0000 0000 0000 0000 0000 0000 0000
00000070: 0000 0000 0000 0000 0000 0000 0000 0000
00000080: 0000 0000 0000 0000 0000 0000 0000 0000
00000090: 0000 0000 0000 0000 0000 0000 0000 0000
000000a0: 0000 0000 0000 0000 0000 0000 0000 0000
000000b0: 0000 0000 0000 0000 0000 0000 0000 0000
000000c0: 0000 0000 0000 0000 0000 0000 0000 0000
000000d0: 0000 0000 0000 0000 0000 0000 0000 0000
000000e0: 0000 0000 0000 0000 0000 0000 0000 0000
000000f0: 0000 0000 0000 0000 0000 0000 0000 0000
0.0 0.0 0.0 0.0 0.0 0.0 0.0 0.0
0.0 0.0 0.0 0.0 0.0 0.0 0.0 0.0
0.0 0.0 0.0 0.0 0.0 0.0 0.0 0.0
0.0 0.0 0.0 0.0 0.0 0.0 0.0 0.0
0.0 0.0 0.0 0.0 0.0 0.0 0.0 0.0
0.0 0.0 0.0 0.0 0.0 0.0 0.0 0.0
0.0 0.0 0.0 0.0 0.0 0.0 0.0 0.0
0.0 0.0 0.0 0.0 0.0 0.0 0.0 0.0

weight f4 [32, 64]
00000000: ab63 6e3e f74e ec3f 18e7 45be ddf3 2ebf
00000010: cc16 f9be 8bc1 04be a77f 84bf 6f10 c43f
00000020: 7474 f03e f025 bdbe d99b 483f 854f b7bf
00000030: 9542 d63e 8fcd d33f ac6a cdbf 2c96 413a
00000040: e17a 04bf a0cc 303f 7c33 9f3e 1e2c 56bf
00000050: 5e73 73bd 4c03 1b3f f868 f7bc fea9 0b3e
00000060: 9785 23bf 068b a93f 500f a33e 31d9 31bf
00000070: 558c 3a3f 5dbf 03be f3bd a83f ef49 1dbf
00000080: fd0f 523e 6c11 f2bd 6db7 31bf 8b4c 8b3f
00000090: 9df8 6dbf addb ab3f b14c f23e 2326 963f
000000a0: 76f3 d8bf 1130 ae3d f633 68bf dd48 eb3f
000000b0: 24f7 38be 4c15 9f3f d99e f3bf 2203 623f
000000c0: 753a 08bf 8d74 74be 8c72 a4be 22ac 263f
000000d0: 9ebb fb3f 120d 47bf 17ea b63f ec96 193f
000000e0: c15f 90be d9d3 ea3e 3503 653e 655e 063f
000000f0: cf33 2640 1856 ddbe 23c0 cf3f d302 b9bd
00000100: cd16 48bf 0b26 8abf aa56 4fbf ba28 3abf
00000110: e7df fdbd 562b a9bf 813f 89bf a7e3 c1be
00000120: 7b1f c5bf 6281 a7be 79f4 883f b731 a73e
00000130: 964b 693f 6002 f23e bde1 ea3e 3d7d b6bd
00000140: 7e8e 963e b3c4 e23f 72c2 2ebf d6a7 a9be
00000150: 4aae e0bd 956a a23e 37de 953d f729 f53e
00000160: 5b6b 05bf e2ce bb3e 4131 b9be 0a09 293f
00000170: ca0d fbbe 7313 853e 103e b7be d348 63bd
00000180: b411 15bf 51d2 e83e aa4a 3c3f 0018 1140
00000190: 4b8b c63c ed9f d83e f6d5 d6bc db25 1d40
000001a0: e539 aebe b683 013d 0733 98bf 5f3b cd3f
000001b0: 75cc 003e bb1d debe bbbb 41be b7e6 a1be
000001c0: 6c37 0c3f f9a8 b43e 82c1 9f3f a9ca 8bbf
000001d0: 534c 51bf 1664 0abf 9635 a3bf 6318 703e
000001e0: 47df aec0 c27b fa3e 9f45 963f 2412 ce3f
000001f0: c016 a6bf 4447 3f3d a658 173f d8ed 94be
00000200: bdee 68bf 7797 32bf 1203 023e 24c4 bebd
00000210: 04e2 033f c930 7f3f 7ba6 f83f a13c 4a3f
00000220: eb59 ecbd faec c63d 1574 803f 69d5 203e
00000230: c1de 823c 2d2b 073f befe 8fbe d9ec e9be
00000240: aeb0 d23e 6a28 e43f eb47 723e ab44 b93f
00000250: 8c2d 1c3e 282f 3ebf 6a02 f03b 36f6 f83e
00000260: a851 a33e 6507 febf 1541 203e e2e8 043f
00000270: 77b9 773d 84b1 85bf 286f a5bf e7c1 c63f
00000280: b880 73be de1a fe3d e8b1 e93c 12e3 9e3d
00000290: 19d1 66bf 0391 70bf b1c2 acbe 773c 613f
000002a0: 513e 833e 7a1b c1be d29a 0940 06a5 ebbe
000002b0: f18f 11bf 172f 35bf 49bf 07bf a786 e8be
000002c0: 852b df3e 72dc 0e3c a674 ba3e f189 36c0
000002d0: 7512 7a3f 310d c6bf 47c9 ec3f fb2a a3bc
000002e0: 7827 c13e b7fb 803f ed5d bb3f 22cc b13d
000002f0: a66a 88bf b9df 2bbf 0616 a53e 6b99 ab3e
00000300: 916c 1cbe fdf4 f1bd a500 8abe ccf8 ebbe
00000310: e60d 663f 0940 0bbf 166f f0bf 3ec5 163f
00000320: 5c06 05bf c881 01be c517 fabe ec73 f53f
00000330: 1e5c 203f 8ed8 33bf 0804 bd3e e28b 1d3f
00000340: c5f4 11be 306a fbbf 677d abbe e730 f3be
00000350: 8e22 843e 3417 9a3e 2ce9 023f af36 253f
00000360: 9498 01bd 5201 1640 e9f3 7cbe 6b23 2abe
00000370: 7345 2b3e dd4e 173f 023e a33f 699f 07c0
00000380: af43 bf3e a073 babe 6d36 2fbf 40be 9dbd
00000390: 61b7 473f 6159 583f 214c db3e b7ab 0ac0
000003a0: ff4b f23d b2ae 643f d6d9 44be 82f6 ecbe
000003b0: 7855 083f 66d6 d5be 59b3 a7be 4b09 993f
000003c0: 487d 813f b289 a13e 6ce4 6fbe 5a4c 3c3f
000003d0: 61c5 e9bf 539b 8c3f ae6c 6f3f 30ac 073e
000003e0: 15e9 e93d 8039 61be d43b 7ebf 4639 d0be
000003f0: 0394 d3bf 2652 303e a732 46bf a795 bbbc
0.23280208 1.8461598 -0.19326437 -0.68340856 -0.48650205 -0.12964456 -1.0351456 1.5317515
0.46963847 -0.36943007 0.78362805 -1.4321142 0.41847673 1.6547107 -1.6048179 0.0007384743
-0.5175 0.6906223 0.31093967 -0.8366107 -0.059436195 0.60551906 -0.03020142 0.13639066
-0.63875717 1.3245552 0.3184762 -0.6947203 0.7287038 -0.12865968 1.3182968 -0.6144094
0.20513912 -0.11819729 -0.6942051 1.0882734 -0.9295748 1.3426415 0.47324136 1.1730388
-1.6949298 0.08505262 -0.90704286 1.8381611 -0.18063027 1.2428374 -1.9032851 0.8828603
-0.532142 -0.23872586 -0.32118642 0.65106404 1.9666631 -0.7775432 1.4290189 0.59995914
-0.28198054 0.45864752 0.22364505 0.52487785 2.5969121 -0.43229747 1.623051 -0.09033742
-0.7815979 -1.079286 -0.80991614 -0.72718394 -0.123962216 -1.321635 -1.0722505 -0.37868997
-1.5400232 -0.327159 1.0699607 0.32655117 0.9113096 0.47267437 0.4587535 -0.08910606
0.29405588 1.7716278 -0.6826545 -0.3313586 -0.10970743 0.3172194 0.07317775 0.4788358
-0.52116936 0.36681277 -0.3617039 0.6602942 -0.49033958 0.259914 -0.35789537 -0.055489372
-0.5823014 0.4547296 0.7355143 2.2670898 0.024236342 0.42309514 -0.026225071 2.4554355
-0.34028545 0.03161975 -1.1890572 1.6033744 0.12577994 -0.43382058 -0.1891927 -0.31621334
0.5477207 0.35285166 1.2480929 -1.0921222 -0.81757087 -0.5405897 -1.2750728 0.23446803
-5.4647555 0.48922545 1.1739997 1.6099286 -1.2975693 0.046698824 0.5911964 -0.2908771
-0.90989286 -0.69762367 0.12696484 -0.093147546 0.5151675 0.99683815 1.9425806 0.7899876
-0.11540588 0.097131684 1.0035425 0.1570641 0.015975358 0.52800256 -0.2812404 -0.45688513
0.4115042 1.7824833 0.23660247 1.4474081 0.1525175 -0.74290705 0.0073245065 0.48625344
0.31898236 -1.9846007 0.15649827 0.5191785 0.060479607 -1.0444798 -1.2924547 1.5527924
-0.23779571 0.12407468 0.028527215 0.07758154 -0.9016281 -0.9397127 -0.33742288 0.8798289
0.2563348 -0.37716275 2.1500745 -0.4602434 -0.5686026 -0.7077498 -0.53026253 -0.45415232
0.4358789 0.00871955 0.3641712 -2.8521693 0.97684413 -1.5472776 1.8498925 -0.019917956
0.37725425 1.0076817 1.4638039 0.08681513 -1.0657547 -0.6713825 0.32243365 0.33515486
-0.1527579 -0.11814306 -0.26953617 -0.46088254 0.8986496 -0.54394585 -1.8783901 0.5889472
-0.5196283 -0.12647164 -0.4884626 1.9176002 0.6264056 -0.7025231 0.36917138 0.6154157
-0.14253528 -1.9641781 -0.33494112 -0.47498247 0.25807613 0.30095828 0.5113704 0.64536566
-0.03163965 2.3438306 -0.2470242 -0.16615073 0.16725712 0.5910471 1.2753298 -2.1191046
0.37356326 -0.3641634 -0.6844242 -0.07702303 0.7801419 0.8451138 0.4283152 -2.1667306
0.11830901 0.89329064 -0.19223723 -0.4628182 0.53255415 -0.41765136 -0.3275402 1.1955961
1.0116358 0.31550366 -0.2342698 0.73554003 -1.826336 1.0984901 0.9352521 0.13249278
0.1142141 -0.21994591 -0.9931004 -0.40668696 -1.6529545 0.17218837 -0.7742104 -0.022898508

bias f4 [32]
00000000: 301a 83be a698 2b3e cc14 95bd 2f6e 2cbf
00000010: d5be 023f 87bb c53c 20c6 2fbf 5516 cbbe
00000020: 73ed 1fba c2c5 003f 637a e63d 1820 30be
00000030: a97a a4bd f3d7 a6be d489 d4be 82cb 28be
00000040: a83a 41bf 10a7 8fbe 475c 273d d121 0e3f
00000050: d49f 95bf b377 a1bd fc57 e0bd 5e26 0ebe
00000060: 91b0 1dbe 7567 ffbe 5933 b93c fb34 54bf
00000070: 8a54 853e 9daa 1e3f f729 a53e 4524 393e
-0.25605917 0.1675745 -0.07279357 -0.67355627 0.51072437 0.024137272 -0.6866169 -0.39665475
-0.00061007513 0.50301754 0.11253812 -0.17199743 -0.08031208 -0.3258663 -0.41511405 -0.16483882
-0.7548013 -0.28057146 0.040859487 0.5552035 -1.1689401 -0.07884159 -0.10954282 -0.13881823
-0.15399386 -0.4988362 0.022607492 -0.8289334 0.2604106 0.61979085 0.3225858 0.18080242

weight f4 [12, 32]
00000000: 87f5 023f 0443 9d3d 7702 09bd d9f1 913d
00000010: 047c 9dba f26e ae3e 6f2b 003f 45df a3be
00000020: 053e e23e e0b9 603d fa34 f5bd 3982 76bd
00000030: c3a3 333c 91fc c53e 1884 a5be fbf0 57be
00000040: be33 04bc 20f5 a93e 63dd 83be 1c95 6ebe
00000050: 6157 b3be 3110 53be 4d81 e23c 3260 d23d
00000060: 06e2 8b3a c798 8ebe c5f9 4bbe 221e e73e
00000070: b49d 57bf add6 123d a939 873e c2b3 8abe
00000080: 463e 0b3e de38 f5bd 27ae acbe b0e9 173c
00000090: 4c57 a6be 895d 1f3e 9da8 e63c a258 2bbe
000000a0: 0f27 6abe 80e1 6a3e c1af 48be 4b07 f13e
000000b0: 6b66 183e 9fba 09be f070 5fbd 9150 9ebe
000000c0: d8c3 e1bc b791 4b3d ce24 8c3e 8841 babe
000000d0: 13e4 15be 1d29 b33e 1cc9 af3d 7657 1cbe
000000e0: 87d2 833d 4547 a0bd 20d0 f43d 1a04 e3be
000000f0: b319 9c3d 2d37 cc3c 8f5e e13e 7b67 a53e
00000100: 2a69 dbbd ea86 cebd c9b5 573e 7ef5 70be
00000110: 9afc 8e3c 1c68 033e c8ea fd3d 2000 a53d
00000120: 6987 083d 2cb9 e03d d0be 473e 6539 8abe
00000130: c7ce 8bbe 8904 5a3e ba82 683c 3186 0e3b
00000140: a148 8d3c ed70 9e3d 584f 9c3e 9cc2 9c3d
00000150: 3cd0 a53d fdae efbd 727b 52be 7057 893e
00000160: 22ed aabd 30f4 bcbc d12c 843d f9ff c1bd
00000170: 9609 59bd bf0a 0cbc cd54 d63d 5d09 9bbe
00000180: f581 61be 8eb3 783d 3e0c c5be b08a d73e
00000190: d449 e3be b032 923c 223f 343e bfbd 193d
000001a0: 04b0 8c3e 7c33 c0bc 4bdb cabd 6943 66be
000001b0: e767 7b3d b7cf 203e 991d 913e 8c2b 4ebe
000001c0: 37f9 a23d 5679 263d cc4e 66be dd90 bcbe
000001d0: 8cfe 20bc 5435 febd fd0a ccbe fd56 903e
000001e0: 2797 e53d fd38 ec3d ec5a 1b3f 4487 913d
000001f0: f99b 253e bf50 5b3d 23d2 81bd a8a7 d5bd
00000200: 3e32 3d3c 6418 913d b598 a7ba 944a 67be
00000210: 2e45 763c de46 463c 7c01 b23e 50c1 e6bd
00000220: 9b8f 3bbf 532c 363e 7122 033e 2c95 973e
00000230: 38a4 b1bd 415a ae3c 374c 52bc 237e 25bd
00000240: e632 343d c3cf e7bc b731 133e 94bf bd3e
00000250: 5d0b b73c e636 573e a49e 7fbf 4b8d 9dbe
00000260: 84f7 b33f 7ef6 07be 5279 5d3e e32c 743e
00000270: 7e1b 45bd 3554 0abe 4d07 dc3e 3d56 14bf
00000280: 8dd9 a2bd c973 a9bb 4232 0dbe a84f f93d
00000290: b526 85bd 266f dd3d f0a6 abbe 0fd9 073e
000002a0: 0bfa 19be ab85 aebd fadc c63e b9fb 753e
000002b0: 26fa 2abe 74af 323d bd2f 68be bc60 c2bd
000002c0: 0242 53bf 22c1 0e3d 04fa 323e 4aa7 283d
000002d0: 5234 9dbd 0c42 f33c 7566 993e 6b86 ecbd
000002e0: 5e3d 973e 8f8c ffbc 4bf9 38be a9c1 e4bd
000002f0: e1c3 07be 09b3 43bc 050e 8f3c 6f1e 28bc
00000300: 0475 5dbd 9a32 3ebe 90c5 b43d 8905 55bd
00000310: 85cc 5dbe bbf1 98be 0a8f d3be 63a1 b13e
00000320: ee37 5bbc 8b9a 71bd 79e4 9e3e 0558 22be
00000330: 89a7 1bbe 4f98 1cbf 89e9 363f acd5 36be
00000340: 5710 873c 1054 dbbe 253c 423e 4ebd 773e
00000350: a61a f93e e3e6 a83c 0725 0abd d59d 07be
00000360: 1dca e2bd 4c12 6c3e 793b 913b 678d 97bd
00000370: 1019 24bf 0385 503d 378e 903e 8282 a23d
00000380: e0d4 fd3c fbb4 003f 91dc 72bd e62f c2bd
00000390: a624 c2be e4a8 dabd 5b87 9abc 5557 673d
000003a0: 1efa fdbc 8b34 e0be aec0 fb3c f846 d7be
000003b0: 0631 a23e 2a6c 113e 011a 833d 6bb0 8c3e
000003c0: b96e 16bd 215d 0f3e e02c 05bd a5c8 133e
000003d0: 85ca b5bd 539d 42be 32b1 303d 4c10 1b3e
000003e0: bb15 c53d 4e90 a83d 6681 0dbf 95fa 003e
000003f0: ef8f a83d 600a 623c e0e2 4d3e 48a1 d2be
0.51155895 0.07678798 -0.033449616 0.07126207 -0.0012015109 0.3406902 0.50066274 -0.3200628
0.44187942 0.054864764 -0.11972995 -0.060182784 0.010964337 0.38669255 -0.32327342 -0.2108802
-0.008068977 0.33194828 -0.25754842 -0.23299068 -0.35027602 -0.20611645 0.027649546 0.10272254
0.0010672219 -0.27850935 -0.19919498 0.45140177 -0.8422501 0.035849262 0.2641118 -0.2709027
0.13597974 -0.11973737 -0.33726618 0.009272024 -0.32488477 0.15563025 0.028156573 -0.1673303
-0.22866462 0.22937584 -0.19598295 0.47075877 0.1488282 -0.13450097 -0.054551065 -0.30920842
-0.027559206 0.04969951 0.2737183 -0.3637812 -0.14637785 0.34992304 0.085832804 -0.15267739
0.06436639 -0.078260936 0.11953759 -0.44339067 0.07622089 0.024928654 0.44017455 0.32305512
-0.10713418 -0.100843266 0.2106544 -0.23531148 0.017454434 0.12832683 0.123982966 0.080566645
0.033332262 0.10972819 0.19506383 -0.26996914 -0.27306196 0.21290793 0.014191324 0.0021747465
0.017246546 0.07736383 0.30529284 0.07654306 0.08096358 -0.11703298 -0.20554903 0.26824522
-0.08346011 -0.023065656 0.064538606 -0.09472651 -0.052987657 -0.008547484 0.10465393 -0.3028058
-0.22022231 0.06071811 -0.38485903 0.42097998 -0.44392264 0.017846435 0.17602208 0.03753447
0.2747804 -0.02346205 -0.09905108 -0.22486652 0.061378386 0.15704237 0.28342894 -0.201338
0.0795769 0.04064306 -0.22490996 -0.36829272 -0.009826314 -0.12412515 -0.39852133 0.28191367
0.11210471 0.11534307 0.6068561 0.07105878 0.1617278 0.053543802 -0.063389085 -0.104323685
0.011547623 0.0708473 -0.0012786599 -0.22587043 0.015031142 0.012101857 0.34766757 -0.1126734
-0.73266 0.17790346 0.12806107 0.29605997 -0.086739 0.02128327 -0.012835554 -0.040403496
0.043993853 -0.02829731 0.14374433 0.37060225 0.022344286 0.21017036 -0.9985144 -0.3077186
1.4059911 -0.13277623 0.21628311 0.23845248 -0.04812192 -0.13508685 0.4297432 -0.5794409
-0.07951651 -0.0051712734 -0.13788703 0.12173396 -0.065015234 0.108122155 -0.335258 0.13266395
-0.1503679 -0.08521589 0.38840467 0.24021806 -0.16696987 0.043624356 -0.2267446 -0.09491107
-0.82522595 0.034852155 0.17478186 0.041175164 -0.07675995 0.02969458 0.2996098 -0.11549076
0.29539007 -0.031194953 -0.18063848 -0.1116975 -0.13258316 -0.011944541 0.01746274 -0.010261162
-0.054066673 -0.1857399 0.088267446 -0.05200723 -0.2166005 -0.29871926 -0.41320068 0.3469344
-0.013380034 -0.058985274 0.31033686 -0.1585389 -0.15200628 -0.61169904 0.71450096 -0.17854947
0.016487284 -0.42837572 0.18968256 0.24193308 0.48653144 0.020617908 -0.03372672 -0.13243802
-0.11073706 0.23053855 0.0044321385 -0.07400017 -0.6410074 0.0509081 0.282335 0.07935049
0.030985296 0.50276154 -0.05929238 -0.09481792 -0.37918586 -0.106767446 -0.01886337 0.05647977
-0.031003054 -0.43790087 0.030731525 -0.42046332 0.31678027 0.14201418 0.06401444 0.27478346
-0.036726687 0.1400037 -0.0325135 0.14432009 -0.08876518 -0.19005327 0.043137737 0.15142936
0.096232854 0.08230649 -0.5527557 0.1259559 0.08230578 0.013796419 0.20106077 -0.41138673

bias f4 [12]
00000000: 90e1 0bbf ed09 713e 505e 01bd 7fe3 9a3f
00000010: c792 953e 050f 953e 5c4e 2fbf a593 afbe
00000020: 934b 783e a9af be3f 62f5 5cbe ffb9 aebe
-0.54641056 0.23538943 -0.031584084 1.2100676 0.29213545 0.29113021 -0.6847894 -0.3429233
0.2424758 1.4897357 -0.21577981 -0.3412628

weight_ih_l0 f4 [256, 47]
00000000: db41 113f 3562 f53e d838 983f f638 a3be
00000010: cf48 88bf 0af6 433f a2d2 233e c60c 173d
00000020: dcca 9bbf 37cc 64bf 91c9 4b3e 5ec1 bcbf
00000030: fd99 cebe a8e7 a13d 78ce 32be 2197 223f
00000040: 0473 1740 3d90 ed3f 6e72 b93f 3541 a23e
00000050: 3c72 59be 49bd 093f e04e 06be 5b55 e13e
00000060: 4640 c03d 61c6 0a3e 20a5 9f3e b541 94bf
00000070: e648 143f a589 303e d087 753e 613b 363e
00000080: 9c86 cb3d 3676 e23d 9dba aeba a715 e83d
00000090: aa55 8a3d 5bdd bdbc d1cc a23d 23bc 1a3d
000000a0: cdb9 f4bd ac74 df3d 26b5 13be 1728 ecbb
000000b0: 34af 2fbe 06c2 3ebe 41b9 d83d e034 e53d
000000c0: 4303 96bd f516 6a3e 05cf 013f 08b2 dcbe
000000d0: 0272 423f de1e 0dbf 9681 b7be b6c7 71bf
000000e0: dc79 be3f ecd4 07c0 cd9d 783f 5519 de3f
000000f0: 79f0 71c0 11c3 b83e d9fc 4b40 1c0d 36c0
00000100: 3df0 1abf b188 8c3e d186 713f bfd5 08bf
00000110: 233c c1bf d0b6 a83f 1020 8a3e 6f04 0e3f
00000120: e890 cbbf e639 f33e 5eb8 283e 6437 0ebf
00000130: d66d adbd b2c6 163d 1a6f f6bd 4d53 18bf
00000140: 600b 353e e4f7 94bd 7084 1cbe cce8 b7be
00000150: 5a70 863d b084 09be 2594 f5bc ee8c c43d
00000160: 88ee 393c 348b 9f3e c61a 373a d7e2 eabd
00000170: 752e d9be 723e 023e 2621 adbe f539 103f
00000180: cd62 72be 1bf7 d73c 8daf 0d3d 37a4 113f
00000190: 8569 0a3e 37f3 4abe 5855 393f 5080 e13e
000001a0: f672 393f 4ada d8be 4e4b b23e e86a d3be
000001b0: 72af c93e 99ea 803f d849 14c0 daa6 623f
000001c0: d9d9 353e 32de 8bbe 4b8c b13e bd9f babe
000001d0: 46d1 89be d7e2 6a3c 7e6f e8be f00b 04bf
000001e0: 0865 e73e 89fc 213f 8658 023d 202f 76bf
000001f0: 3dd5 823e 78f4 84be 13a6 8f3b bfa4 efbd
00000200: ff19 c9bd 1f18 62bd cba1 3e3d 8cd3 003d
00000210: dfc8 4c3c 3dbf 4f3d b9af ac3c 8790 31bd
00000220: f1c5 a33a 7e48 053c 18cb 183c d1e7 31bb
00000230: 2e6b 2cbe dbce f83e ab9f d63f d8e3 9e3f
00000240: 6985 113f b9e7 813f 1c04 ae3d ba69 66be
00000250: 869d ecbc e2da 91bf 2e88 debf b978 0fbe
00000260: 9af6 23c0 b5d3 02bf f12a ab3f f4bc a3be
00000270: a533 b540 5bb1 a0bf ab57 a83f fde1 583f
00000280: cb4b c9be 99bb a93d d145 e1bf 4c19 fa3e
00000290: 0633 04bf 96b5 f8bf de92 033f 6609 5fbe
000002a0: 908a 3e40 b5b5 b2be 5b0d 05be 4e26 ed3e
000002b0: 45de e7be 0200 09bf 4e76 8f3d a9c9 cd3e
000002c0: b332 333f 6e6f 963d baed 5cbd 1525 123d
000002d0: 4160 bb3c 5a47 b13d a35d ec3b bb43 db3e
000002e0: 4f8a 323e 4c7e b83d 4edd cb3e eb68 5cbe
000002f0: 886c 9d3f fea6 13bf 1419 0dbe 513d 3dbf
00000300: 58b2 8ebf cb54 333e a90a 553e edf5 5d3e
00000310: ea31 20bf 421c 01bf 5c63 2840 2029 0fc0
00000320: 02d7 99bf bf5d cc3e afe2 513e 7301 f1bf
00000330: 70d6 c140 7666 87c0 4f4c a5bf d7d8 663e
00000340: cff9 8f3f 288f bbbe 7bbc 4b3e c3be 353d
00000350: 211b 813e ea0c 963e 7059 b7be 514f 75be
00000360: eb41 a43f 6eec 5abf 5d4b 75bf 6e19 54be
00000370: fc72 f53e f6d4 273d b507 d4bd b81e 8ebb
00000380: 7ec2 023e bd67 bbbd 3c52 1d3e 039e 30be
00000390: 3556 113e 269e 3dbe 9fcd aa3e 5c54 91bd
000003a0: 66e3 0bbb 77f3 4abe c79b bbbe bbb6 99c0
000003b0: a326 433f 79aa d9be 6c23 273f 6619 2a40
000003c0: f0ce 3f3f 7894 cabc 1fa2 8cbd fcca 15bd
000003d0: b678 84bf 4f9e 60c0 c8b8 7e3d 3acb 0d3f
000003e0: cbab 15be 0b04 db3e 7cea d1bf 1298 3fc0
000003f0: d669 ed3f fdcf ef3f 6f13 93be 34bc 9bbb
0.5674111 0.4792649 1.1892347 -0.31879395 -1.064722 0.765473 0.15998319 0.036877416
-1.2171283 -0.8937411 0.1990111 -1.4746511 -0.4035186 0.07905513 -0.17461574 0.63511854
2.366395 1.8559643 1.4488046 0.31690374 -0.21234983 0.5380445 -0.13116026 0.44010434
0.09387259 0.13552238 0.31180668 -1.1582552 0.57923734 0.17240007 0.2397759 0.17796089
0.09937784 0.11057703 -0.0013330762 0.11332255 0.067546204 -0.02317684 0.07949222 0.037777077
-0.11949501 0.10910925 -0.14424571 -0.0072069275 -0.17156678 -0.18628702 0.105822094 0.11191726
-0.07324841 0.2286032 0.5070651 -0.43104577 0.7595521 -0.55125225 -0.35841054 -0.9444536
1.4880939 -2.1223707 0.97115785 1.7351481 -3.7803023 0.36086324 3.1873076 -2.8445501
-0.60522825 0.27448037 0.9434634 -0.5345115 -1.5096477 1.318079 0.26977587 0.55475515
-1.5903597 0.4750511 0.1647658 -0.5555327 -0.08468215 0.036810584 -0.1203291 -0.59502107
0.1768012 -0.07273844 -0.15284896 -0.35919797 0.06564398 -0.13429523 -0.029977867 0.09597193
0.011348374 0.3116089 0.00069848855 -0.114690475 -0.42418256 0.12719133 -0.33814353 0.56338435
-0.23670502 0.026362946 0.034591246 0.56891197 0.13516815 -0.19819342 0.7239585 0.44043207
0.7244104 -0.4235404 0.34823078 -0.412925 0.39391667 1.0071594 -2.317007 0.88535845
0.17758884 -0.2731796 0.34677348 -0.36449996 -0.26917475 0.014336309 -0.45397562 -0.51580715
0.45194268 0.63275963 0.031822704 -0.9616566 0.25553313 -0.25967765 0.0043838113 -0.11701345
-0.098194115 -0.055198785 0.046541017 0.031451747 0.012499063 0.05071949 0.021079885 -0.043350723
0.0012494904 0.008134959 0.009325765 -0.002714623 -0.16837761 0.48595318 1.6767477 1.2413282
0.5684419 1.0148841 0.084968776 -0.22501269 -0.028883707 -1.1394923 -1.7385309 -0.14010896
-2.5619264 -0.5110429 1.337248 -0.31980097 5.6625543 -1.2554125 1.3151754 0.8471983
-0.39315638 0.082877345 -1.7599431 0.48847425 -0.51640356 -1.9430416 0.51395977 -0.21780929
2.9772072 -0.34904256 -0.12993376 0.46318287 -0.45286766 -0.53515637 0.07004987 0.40192917
0.69999236 0.07345472 -0.05393765 0.035679895 0.022873046 0.08656187 0.007213311 0.42825112
0.17435573 0.09008464 0.3981728 -0.21524398 1.2298746 -0.57676685 -0.13779098 -0.73921686
-1.1148176 0.17512815 0.20804848 0.21675844 -0.6257616 -0.50433743 2.6310644 -2.236885
-1.201874 0.39915273 0.20496629 -1.8828567 6.0574265 -4.2312574 -1.2913913 0.22543655
1.124811 -0.36632657 0.19896118 0.044371378 0.2521601 0.29306728 -0.35810423 -0.23956038
1.2832617 -0.85517013 -0.9581812 -0.20712826 0.4793929 0.04097458 -0.103530325 -0.004337158
0.12769505 -0.09150646 0.15363401 -0.17247777 0.14193042 -0.1851736 0.3336 -0.070961684
-0.0021345257 -0.19819437 -0.36642286 -4.803556 0.7623083 -0.42512873 0.65288424 2.6578002
0.74925137 -0.024728999 -0.0686686 -0.036570534 -1.0349338 -3.5096624 0.06218794 0.55388224
-0.14616315 0.42776522 -1.6399684 -2.9936566 1.8547924 1.8735348 -0.28725764 -0.00475266

weight_hh_l0 f4 [256, 64]
00000000: 409c 1440 6c64 7fbf 9b87 48bf a75f a5bf
00000010: 0af9 573f 975b abbe e4aa c9bd 7d00 3540
00000020: b21d 6abf 387d 293f 8f66 833e 64aa 0a40
00000030: d66e 423d 9bfd cb3f 5498 36be 4350 133f
00000040: 794e 293f b7b1 6ebe fb05 ff3f ef08 a6bf
00000050: 70c3 8bbd caf8 5b3e 2785 fbbe f2f2 35bf
00000060: 7fee 883f c1c1 9e3f d0b6 883f 6b3b a5be
00000070: 2a51 81bf 26cb e93d 0bed 8ebc 8135 62bf
00000080: 2b48 09bf 314e 3bbf c959 8f3e 7a73 b23d
00000090: 83a8 083f 42a3 edbf 0175 67be 5dae 7d3f
000000a0: 17f0 a3bc 35f0 1cbc 9831 1abd f654 d63f
000000b0: 7abe 8b3c c907 9abc d1bc 8fbf 84b9 fb3d
000000c0: 924b 683f 572e 31bf fde7 4b40 cef7 033f
000000d0: bbe6 093d b9d4 46bf e995 d43d 9694 90be
000000e0: aa96 babf ee50 86be 1514 e6bd ccbe 583f
000000f0: c3af 463f b010 a7be edb9 1abe 69b7 15bf
00000100: b8d9 263f 711d 26c0 5e0f 92be 85f4 4840
00000110: 72f1 af3f f0a5 533e a61d 0640 3412 003f
00000120: e4c3 06be 185e a63f a38b 0ebe 4296 a8c0
00000130: b462 75bf 7863 0a40 c571 37c0 7d61 8c3f
00000140: b2dc 95bf 6aa4 8abf c2c0 ef3e 8191 11bf
00000150: 0bdb 803f 1347 a5be e7de d73e 1c72 473e
00000160: 6e08 88bf 4ef9 3abf 0680 a0bf 319e 923e
00000170: 2be9 05c0 d1f3 62c0 308c 55bf b9a8 893f
00000180: 19ef 6d40 80d1 9abe 4f28 2c3e a39a 3d3f
00000190: 183a 32be c095 a440 39e3 b6be 5f59 aac0
000001a0: 1c11 bdbd 4383 d4be 8722 1c3f 7807 0fc0
000001b0: 2f34 f03f bf91 c5bd ca5f c33f 8122 903f
000001c0: a7ed 9b3f 87d8 463f 7166 79bf 4cbd 3f3e
000001d0: bf9a 50bd 875a 0ec0 3c3a 6540 3539 f3bf
000001e0: 38fd 813f 738f 10bf 5b7c 073f afc1 12c0
000001f0: 1e7e 2440 14f2 c53e f159 f33f 9676 ce3e
00000200: c94e 88bd fcc2 ae3f d980 9b3e 4af8 313f
00000210: 1cc7 cc3e 5fa4 3a3e 06ea a13e af7d 0d40
00000220: c75e c1be d3f2 7e3e e6cb a33b 1420 d83e
00000230: db17 2c3e 5fa7 a7bd a82e c5be 991e 3cbe
00000240: 67af 283e b85f 823e bfba b0be 23be 51bf
00000250: a013 833e f905 513d 35b3 46bf 2b31 1c3f
00000260: 1e4c 00bf e8ef 5bbf 902b adbd 32b7 32bd
00000270: 63a6 c83e 1d1f 483e f21a 263e 111b a8bc
00000280: 4d9e bc3e 9346 dd3c ab6a f7be 24ca 113f
00000290: b084 78bf 6d5c bf3f 1d6b 39bd cb28 d8be
000002a0: de16 3a3e 9f52 ab3e 0423 afbc 946c 153d
000002b0: 2af6 5b3f 5dbd 42be db07 77bf 444a c7be
000002c0: 7446 3a3f f66c fcbe 7da0 6cbf 331a 5cbf
000002d0: 5a97 6a3f 7fee 70bf c439 2ebf 3cdb 21bd
000002e0: 744e bd3e 7b39 7f3f c349 b93d 841e 66bf
000002f0: e04e 063f e78c a6be af0d 403f c390 7e3a
00000300: a3de 49bd 22cf e6bf dee1 73bf 09f9 66c0
00000310: fb5f cc3f d36e ddbd d692 863c ade5 fc3f
00000320: cb04 0a3f 8a5f 9a3e d98d 57bd 3958 ffbf
00000330: cda3 02c0 b838 47bf 0161 363f c1b2 083f
00000340: 7580 a93f 0ae2 833e de49 fa3e d339 debe
00000350: 00b0 e23d bf96 4ebf 66f2 b63f f631 823e
00000360: 984b 9abf 366f 2740 f622 55bf b76e dc3f
00000370: 43c3 25c0 3049 ec3f 2040 b73e 6891 6fbf
00000380: 4df3 79bf dfff 66bf 6f76 483f cdae 89be
00000390: 7b78 b53e 2d94 a4bf a35d d6bc e9b0 d9bf
000003a0: 7e67 723f 172b b03f 7d6a a53f e646 42bd
000003b0: b16b 9d3f ee72 e9be d376 89c0 f121 60c0
000003c0: 2928 2cbf a0e4 00bf c061 1440 e44c f8be
000003d0: 5bc6 06c0 c836 a03d 0a95 a73f 3994 eabe
000003e0: 4bcd fdbf 1f93 c2bf c70c e6be 61b7 b33e
000003f0: 07e7 da3f 6ac1 f6bf e764 b1bf 018b 76be
2.3220367 -0.99762607 -0.7833192 -1.2919816 0.8436438 -0.33468315 -0.09847048 2.8281548
-0.9145156 0.66206694 0.25664183 2.1666498 0.047468983 1.5936769 -0.17831546 0.57544345
0.66135365 -0.2330998 1.99237 -1.2971476 -0.06824386 0.21481624 -0.49125025 -0.7107383
1.0697783 1.2402879 1.068079 -0.32271895 -1.0102894 0.114157006 -0.017447015 -0.8836289
-0.53625745 -0.73166186 0.27998188 0.08713432 0.5338213 -1.8565447 -0.22603227 0.9909418
-0.020011945 -0.009578754 -0.037644953 1.6744678 0.0170586 -0.01880254 -1.1229497 0.12291244
0.9074031 -0.69211334 3.1860344 0.51549995 0.033667307 -0.7766834 0.103801556 -0.28238362
-1.4577229 -0.2623362 -0.11234299 0.8466613 0.7761194 -0.3262992 -0.15109988 -0.58482987
0.6517596 -2.595547 -0.2852735 3.1399243 1.3745558 0.20668769 2.0955596 0.50027776
-0.13160664 1.2997465 -0.13920455 -5.268342 -0.95853734 2.162321 -2.866319 1.0967251
-1.1707976 -1.0831425 0.4682675 -0.56862646 1.0066847 -0.32280788 0.42162248 0.19477123
-1.0627573 -0.7303666 -1.253907 0.28636315 -2.0923564 -3.5461314 -0.83417034 1.0754615
3.7177184 -0.3023796 0.16812252 0.7406408 -0.17404974 5.14328 -0.35720232 -5.3234096
-0.09231779 -0.41506395 0.60990185 -2.2348309 1.8765925 -0.096469395 1.5263608 1.126053
1.2181901 0.77674145 -0.9742194 0.18724555 -0.050928827 -2.2242754 3.5816793 -1.9001833
1.0155401 -0.56468886 0.52924126 -2.2930715 2.5701976 0.38661253 1.9011823 0.4032485
-0.06655652 1.3653255 0.3037174 0.69519484 0.39995658 0.18226765 0.31623858 2.210796
-0.37767622 0.24897318 0.004998672 0.42211974 0.16805975 -0.081862204 -0.38512158 -0.18371047
0.1647316 0.25463653 -0.34517476 -0.8193075 0.2560091 0.051031087 -0.776172 0.61012524
-0.50116146 -0.8591294 -0.084555745 -0.04363174 0.39189443 0.19543119 0.16221216 -0.020520719
0.36839524 0.027011191 -0.4832357 0.5694907 -0.97077465 1.4950081 -0.045268167 -0.42218623
0.18172786 0.33461472 -0.021379001 0.0364805 0.8592249 -0.19017549 -0.9649636 -0.38923848
0.7276375 -0.4930188 -0.92432386 -0.85977477 0.91637194 -0.94113916 -0.68056893 -0.03951572
0.36973917 0.99697083 0.09047272 -0.89890313 0.52464104 -0.32529375 0.7502088 0.0009710902
-0.04928459 -1.8031962 -0.9526652 -3.60895 1.5966791 -0.10812154 0.016427439 1.9757591
0.53913563 0.30151016 -0.05262551 -1.9948798 -2.0412476 -0.7782092 0.71241766 0.53397757
1.3242327 0.25758392 0.4888448 -0.4340349 0.110687256 -0.8069877 1.4292724 0.25428742
-1.2054319 2.6161628 -0.8325647 1.7221287 -2.5900428 1.8459835 0.3579111 -0.9358125
-0.9763687 -0.9023418 0.78305715 -0.26891175 0.35443482 -1.285772 -0.026167696 -1.7007114
0.94689167 1.376315 1.2923123 -0.047430895 1.229849 -0.45595497 -4.295755 -3.5020716
-0.6724878 -0.50348854 2.3184662 -0.48496163 -2.1058567 0.07822949 1.3092358 -0.4581621
-1.9828275 -1.5201148 -0.44931623 0.35100845 1.7101754 -1.9277775 -1.3858918 -0.24076463

bias_ih_l0 f4 [256]
00000000: 7821 88bf 9f36 91bf c67e 77bf a212 2cbe
00000010: e967 6cbf dffc a7bf 87ec 8bbf 9df6 95bf
00000020: 610d 3abf 3300 b6bf d8e1 27bf 4bde 9ebf
00000030: b966 c5be 1984 ecbe 67b0 ebbd 9335 b2bf
00000040: c78b 41be 04af 37bf f6c8 93bf a110 0440
00000050: 76d3 23be dd91 ddbd a94f b2bf 018b 253f
00000060: f82d 58bf d4ec ddbe 973e 9cbf 8854 abbf
00000070: 21eb 413c f831 a4bf 2bc3 b4bf 66bf 3ebf
00000080: 9086 59be 46f3 58bf c76e 80bf 6820 f03e
00000090: 874f 08be 559d c5bf ddb1 143f b383 cbbd
000000a0: d6d7 e6be a2ff aebf 574a 83bf 97b9 c8be
000000b0: b686 abbf ab67 afbf f8ff a3bf 3884 9bbf
000000c0: 9ddd 13bf 5ecd 9c3f cc1b e1be 89bf 8ebf
000000d0: a886 a2bf e8aa 8ebf 6bf6 3abf caa7 31bf
000000e0: 87db 34be 03dd 91bf 5eb8 4cbe 57cd 60bf
000000f0: 7ed4 f1be b954 1ebf f6c4 aabf d4c9 6abf
00000100: 0031 c23e 6c9b 11c0 84ec 2f3f 42f1 e8bd
00000110: 5664 62be da16 6d3d a061 b93e 7489 15be
00000120: 9336 c93e bb63 843f b4a4 80bf 7f62 98bf
00000130: 3276 5cc0 6419 abbf 2dd7 42bf 5224 193f
00000140: 72c1 94be da13 363f 9baa 1dc0 5446 ed3c
00000150: bb69 a8bf a61d 36bf d49d a23d 468c c7bf
00000160: 79bd 0f3f b8fd 23c0 25e2 353f 0c17 203f
00000170: 7cb6 acbf b83b af3f 6598 8b3f c2ee 02bf
00000180: 282b 2abe 6ce7 3dbf c6f5 58be d6e7 34c0
00000190: e193 97bf ce3f bbbf a23f b9bf aea5 dbbf
000001a0: d848 78c0 c4e6 033f 509d 7abf 8178 11c0
000001b0: 10af 953f 7943 253d 2892 833e 57cc 973f
000001c0: abea bebf 24fc 97bf f476 a1bf 5501 5fbf
000001d0: 4210 333e 7cdf f63c dc61 38be 1d10 b5be
000001e0: 6099 6cbf cc9a babf 1da5 77be 2b19 153f
000001f0: fec4 d7bf 9b67 8dbf 8b9b cebc 402f 8a3e
00000200: 2935 92bd ed0a 9bbf 0c61 11be 4c39 343f
00000210: 0ea1 66bd 9637 fb3e 01c8 1a3f 661f 74c0
00000220: 0691 eb3e 6320 49be 2603 5b3f d7cd 5cbf
00000230: 6342 7dbf ecea f0bf ed91 803e f004 b33e
00000240: 8d16 1040 3d04 a13e c1b8 61bf e434 cbbf
00000250: 4817 06bf c9b3 133f b688 523c 34c6 80bf
00000260: c1e4 5fbf 71eb 493f f7bc 1e3d 9837 61be
00000270: 54fd 7ebf 898f d6be 12d2 ab3e 137f 3b3f
00000280: a7c1 b43e 236b 8c3e 7887 cbbe b94e 1ebf
00000290: 9b12 56bf ed36 cb3f 111c 1dbe c601 cfbe
000002a0: 8f46 1bbf c64d abbe 80da 04bf 113d bbbe
000002b0: 1f4a e6bd ba9b fc3c 2fb3 a1bf 3058 383e
000002c0: 91e8 8fbf f656 a93f c915 3bbf ca4e 2640
000002d0: 02b2 603f d9bc 4e3e b978 6c3f e0ba 6cbf
000002e0: fcf5 3b3f 63f7 ec3c c359 f83f 0b7a 7b3f
000002f0: be6e fbbf 9ce1 b13f 72a8 ae3e 1d7e 523f
00000300: 94bb 5d3f 1214 3bbf dc6c a73f d44a 25bf
00000310: 9a95 1c3f 74be 89be 4daa 4b40 31e4 efbf
00000320: bfcb 9bbd 424b fe3f 5c4e adbe 99c2 be3e
00000330: ae49 57bf e564 a2bf 66b2 4cbf cd3f c43d
00000340: 1708 c1be 615f ef3f 6e75 57be 55b1 583d
00000350: 83d3 8dbe 06af 9abe a32f c33e d837 1dbf
00000360: ebf3 f6be c33d 2ebf 474e 60bd 72f6 8b3e
00000370: 3724 533d 5191 ce3f 37d8 8a40 1088 49bf
00000380: a9f4 263e 75ba 573f c785 d03d 2cda 51bf
00000390: 8786 6fbe edb5 e5bf 7975 39bf 3505 1cbe
000003a0: 8a6b 1b3f 5a0c 313f 5881 4fbf 56ee 85bf
000003b0: d104 7140 4428 8f3d c560 c33d 845d 7140
000003c0: b813 763d 4201 50bf 12dc 8dbe f69f b0bf
000003d0: 87b3 9240 7fa9 b13e 1474 c5bf db54 8bbd
000003e0: 6f8b dabf 70f3 1cbf 5abb dc3e 0f37 083f
000003f0: dc6e 79bf c8a0 acbf 93fc 323f 2e2b 5abf
-1.0635214 -1.1344794 -0.96677816 -0.16803983 -0.92346054 -1.3124045 -1.0931557 -1.1715885
-0.72676665 -1.4218811 -0.65578985 -1.2411588 -0.38554934 -0.46194533 -0.115082555 -1.39226
-0.18900977 -0.7175143 -1.1545703 2.063515 -0.15998635 -0.10818837 -1.393056 0.6466523
-0.8444514 -0.43344748 -1.2206601 -1.3385172 0.011835844 -1.2827749 -1.412206 -0.745108
-0.21242738 -0.84746206 -1.0033807 0.46899724 -0.13311587 -1.5438639 0.580839 -0.09937229
-0.45086545 -1.3671763 -1.0257062 -0.39204094 -1.3400486 -1.3703512 -1.281249 -1.2149725
-0.5776003 1.2250173 -0.4396652 -1.1152202 -1.2697344 -1.1145906 -0.73032254 -0.6939665
-0.17661868 -1.1395572 -0.19992206 -0.87813324 -0.4723243 -0.61848027 -1.3341358 -0.91714215
0.3792801 -2.2751112 0.6872027 -0.11374141 -0.22108588 0.05788312 0.36207294 -0.14603215
0.3929945 1.0342935 -1.0050263 -1.1905059 -3.444714 -1.3367124 -0.7610958 0.59821045
-0.29053837 0.7112404 -2.463538 0.0289642 -1.3157266 -0.7113899 0.079402596 -1.5589683
0.5614849 -2.5623608 0.71048194 0.62535167 -1.349319 1.36901 1.0905882 -0.51145566
-0.16618025 -0.74181247 -0.21187505 -2.8266501 -1.1842004 -1.4628847 -1.4472544 -1.7159936
-3.879446 0.51523995 -0.9789629 -2.27298 1.169405 0.04034755 0.25697446 1.1859235
-1.4915365 -1.1873822 -1.2614427 -0.8711141 0.1748667 0.030135863 -0.1800608 -0.35363856
-0.9242153 -1.457849 -0.2418408 0.5824153 -1.6856992 -1.1047243 -0.025220653 0.26989174
-0.07139046 -1.2112709 -0.14197177 0.7039993 -0.056305937 0.49065846 0.6046143 -3.8144164
0.46009082 -0.19641261 0.8555168 -0.86251587 -0.98929423 -1.8821692 0.25111333 0.34964705
2.2513764 0.31448546 -0.8817254 -1.5875516 -0.52379274 0.57696205 0.012849977 -1.0060487
-0.87458426 0.7887488 0.03875443 -0.21993864 -0.996053 -0.41906384 0.33558708 0.73240775
0.35303995 0.2742549 -0.39751792 -0.6183887 -0.8362214 1.5876137 -0.15342738 -0.4043104
-0.6065454 -0.33457774 -0.51895905 -0.36570027 -0.11244606 0.030835975 -1.2632807 0.18002391
-1.1242849 1.3229663 -0.73080117 2.598559 0.8777162 0.20189227 0.9237171 -0.9247265
0.7342222 0.028926557 1.9402393 0.982331 -1.9643171 1.3896976 0.3411289 0.82223684
0.86614347 -0.730775 1.3080096 -0.64567304 0.61165774 -0.26903117 3.1822693 -1.8741513
-0.07607221 1.9866717 -0.33848846 0.3725784 -0.840968 -1.268704 -0.79959714 0.095824815
-0.37701485 1.8700982 -0.2104089 0.052903492 -0.27700433 -0.30211657 0.3812228 -0.61413336
-0.4823297 -0.6806299 -0.05476215 0.2733646 0.05154821 1.6138097 4.3388934 -0.7872324
0.16304268 0.84268886 0.10181766 -0.8197353 -0.23391162 -1.7946144 -0.72444874 -0.15236361
0.60710967 0.6915947 -0.8105674 -1.0463359 3.765919 0.06990102 0.09539942 3.7713327
0.0600774 -0.8125192 -0.27706963 -1.3798816 4.584415 0.34699628 -1.5426049 -0.06803294
-1.7073802 -0.61308956 0.43111688 0.5320901 -0.97434783 -1.3486567 0.6991665 -0.85222137

bias_hh_l0 f4 [256]
00000000: 5ba1 99bf 51a7 8abf b4c9 81bf 6d9d 2fbe
00000010: 9d2b 85bf a65e a9bf d8c3 8fbf b43d 8cbf
00000020: c7ea 3ebf 59db adbf 4030 14bf 6f5f b5bf
00000030: 4088 57be 53b3 1ebf d397 e0bd 5e21 acbf
00000040: 08ed edbc 52f8 72bf 8dbb 8bbf a19a 0140
00000050: c499 42be fe55 55bd a281 b1bf 3712 223f
00000060: 4783 73bf 1e28 eabe afc7 8abf cd61 cabf
00000070: 9c6d a5bc 2c4e a8bf a058 acbf 2036 33bf
00000080: e170 22be 148e 4dbf c114 87bf f06c b63e
00000090: a2f2 1fbe 0c52 bebf 1173 ca3e 87a5 a1bd
000000a0: 89b4 8bbe 22e1 acbf e37b 84bf 33c2 11bf
000000b0: 1161 b1bf 428f a0bf c369 a6bf 1ae7 84bf
000000c0: 8aee 18bf 51c6 8f3f 56f6 00bf e40d 8dbf
000000d0: e280 a2bf 59ec 7ebf b94c 33bf 16e4 4dbf
000000e0: ba72 26be 2d15 a5bf fab0 63be f830 51bf
000000f0: dc3e d4be 6857 24bf bd0e 9dbf 5e5b 35bf
00000100: cb04 a63e 4d63 0fc0 31a1 f23e 241f a7be
00000110: 494a 5abe cfe3 1d3e ebd3 0a3e 14d8 5bbe
00000120: c97e f73e 2e8d 9b3f 235b 7dbf e835 99bf
00000130: 87c9 62c0 97e8 a3bf b5a3 65bf f1da 203f
00000140: 13bb cabe e83a 193f eba6 0ec0 80c9 6a3d
00000150: 0c62 9dbf 61d6 36bf 1c34 6d3d 610c c1bf
00000160: 7aee 0a3f ba08 1dc0 f46d 0b3f b098 213f
00000170: 996b b8bf a804 b63f 247a 713f a036 30bf
00000180: bcf2 18be 3517 75bf aefb d6bd e881 2dc0
00000190: 1e02 a4bf ad05 bebf ec70 b0bf 8f4a f0bf
000001a0: 6f01 76c0 e79c 0d3f 9cf3 80bf 8372 1dc0
000001b0: 7608 943f 8a34 2c3e b817 e43d b0c5 993f
000001c0: 207f acbf e99e 98bf fd89 a1bf 14c3 7cbf
000001d0: 1046 4c3e 637f 0a3d 9a7e a4be f2ae cdbe
000001e0: 3b93 70bf e012 a0bf 277c c2bd caba ca3e
000001f0: ee92 c0bf b333 aabf a4a2 64bd f2be 0c3e
00000200: 5950 84bd 0fd7 b0bf 622f 4dbe 29aa 1c3f
00000210: bfa8 45bc 8b33 183f bc8a 193f 4dc3 6ec0
00000220: 4379 063f e577 4ebd bfaa 4a3f 0fa4 3ebf
00000230: 52d5 87bf 7ea1 eebf e8be 073e aba7 ee3e
00000240: 848f 0b40 cf67 ff3e 217a 7ebf 37bd cdbf
00000250: 6ca7 f1be ccf6 143f 1fe1 c03d 4057 73bf
00000260: a1c3 80bf 3860 323f 0639 bdbd 3d94 51be
00000270: 45b6 79bf dbb9 a7be 466f ba3e 427c 063f
00000280: 5a2b ba3e 3f38 843d 3bdc b2be d3f1 0bbf
00000290: fbc5 6ebf c7f4 c03f b3f5 3abe a417 07bf
000002a0: f6ef 02bf ef71 acbe 944a 06bf 311e 8ebe
000002b0: 9d9f ed3d a572 a3ba b701 a9bf a4c8 c83e
000002c0: e617 90bf e46b af3f b098 39bf ebe6 2d40
000002d0: be40 723f 0310 a43e f15f 353f 47b3 4cbf
000002e0: 863e 2b3f d985 2cbe f601 e43f 0c62 683f
000002f0: 402c 05c0 53e8 c03f b0d8 b63e e57d 5e3f
00000300: 43e1 473f 7eee 5dbf 1cac 8d3f 8d2f 19bf
00000310: 5f5b f63e 4a81 53be 27c7 4e40 a297 e0bf
00000320: e1de d2bc 9bed 0240 4a44 77be db25 bc3e
00000330: 7e2f 2abf e06b b4bf 5657 48bf e6d2 923d
00000340: a093 f2be b690 ef3f f2bf 15be 6ff2 88bd
00000350: 799a 80be 9d1d 4ebe 3e35 823e 93be 14bf
00000360: ba67 abbe 8620 3dbf a9e7 bf3d 8bb2 bf3e
00000370: 9cad a83d 9b34 c93f b132 8840 a29f 6cbf
00000380: 25fc 653e be01 7a3f bfb7 4d3e 4bc1 4dbf
00000390: 2b79 dabe 053e ebbf cede 6fbf 19af 00be
000003a0: edd8 2a3f 985c 123f 452b 2dbf 9eb9 71bf
000003b0: 1224 6b40 9a7b a33d 3b9d 113d 7f8c 6e40
000003c0: 6df7 50bd b3e6 14bf 93d5 99be ebf3 b6bf
000003d0: 9fc9 9740 e48d b83e d393 c8bf 46e3 0bbe
000003e0: 41ed d0bf 714d 2fbf 7d3a d83e c13e 183f
000003f0: c7ac 76bf 1c6f 96bf adef 3f3f 7a19 44bf
-1.2002367 -1.0832311 -1.013968 -0.17149897 -1.0403935 -1.323201 -1.1231642 -1.095633
-0.7457699 -1.3582565 -0.57886124 -1.4169749 -0.21048069 -0.6199238 -0.10966458 -1.3447683
-0.02904369 -0.94910157 -1.0916611 2.0250628 -0.1900397 -0.05208396 -1.3867686 0.63309044
-0.9512219 -0.45733732 -1.0842189 -1.5811096 -0.020193867 -1.3148856 -1.3464546 -0.70004463
-0.15863372 -0.8029492 -1.0553209 0.35629988 -0.15619901 -1.4868789 0.39540914 -0.078929
-0.27286175 -1.3506205 -1.0350307 -0.5693695 -1.3857747 -1.2543719 -1.3001026 -1.0383027
-0.5973898 1.1232396 -0.5037588 -1.1019864 -1.2695582 -0.9957939 -0.70038944 -0.80426157
-0.16254702 -1.2897087 -0.2223548 -0.81715345 -0.41454208 -0.6419587 -1.2270123 -0.7084254
0.32425532 -2.2404358 0.47388604 -0.32640946 -0.213174 0.15418933 0.13557403 -0.21469146
0.48338917 1.215246 -0.9896719 -1.1969576 -3.5435503 -1.2805356 -0.8970292 0.6283408
-0.3959585 0.5985551 -2.2289379 0.05732107 -1.2295547 -0.71420866 0.057911023 -1.5081903
0.54270136 -2.4536576 0.5446465 0.6312361 -1.4407836 1.4220171 0.94326997 -0.6883335
-0.14936346 -0.95738536 -0.10497223 -2.7110538 -1.2813146 -1.4845482 -1.3784461 -1.8772753
-3.8438375 0.5531754 -1.0074344 -2.4601142 1.1565082 0.16816917 0.111373365 1.2013454
-1.3476295 -1.1923496 -1.2620236 -0.98735166 0.19948602 0.03381289 -0.3212784 -0.40172535
-0.93974656 -1.250576 -0.094963364 0.39595634 -1.5044839 -1.3297027 -0.05581917 0.13744715
-0.064606376 -1.3815631 -0.20037606 0.61197144 -0.012064158 0.5945365 0.59977317 -3.7306702
0.5252878 -0.05040731 0.7916679 -0.74469084 -1.0611975 -1.8643034 0.13256419 0.46612296
2.1806345 0.49883887 -0.99405104 -1.6073369 -0.47198045 0.5818908 0.094179384 -0.9505501
-1.0059701 0.6967807 -0.09239392 -0.20466705 -0.97543746 -0.32758984 0.3641302 0.5253335
0.363612 0.064560406 -0.34933648 -0.5466587 -0.93270844 1.50747 -0.1825779 -0.5277045
-0.511474 -0.33680674 -0.5245755 -0.2775741 0.116027094 -0.001247008 -1.3203648 0.39215577
-1.1257293 1.3704801 -0.7249861 2.717219 0.9463004 0.32043466 0.7084952 -0.79961056
0.6689228 -0.16847934 1.7813098 0.9077461 -2.0808258 1.50709 0.35712194 0.8691085
0.780781 -0.86692035 1.1068149 -0.5983818 0.48116586 -0.20654789 3.2309053 -1.7546275
-0.025741043 2.0457523 -0.24147144 0.3674763 -0.6647872 -1.4095421 -0.78258264 0.07169132
-0.47378254 1.8716037 -0.14624003 -0.066868655 -0.25117853 -0.20128484 0.25431246 -0.58103293
-0.33477575 -0.7387775 0.093703575 0.37440905 0.08236238 1.5719179 4.256188 -0.9243108
0.22459467 0.9765891 0.20089625 -0.80373067 -0.4267057 -1.8378302 -0.9369935 -0.12566794
0.6673725 0.57172537 -0.6764415 -0.94423854 3.6740766 0.079825595 0.035550337 3.7273252
-0.051017214 -0.5816452 -0.30045757 -1.4293188 4.743362 0.36045754 -1.5670112 -0.13660917
-1.6322404 -0.6847754 0.42232123 0.59470755 -0.9635739 -1.1752658 0.7497509 -0.76601374
