unitree_rl_gym/deploy/pre_train/g1/trail.pt (torch, 777636 bytes, 48 tensors)

std f4 [12]
00000000: a6ff 3f41 74ad a941 0c5b 2941 dec2 d341
00000010: 9f76 3042 7ffc 5242 2d77 0841 012c ea41
00000020: 062d 1141 a645 d941 d315 3542 379b 5342
11.999914 21.209694 10.584728 26.47015 44.11584 52.74658 8.529096 29.271486
9.073492 27.159008 45.271313 52.901577

actor.0.weight f4 [32, 64]
00000000: 0870 20bf 459d 9c3f 905c 7a40 f166 fc3d
00000010: 0d12 ac3e 6e48 493e 60e0 58c0 d652 16be
00000020: 6655 433e 699f 06bf 7f3b 9ebe 4732 3dbe
00000030: 513e 29bf 9806 173f aaae 5c3f aac7 883e
00000040: 8750 fcbe 36b5 cd3e e818 e0be 1dda d03e
00000050: 1ff4 8f3e 7b30 673f 8b5b e5be c677 bb3d
00000060: d2fd e23f 47b6 6d3f 0c63 c53e 33aa c5be
00000070: 0fbb ddbe 0106 babe 0dde 63bd e73b 2abf
00000080: fc42 863e fb36 aabf 48e8 0c3f f4c3 c23e
00000090: 25e0 aa3e c1ad f13e 2deb 76bf e0ad 90bf
000000a0: 1cae b43f bc96 7c3d 7d3e ad3f d913 093f
000000b0: e51f 61be 0f56 773e 86ad 3740 9c69 3b3e
000000c0: 50fc 813e b20a 5dbe 5a6d e23e 83fb 883f
000000d0: f62e 6d3e 57e9 27bd b0be 7a3d b869 4f3f
000000e0: 29b2 133f 346c 1cbe 89cd 14be 636a 32be
000000f0: b51a 973f 2fe6 873f 859b 2b40 7847 23bf
00000100: 465e 81be 7158 ab3f 78e8 5140 8a63 ad3e
00000110: da24 8e3f 9c89 44be 5591 ad3f 5b15 2b3e
00000120: 0af1 fbbe b726 313e 56aa 2e3f bd0f 1c3f
00000130: 209e 11c0 6c3a 06bf 02dd 583e 4742 63bd
00000140: 2c1c 553f db0d 57bf 6ae7 99bf fa9e a0bf
00000150: 2e8a c3be 7035 353d 7f2c d43d d10f 32bf
00000160: a70f a93f d56e 23bf 71cd 4ebf 875b b1bf
00000170: d4a7 b33d 0b88 c0be e4c3 753d fa67 363d
00000180: 4d44 9cbf d9bd 413f 26cb 183d a8af 9abc
00000190: 6be4 20bf 2c75 61be 9a4c c8be 24d2 183f
000001a0: e81c 18bf 772c b3bf 8133 edbf 869c 2a3e
000001b0: 2256 5e3e b052 0c3f 329c 9dbd 1e2a 043e
000001c0: 848d 833e b2f4 a13e 815d 2bbf 6e3f 13bd
000001d0: fd51 093f 4bfb 22bf fe25 793e 4e18 cbbd
000001e0: da71 b73e ed40 0b40 5654 febe 9222 a33e
000001f0: a2c2 093d bfc0 b0bf 01e2 17c0 6eea 70be
00000200: afd5 29bf 1df5 b4bf 122f 423f a7cf d33e
00000210: bfb8 a6be dee9 a0be 73f5 5abe b457 503f
00000220: 1799 493e a40d 2240 5271 3c3f d52c a83f
00000230: c9a8 313f d42f 94bf 8573 29bf 9dd6 f8be
00000240: a667 babf aefe 1bbf 0f63 31c0 2148 3a40
00000250: 5f14 9cbe 2aaa c1be 7da9 023d edda 81be
00000260: 35bc 313f e520 d93f f043 16bf e38b 903f
00000270: fd4c 573e 7166 403d e23d 7dbf 3fd0 9e3f
00000280: 4a52 cc3e 0acd 9fbd 0fe2 ccbe 47d6 a33d
00000290: 06ae 69bf c3d9 1dc0 2d2e 26bf e191 45bf
000002a0: 0c46 073f 8dae d7bf 9859 4bbe f94c be3c
000002b0: fa48 2e3f b846 71be 127f 9ebf 4b71 57bd
000002c0: a74d f7be 2215 87bf 34eb e3be fecf d33e
000002d0: d775 d5be f313 01bf ac87 7d3f dd3d 99be
000002e0: 8109 3f40 5dc9 fa3e 76ef 14bf 9f02 03be
000002f0: 80e0 d1bf 3d2d 963e bf8f 223c 7739 14bf
00000300: efd0 503e f7c8 bcbf 0d8c cbbf b16f 6a3f
00000310: 60db 593f 394f 61bf c9e1 1340 cfbb 163e
00000320: baff afbe 220c d0bd 9b37 2bbf 973a ebbf
00000330: 74d7 8c3f 2655 72be f3a1 d53d 2bd9 abbf
00000340: ba70 153f 50fd 8cbf e018 5a3f ee51 d63e
00000350: fad0 98bf cd43 59bf 48e8 193f aba0 e4be
00000360: 76e6 983f 0f9f 873f fb93 85be e64c 83bf
00000370: edb6 58bf b805 6bbf 5b10 86be 0693 44bf
00000380: 14c4 103f 4374 0240 f5d7 f13d 0ba0 8b3f
00000390: db8c 37be 7621 c83d 0ba9 943e 4ad1 f33e
000003a0: 1281 3e3f d77c 8540 195d 07c0 1f0e e9be
000003b0: fd00 2fbf 1fd0 7240 2de9 7e3f 70c6 9fbd
000003c0: 38c9 453f 30a7 6a40 9204 e0be 8368 b93e
000003d0: 76ae 6b3e 3b13 bfbf 9c56 883e 16ef 3740
000003e0: 35bd dcbc 3117 423e 8593 b6bf 1a92 47bb
000003f0: 4221 a43f 5f25 1640 7d91 b4bf 90ea 26be
-0.62670946 1.2235495 3.9118996 0.12324322 0.33607522 0.19656536 -3.3886948 -0.14680037
0.19075546 -0.5258699 -0.30904767 -0.1847621 -0.6611071 0.58994436 0.86204016 0.26714832
-0.49280187 0.40177315 -0.43769002 0.40791407 0.28115937 0.9030835 -0.44796404 0.09153704
1.773371 0.9285626 0.3855213 -0.38606414 -0.43306777 -0.36332706 -0.055631686 -0.66497654
0.2622298 -1.3298029 0.55041933 0.38040125 0.33374134 0.47202876 -0.964526 -1.1303062
1.4115634 0.06166719 1.3534695 0.5354591 -0.21984823 0.24153922 2.869966 0.18302006
0.25387812 -0.21586111 0.44224054 1.0701755 0.23162445 -0.040994015 0.06121701 0.8102069
0.57693726 -0.15275651 -0.1453153 -0.17423396 1.1805025 1.0617121 2.6813672 -0.6378093
-0.25267237 1.3386365 3.2798138 0.33865005 1.1104996 -0.19193119 1.3559977 0.16707365
-0.49207336 0.17299925 0.6822866 0.60961515 -2.2752762 -0.52432895 0.21178058 -0.05548313
0.8324611 -0.84005517 -1.2023747 -1.2548516 -0.3819136 0.044240415 0.103600495 -0.69555384
1.3207902 -0.6384099 -0.8078223 -1.3856057 0.08772245 -0.37603793 0.06000127 0.044532754
-1.2208344 0.7568031 0.037303112 -0.018882588 -0.6284854 -0.22017354 -0.39120942 0.5969565
-0.5941911 -1.3997945 -1.8531343 0.16661271 0.21712545 0.5481367 -0.076958075 0.12906691
0.25693905 0.31632 -0.6693955 -0.035949163 0.5364073 -0.6366469 0.24330899 -0.09916745
0.3582905 2.1758378 -0.49673718 0.31862313 0.033632882 -1.3808821 -2.3731692 -0.23526928
-0.6634168 -1.4137303 0.75853074 0.41369364 -0.32562825 -0.31428427 -0.21382694 0.81383824
0.19687305 2.5320826 0.73610413 1.3138682 0.6939817 -1.1577096 -0.66191894 -0.48601237
-1.4562881 -0.60935485 -2.771671 2.9106524 -0.30484292 -0.37825137 0.031899918 -0.2536234
0.69427806 1.6963164 -0.58697414 1.129269 0.21025462 0.046972696 -0.9892255 1.2407302
0.39906532 -0.0780278 -0.4001622 0.079998545 -0.91281164 -2.4664161 -0.6491421 -0.7717572
0.5284126 -1.6850144 -0.19858396 0.023230063 0.68080103 -0.23562133 -1.2382529 -0.05259828
-0.48301432 -1.0553324 -0.44515383 0.41369623 -0.41691467 -0.50421065 0.99035144 -0.2993001
2.984955 0.48981753 -0.5817789 -0.12793969 -1.6396637 0.2933139 0.009921967 -0.57900184
0.20392202 -1.474883 -1.5902115 0.9157668 0.85100365 -0.8801151 2.3106558 0.14720081
-0.3437479 -0.10158564 -0.6688172 -1.8377255 1.1003251 -0.23665294 0.1043128 -1.342565
0.5837513 -1.1014805 0.85194206 0.41859382 -1.1938775 -0.8486908 0.6012006 -0.4465383
1.1945331 1.0595416 -0.26089463 -1.0257843 -0.8465412 -0.918056 -0.26184353 -0.7678684
0.5654919 2.038346 0.11808769 1.0908216 -0.17924826 0.09772007 0.2903522 0.47620612
0.74415696 4.1714892 -2.1150572 -0.45518586 -0.68360883 3.7939527 0.9957455 -0.07801521
0.7726016 3.6664543 -0.43753487 0.3621255 0.2301577 -1.4927744 0.26628578 2.8739676
-0.02694569 0.1895416 -1.4263769 -0.0030452074 1.282265 2.346031 -1.41069 -0.16300416

actor.0.bias f4 [32]
00000000: ab12 2e3f c744 b83f 42e1 4b3f 7fa2 79bf
00000010: da42 27be 6c0e a9be d432 683f 520d 1640
00000020: 9421 783f 5145 8f3f c42a bb3e 966a 0740
00000030: b0a8 e33c 7ebb cf3e a76b c63e 7bd5 143f
00000040: 0102 3f3f 7012 0b3f 2879 673f 21b1 3e3e
00000050: 3141 26bf 5c48 893f 8987 fb3e 82bf 67be
00000060: 517e 8f3f 95f8 e8be 0bc5 503f ffeb 96bf
00000070: 677e 2d3f fb33 b83f 324a e73f 1806 1c3f
0.67997235 1.4395989 0.7964059 -0.97513574 -0.16334096 -0.33018816 0.9070256 2.344563
0.96926236 1.1193029 0.36556065 2.1158805 0.027790397 0.40572733 0.38754007 0.58138245
0.7461243 0.5432501 0.90419245 0.18622257 -0.64943224 1.0725207 0.49126843 -0.22631648
1.1210424 -0.45502153 0.81550664 -1.179077 0.67771 1.4390863 1.8069518 0.609468

actor.2.weight f4 [12, 32]
00000000: 8981 263d c20b e7be 1b4f 803f c25d 47bf
00000010: 6928 633f 599e a13f ae04 2bbf 16e6 d63f
00000020: 875b 53bd d25f 663f 46c6 96bf a7f5 0d3f
00000030: eed6 2dbf cd45 84bf 3843 12bf 5957 023f
00000040: 132e eabf c6a1 93bf 2da1 6ebf 502a f83d
00000050: f74e 2ebe df1a 5f3f e5f6 ce3f 1659 883f
00000060: aa0f a73e f023 8f3f 1063 8fbf 3ef5 93bf
00000070: 51f2 1840 4932 30bf 9250 ea3e b425 073f
00000080: 2cd8 1240 e954 8040 3338 96bf c6f8 2ac0
00000090: 8a11 d9bf e724 b4be 2a35 babe 9c01 153f
000000a0: cd5f 883f d9d1 313f 5246 3cbf d0cd 5f40
000000b0: aa71 683f e16c b5bf 7c0f d8be 2f9e eb3e
000000c0: 2442 dbbe f699 033f 73ab bfbf ed2d 16c0
000000d0: 4695 403e b2bb 89be 5df0 5d3f 122c e0bf
000000e0: c08b 9bbf 2df5 9cbf eedd 2d3e 331c 9ebf
000000f0: 63fd 3b3f 1910 3540 2c6b 1fbd 3775 a13d
00000100: 51f0 e73e 0804 5bbe 3be2 47bf 1a88 c8be
00000110: 7279 3e3f 6b6d 303e 4520 7ebe d0ab f5be
00000120: d4bc 343f 8af9 52bf a91c 47bf dd7e 9e3d
00000130: 47ef 07c0 1651 013f a757 e13f c8eb bfbd
00000140: f60a 353e 89a5 163d 6efa e8be 9102 363f
00000150: 9871 d93e c9ba 93bf e0a4 3f3f 2dcd f4be
00000160: 36a3 8e3e 714f 4d3f a50e ad3f 0a6e bcbe
00000170: b4f6 793f a4e2 8dbf 04ce cc3d 4447 553f
00000180: 632e 32be 1894 263f 567c 0940 f2be 9bbf
00000190: 54df 85c0 ceeb 84bf 8d50 1dc0 5d92 d33f
000001a0: 1d32 98bf 9817 75bf 72b3 283f bea2 5cbf
000001b0: 264f 203f 1aa0 943e 96ee b23e 2677 573f
000001c0: 8d0d 903f 5d24 f7bf f4ac e03f 4f8f 533f
000001d0: 14de bc3f 36da 85bf 9845 cc3f adc3 adbe
000001e0: e041 5e40 bf2c 40c0 7940 12c0 4e23 62bf
000001f0: 204a 1e3f c2bd e93f 5dae 19c0 1ea1 87bf
00000200: 3c32 ecbe 5e55 8fbf 2fc1 5d3e ede8 b4bf
00000210: 773e 47c0 26c2 41c0 cafe e7bf 2fdd eabf
00000220: e907 28c0 1e37 e0be 19b8 7cbf 22b7 01c0
00000230: 3dd7 433f 3981 dfbf 082b 163f 8281 f03e
00000240: 2593 e13d 8e3c c3bf 6a9d 2d3f 1b29 dbbf
00000250: 5282 d9be 8f06 4bc0 fe85 5740 bd5f de3f
00000260: 89dd 9a3f 4437 813e 2962 12c0 044f ad40
00000270: 0c7f 1fbf c959 a1bf 0006 06c0 4187 a0bf
00000280: 727e bebf fcb7 e53f 9733 d6be 0c0e 073f
00000290: 8b20 993e 721e 0b3f c52b 543e 1d58 1240
000002a0: 00f6 113f 8839 2abf 89ee 9c3f fe42 c43f
000002b0: 754e 84bf e330 aabf 33bc df3f 2dc8 573e
000002c0: 878c 0bbf 3068 853f a812 103e 1ad4 4f3f
000002d0: 3a14 513f 18bf 49bd 8421 18bf 5187 bf3b
000002e0: d446 2f40 0bf3 383f 12c8 c13f 154c 66be
000002f0: ac51 6f3e b1e7 a63e 9cb2 ab3d 3e84 15bf
00000300: 8187 e1be 1197 863f a748 72bf b338 8f3f
00000310: e83d aabe 3f7f c33d daa8 1c3e f874 273f
00000320: c675 bc3f 43e6 173f c353 33be a0ad c43d
00000330: ed1a e5be f3f1 6b3f a7a9 f93d 40fe f83f
00000340: 5542 5fbf 38b8 d0bf 10cd 823f 4b57 26bf
00000350: b071 45be 9f14 9f3d cd30 81be 4a9a 42bf
00000360: d9aa 9b3f bfe9 80bf 5980 2f3e 4dad 823e
00000370: bf62 dbbf d48b 37bf 6532 003e 37df 2fbe
00000380: 1dbc 8140 c722 67c0 ecdd 77bf 917d d6be
00000390: 2f9a 533f 14ac 3c40 25bd 21bf f587 3abf
000003a0: 85d6 2940 2f4f 20c0 5144 aabf 44d0 00bf
000003b0: 8597 db3e b8c0 70be e025 07bf 8ee3 a43f
000003c0: 18b9 10bf edc7 c43f ff87 27bf d786 de3f
000003d0: 3336 ae3c 62b5 4ebf 0f84 763f 1b0e 823f
000003e0: 5e4a 35bd db7b 083f d4bf b6bf 2d4f 8a3f
000003f0: e30a 78bf 040e 813e 57cd ad3f b8ae a5c0
0.040650878 -0.45126158 1.0024141 -0.7787744 0.88733536 1.2626449 -0.66804016 1.6788967
-0.05160096 0.8998996 -1.1779258 0.5545296 -0.6790608 -1.0333802 -0.5713382 0.5091453
-1.8295311 -1.1533744 -0.93214685 0.121174455 -0.1702231 0.8715038 1.6169096 1.0652187
0.32629138 1.1182842 -1.1202106 -1.1559217 2.3897898 -0.6882673 0.45764595 0.52791905
2.294444 4.010365 -1.1735901 -2.671434 -1.6958477 -0.35184404 -0.36368686 0.5820558
1.0654236 0.6946083 -0.735448 3.4969368 0.9079844 -1.4173852 -0.42199314 0.46019122
-0.428239 0.514068 -1.4974197 -2.346553 0.18806943 -0.26901013 0.8669489 -1.7513449
-1.2152023 -1.2262322 0.1697919 -1.2352356 0.7343351 2.8291075 -0.038920566 0.07883685
0.45300534 -0.21388257 -0.78079575 -0.39166337 0.7440406 0.1722924 -0.24816997 -0.47982645
0.7060063 -0.82412016 -0.77778107 0.07739041 -2.1239793 0.5051435 1.7604874 -0.093711436
0.17679963 0.03677896 -0.45503563 0.71097666 0.42469478 -1.1541377 0.74860954 -0.47812787
0.27858895 0.8019934 1.3520094 -0.36802703 0.97642064 -1.108479 0.10000232 0.8331187
-0.17400508 0.65069723 2.1482139 -1.2167647 -4.1835117 -1.0384462 -2.4580414 1.6529042
-1.1890293 -0.95739126 0.6589881 -0.86185825 0.6262077 0.29028398 0.34947652 0.8416618
1.1254135 -1.9307972 1.7552781 0.82640547 1.4755273 -1.0457218 1.5958738 -0.3393835
3.4727707 -3.002731 -2.285185 -0.8833512 0.61831856 1.8261034 -2.4012673 -1.0596044
-0.46132076 -1.1197927 0.21655725 -1.4133583 -3.1131876 -3.0274749 -1.812463 -1.834875
-2.6254828 -0.4379205 -0.9871841 -2.0268025 0.765003 -1.7461311 0.5865941 0.46973807
0.11014394 -1.5252855 0.6781832 -1.7121919 -0.4248224 -3.1722753 3.3675532 1.7372967
1.2098857 0.25237477 -2.2872412 5.4158955 -0.62303233 -1.2605525 -2.0941162 -1.2541276
-1.4882338 1.7946773 -0.41836235 0.5275581 0.2990764 0.5434333 0.20719822 2.286628
0.5701599 -0.66494036 1.2260295 1.5332944 -1.0336443 -1.3296169 1.7479309 0.21072455
-0.545113 1.042242 0.14069617 0.81183016 0.8167149 -0.049254507 -0.5942614 0.0058449884
2.738698 0.72245854 1.5139182 -0.2248996 0.23370999 0.32598642 0.083836764 -0.5840491
-0.44048694 1.0514852 -0.9464211 1.1189178 -0.33250356 0.09545755 0.15298787 0.65412855
1.4723442 0.59335726 -0.17512421 0.09603429 -0.44747105 0.9216606 0.12190562 1.9452591
-0.8721059 -1.6306219 1.021883 -0.6497695 -0.1928165 0.07767605 -0.25232545 -0.76016676
1.2161514 -1.0071334 0.17138804 0.25522843 -1.713951 -0.71697736 0.12519224 -0.17174993
4.054213 -3.6114976 -0.96823 -0.41892675 0.8265714 2.9480028 -0.63179237 -0.72863704
2.6537182 -2.504833 -1.3302099 -0.5031779 0.42889038 -0.23511016 -0.5279217 1.2881944
-0.5653243 1.5373513 -0.6544189 1.73849 0.021266079 -0.8074552 0.96295255 1.0160555
-0.044260375 0.5331399 -1.4277291 1.0805413 -0.9689161 0.25206006 1.357829 -5.177578

actor.2.bias f4 [12]
00000000: 0e18 49be f6a3 663f 1a6f 75be fd72 733f
00000010: 640d c5bf 69f5 983f 081f 0abd 0eaa a4be
00000020: 5bfe 703e a86d 9e3f ad91 0ec0 62b2 b13e
-0.19638082 0.90093935 -0.23968163 0.95097333 -1.5394711 1.1949893 -0.033721 -0.3216099
0.23534529 1.2377214 -2.2276413 0.34706408

critic.0.weight f4 [32, 64]
00000000: dd1a fb3c a450 473c 58ca 243e 35fb 13bd
00000010: e094 88bd 81ee 04be e453 87be 2d4c b1bd
00000020: 6b99 ac3d 5070 123d 9da9 ca3b b265 813c
00000030: c54d 20bd 9551 ed3d 1ad7 8d3e 2efc a7bd
00000040: 1a93 dcbe 36d0 3b3c 60ee 5bbf ca92 c4be
00000050: 9a16 1dbd 845b ee3d 0bbd 6ebd 7da6 babc
00000060: 56cc acbc f05c dbbd f997 3fbd 5b15 253d
00000070: 6d17 dcbc 0119 403d 1771 223e dd82 063e
00000080: c327 2abd 70b5 5bbc cb6d 3a3d aff3 723e
00000090: 8e7a 423e 0b78 d83d ea8d cfbc 19a5 6bbe
000000a0: 632b 2d3d 6d33 493d 871c 673d 7657 863e
000000b0: ae54 8b3d 81e4 943d 8fc5 f23c 92f4 82bd
000000c0: 6a1a ae3e 90e1 d2bd 4107 db3b dae7 e83c
000000d0: d8b8 76bd c588 ae3c e546 2c3d 3bb9 eb3d
000000e0: ad86 8cbc e112 5c3d 93de a2bc 51a4 9cbc
000000f0: fcc6 4ebe 1d8d 303d e66c 8a3d 8dd3 58bb
00000100: db90 4abd 7e43 7bbe e79e 953f 8ccf 24bf
00000110: 6309 663f a202 91bf dc36 f2be d329 cc3e
00000120: 3072 a1be 5c78 b23e 0d41 283f 5586 2fbe
00000130: 5b91 91be 7cc9 51bb 379f ef3e fe39 41bf
00000140: 3063 01c0 010b c03e 1e5e a43e cbac 3a3f
00000150: eb17 44bc 28aa 613f 23c2 41be 889f e73e
00000160: 7d9c 6c3f a3b8 8fbf d633 203e ef61 133e
00000170: 61e1 533f f0e3 673d d3a8 b93f 1f71 bf3d
00000180: 0114 2d3e e53d d53c 859e 11be f7ac 3cbe
00000190: 61a9 52be e79c dbbe b56c 3cbe b256 e1bf
000001a0: b5cf 5e3e 49b3 aa3d a3a7 c53e 2db3 873e
000001b0: 5e68 a7be 527d 443f c248 febd c80a 0b40
000001c0: 8d4b 19bf 979c 13be e5eb c13d 5534 2c3f
000001d0: db02 493d 56ee 343f 4eb4 9c3d 4bb6 023e
000001e0: 3324 753f 360e f4be 0443 bdbf a22c 8cbd
000001f0: 8d26 3ebc 0ed6 373f 79fc 28be c0f1 4abf
00000200: 666c 4ebe 46ff 3b3e 2101 043f daf5 78bf
00000210: 2d03 f03e d1f0 b2bf 6e03 82be 5694 fb3d
00000220: 3480 153c fb59 b3bd b33a 593e 3a12 803e
00000230: 4515 08bd 2fa4 34be b594 883e 57da a8be
00000240: 9cf9 17c0 195e 043f 7a20 15be 1eed d63c
00000250: aa98 54be 2549 d03d 08f5 c03f 6895 fe3e
00000260: 3c80 313f 9025 84bc 1ed1 6ebd 62eb 533e
00000270: 73aa 05be ede3 43be efb1 41bf eb46 373d
00000280: 9ff3 b93e eec4 823e b1e7 dabd 2f44 a03e
00000290: 5a98 fe3e 0d38 f0be f7ce 6dbe fc30 14bf
000002a0: 5a2f 98bd b53c c9bc 3611 81be 5edb 133f
000002b0: c377 88bd d654 e23d 2491 eabd 4033 8ebd
000002c0: 982e d83e 9e26 c2bd 4654 8dbe cb61 8fbd
000002d0: 9bfe 943d f502 00bf d066 d23b 8961 033e
000002e0: a199 823e a227 d5be c17c 2abd 139f 64be
000002f0: 4495 f83e 22df 01be fca2 6fbd 30e1 1c3e
00000300: 027b 783d a475 4cbc 0446 edbe feff 463d
00000310: f259 30bd 64b5 233e 3a7e 30bd e8b4 153d
00000320: 5c5b a8bd 90dc 1f3d 9b91 1d3e 9245 a73d
00000330: 0c41 f8bc b941 58bb 3320 7fbd edd2 c43d
00000340: d651 37be 1755 adbc 1ee3 193e 9870 283e
00000350: 50f5 e53b 5a99 eebc 1f32 69be a976 81bd
00000360: e779 a9bd 28e7 073d 9e18 5f3d a168 023d
00000370: 9a92 60bd 0c95 a5bd 5cb2 6e3d fe2d 7bbd
00000380: 11cd 8ebd 953f eebb 11d5 07be 993a 19bf
00000390: 34e8 dc3c 06bd a13c 060a 383e 7225 063e
000003a0: 23fc 99bd cb48 113d 795a 06be 2461 89be
000003b0: 4741 5abd 6dec 86bc 20a4 ba3d 792b 343d
000003c0: 9727 f1bd a877 413e e254 313b 874d f0bd
000003d0: ff92 1fbe 82f1 ddbc aba8 9e3e 7c73 93bd
000003e0: 0dbb 8cbd 49ec 1dbe 0d5f bd3b 75c1 1cbd
000003f0: 757b 2a3d 4996 943c a7ef 7f3d 1b83 8abb
0.030652458 0.012165222 0.16092813 -0.03612824 -0.06669021 -0.12981607 -0.2643119 -0.086571075
0.084277 0.03575164 0.0061847703 0.015795562 -0.039136667 0.11587826 0.27703172 -0.08202396
-0.4308098 0.011463216 -0.85910606 -0.3839324 -0.038351633 0.11638549 -0.058285754 -0.022784466
-0.021093529 -0.10711086 -0.04677579 0.04030357 -0.026866639 0.046898846 0.15863453 0.13135858
-0.041541826 -0.013409957 0.045514863 0.2372577 0.18992063 0.105697714 -0.025336225 -0.23012199
0.042277705 0.04912131 0.05642369 0.26238602 0.06803261 0.07270146 0.029635219 -0.06394304
0.34004527 -0.10296929 0.0066842143 0.028430868 -0.060234874 0.021305451 0.042059798 0.11509939
-0.017154062 0.05372894 -0.019881522 -0.01912132 -0.20193094 0.043103326 0.06759052 -0.0033085078
-0.04945455 -0.24537465 1.1689118 -0.6437919 0.89858073 -1.1328928 -0.4730748 0.3987566
-0.3153243 0.34857452 0.6572426 -0.17141087 -0.2843121 -0.0032010963 0.4680116 -0.75479114
-2.021679 0.37508395 0.32103056 0.7291991 -0.011968593 0.8815026 -0.18921714 0.452389
0.9242628 -1.1228222 0.15644774 0.14392827 0.82765776 0.056613863 1.4504646 0.09347748
0.16902162 0.02603049 -0.14220627 -0.18425356 -0.20572425 -0.42893144 -0.18400843 -1.7604582
0.21758921 0.08334977 0.3860446 0.26503888 -0.32696813 0.76753724 -0.12416221 2.172533
-0.59880906 -0.14415203 0.094688214 0.6726735 0.04907499 0.7067617 0.07651578 0.12764852
0.9575836 -0.47667092 -1.4786077 -0.068444505 -0.011605871 0.71810997 -0.1650256 -0.7927513
-0.20158538 0.18359098 0.5156422 -0.9725014 0.46877423 -1.3979741 -0.25393242 0.12284152
0.009124804 -0.08757397 0.21213798 0.25013906 -0.03322341 -0.17640756 0.26675954 -0.3297908
-2.37461 0.5170608 -0.1456317 0.026236113 -0.20761362 0.10170201 1.5074778 0.49723363
0.69336295 -0.016131192 -0.0583049 0.2069526 -0.13053302 -0.19129916 -0.7566213 0.044745367
0.3631868 0.2554087 -0.10688723 0.3130202 0.4972561 -0.46917763 -0.23223482 -0.57887244
-0.074309066 -0.02456508 -0.25208443 0.577566 -0.06663468 0.110513374 -0.114534646 -0.06943369
0.42223048 -0.09480022 -0.27603358 -0.070010744 0.07275125 -0.5000451 0.0064209476 0.12830175
0.25507835 -0.416318 -0.04162288 -0.22326307 0.4855138 -0.12682775 -0.058505043 0.15320277
0.060664184 -0.01247922 -0.4634248 0.048583977 -0.04305453 0.15987164 -0.04308913 0.03654948
-0.082205504 0.039028704 0.15387575 0.08167566 -0.030304454 -0.0032998158 -0.062286567 0.096105434
-0.17902312 -0.021158738 0.15028045 0.16449201 0.007017769 -0.029125858 -0.22773026 -0.06321461
-0.08275204 0.033179432 0.054466836 0.031838063 -0.05482731 -0.08085069 0.058275566 -0.06132316
-0.06972707 -0.007270763 -0.13264872 -0.5985504 0.026966192 0.019743454 0.17972574 0.13100222
-0.075187944 0.03546981 -0.1312045 -0.26831925 -0.05328491 -0.016470158 0.091133356 0.04398677
-0.11775129 0.18893301 0.002705865 -0.11733537 -0.15583418 -0.027092699 0.30988058 -0.07199761
-0.068716146 -0.15422167 0.005779153 -0.038270433 0.041621644 0.018138068 0.06248441 -0.004227055

critic.0.bias f4 [32]
00000000: 610e 08be 6569 31bf 5d0f 13bf 8da0 ae3d
00000010: 0978 13be 024a 36bf 0f3e f5bd b03d 04be
00000020: f16e c73b 3d68 7cbf f8da 91be 221b d6be
00000030: d5cb 293f 9cca c63d db40 1ebd cc61 63bf
00000040: 1548 ea3e 1c6d 9fbe d525 9fbd 0dae 453f
00000050: 056d 473e 2b2e 15bf bfea a13e 9cc3 093f
00000060: 40e1 123f 1c12 8ebc 3bcc a33d 81cf 3bbf
00000070: 5349 0fbe d73a 323f 1062 a43d 010c 90bd
-0.13286735 -0.69301444 -0.5744532 0.085267164 -0.14401259 -0.71206677 -0.11974727 -0.12914157
0.0060862233 -0.98596555 -0.28487372 -0.41817576 0.6632665 0.097066134 -0.03863607 -0.888211
0.4575812 -0.3113793 -0.07770888 0.77218705 0.19475181 -0.5827357 0.3162441 0.538141
0.57374954 -0.01734262 0.07997938 -0.733635 -0.13992815 0.6962103 0.080265164 -0.070335396

critic.2.weight f4 [1, 32]
00000000: eca2 253c f50b d2be ff92 4ebe 1812 55ba
00000010: f337 5dbe a0b1 20be a23b fe3b b5db f6bd
00000020: 0f57 9b3e 208d cfbe 64f7 26be fd6b 70be
00000030: d12c c13e 80cd 21bd 5e18 743e 8b23 6abe
00000040: 4fb1 e9bd cae2 dabd 7a15 e8bd 929d fd3d
00000050: 933f b03d 0b15 2cbe 5771 1abc cca3 b83d
00000060: c684 de3e 8ca2 d23d fea2 023e 3ff4 61bd
00000070: b50e 333c d815 8e3d 3b4c 43be 1312 163c
0.010109644 -0.41024747 -0.20173262 -0.00081280014 -0.21603374 -0.15692759 0.0077585736 -0.120536245
0.30339858 -0.40537357 -0.1630531 -0.23478694 0.37729505 -0.03950262 0.2383742 -0.22865121
-0.11410772 -0.10687788 -0.11332221 0.1238357 0.08605876 -0.16804902 -0.009426436 0.09015617
0.43460673 0.102849096 0.12757489 -0.05516457 0.010928799 0.0693776 -0.19072048 0.009159583

memory_a.rnn.weight_ih_l0 f4 [256, 47]
00000000: 99b2 b2bf a382 d03e b9ce ccbf 7ec8 f5be
00000010: 1d5e 41bf 9c3d 6cbe d257 98bd 1ea9 133f
00000020: c731 773f c33a 20bf 47f1 ac3f e757 03bf
00000030: 9ec6 23be 741f b13e 0d1e 87bf 5894 183f
00000040: ff58 85be 6550 b63f 33e7 a13f cc11 85be
00000050: 08b2 c53c 611e bf3f dc97 e5be 2c0f c13e
00000060: 4cfa ae3f 42fc 1ebe 20a0 b2be 1ca2 e0bf
00000070: 0b55 7f3f f4e6 823e 5eca 0dbe 47df 133f
00000080: d76d 1a3f 0314 903e 13ff d6bd f4e4 9dbd
00000090: 06f6 b1bd 0279 45be 1ec9 bfbe 75a3 86bf
000000a0: 5321 39be 179f 38bf b7c4 603e bc4e 5bbd
000000b0: e6e1 3b3d 571e fabe 62c3 3d3e 9264 8e3f
000000c0: ec92 3fc0 e899 35be 2d76 4ec0 e125 cbbf
000000d0: 1dd3 943d e119 91bc 5802 30bd 4815 5bbe
000000e0: c004 8140 d598 e4bf c12b 7a3f e412 febe
000000f0: f844 913f 3524 863e e446 a5bf e765 f0bf
00000100: 3cbc 773e 1614 cd3d c788 23be 5d7a 07be
00000110: 9861 dd3f 4aa2 5cbf c462 7f3e 8fd1 ae3e
00000120: c6f7 1fbd 0a26 9abd efbb 03c0 5aa3 4cbe
00000130: 8f1c cc3e 65b3 a03d 7966 b5be fc7e 2bbf
00000140: f59b e4bb 300c a83b 3666 fabc 700d 35ba
00000150: 2acd 0c3c 1760 a63b 5c7c a7bc 3627 543b
00000160: 1f18 ccba 21af c13b 993a 7ebc 4e08 1c3c
00000170: ae30 bd3d 4ab7 d6bd 5d31 e63e c548 9a3f
00000180: 7248 123f 9a15 e3be 09cb 3dbc 3d67 b3be
00000190: 0d46 c4be 396b bfbb 493b dcbe 3320 64c0
000001a0: 036d 45c0 090e 013f 2bee e63f 91f7 4fbf
000001b0: 43f3 013f ab2d 993e cbc8 123d ec79 5e3e
000001c0: 2cb6 6b3f 350c 53bd d117 bcbe 2321 34c0
000001d0: 1650 47c0 a7e3 013f c7c9 9fbf 6787 3bbf
000001e0: 2ca0 22bf ee35 de3e cb90 3740 fd4c ad3e
000001f0: 5495 903f 5fca 7dbd deb5 863e 4de8 9abe
00000200: 476d 03bf 47db a9be 801e a23d b0bd 2dbe
00000210: fc89 833d 7886 223e b597 c6bd e575 10be
00000220: 6878 87bc 7b65 b7bd 5e5d 533d 5959 3bbe
00000230: fca2 a83e 2acb 2fbf 7e24 d3be 055a 3940
00000240: a4f4 dc3f 60b2 1f40 8472 d13e 23ae 363d
00000250: 8b6a 433e 28de 3cc0 e631 f53f 2716 adbf
00000260: 15dc 393f 57e3 223f a157 6cbe 26cf 883f
00000270: 81b3 1740 4845 113e a740 b43f 758a 0f3f
00000280: 381a a3bf 9656 903e e5ce 0240 1afa 46c0
00000290: 92a4 bf3f 2c52 b43f e7a0 1bbf 6db3 873f
000002a0: 5752 89bf 6b14 273f 1192 2cbe 5757 ab3f
000002b0: 12c0 f4bc f18c e73d bf44 853e 9df8 253e
000002c0: 1694 97be 48fd f03c c981 09bd f564 243e
000002d0: 49e7 e23e a5dc a73c 2e87 9ebe f859 103e
000002e0: da48 afbd 2b5c 8dbb 2ee7 743f 19d6 1a3f
000002f0: 56e6 1dbf 5783 38bf c748 e73f acfa 493f
00000300: c3ae c43f 97e1 76bd 6345 053f 0ef8 d5be
00000310: 3c7e 60bf 63e4 7fc0 b372 e43e da93 003e
00000320: 3a94 01bf 1905 4e3d 5c7c 293f 6cd9 1e40
00000330: 982d dfbe e62e 833f eaee 823e a9a3 d93e
00000340: a9f8 4dbe 62ca 52bf 3cf1 6abf 49c1 713f
00000350: 4afe 963f 63d9 f13d 317f ce3f a1b1 e73e
00000360: 40d4 6b40 9859 fdbe 66e5 56bf 80c2 b6be
00000370: b791 bd3e 54df a43e ec9f c1be 4c08 073f
00000380: 7fbd b2bd 5189 3b3d bc44 593e fe6d 9abe
00000390: cd4e 003d 83ec 103f b194 38bd 4c40 8f3d
000003a0: a593 0abd b550 cebe c675 0a3f 4713 b63e
000003b0: acac 1a40 164c d23e 0a4d 4540 6315 cbbf
000003c0: d60f d33e a2ab 00be 1cae 2ebc b4c1 023f
000003d0: f5b7 03bc e294 b23f 2e85 a1bf 6112 9a3f
000003e0: 7a9c 1cbf 16b3 07be 3436 15bf f1dd 1ac0
000003f0: 4642 573e 6b2a dd3e 5751 0e3f a1ae a13e
-1.3960754 0.40724668 -1.6000587 -0.48004526 -0.7553423 -0.23070377 -0.074386254 0.5767993
0.9656033 -0.62589663 1.3511132 -0.51306003 -0.15993735 0.3459431 -1.0556046 0.59601355
-0.2604446 1.4243284 1.2648681 -0.2599014 0.024132743 1.4931146 -0.44842422 0.37706888
1.3670135 -0.15525916 -0.3488779 -1.7549472 0.9973914 0.25566828 -0.13846728 0.5776257
0.6032385 0.28140268 -0.1049787 -0.07709685 -0.08689503 -0.19284442 -0.37458128 -1.0518633
-0.18079118 -0.7211775 0.21950041 -0.053541884 0.04586973 -0.48851272 0.18531564 1.1124442
-2.9933424 -0.17734492 -3.2259629 -1.5870935 0.07266829 -0.017712535 -0.042970985 -0.21394837
4.03183 -1.7859141 0.97723013 -0.49623787 1.1349173 0.261995 -1.2912259 -1.8781098
0.241929 0.10013597 -0.15970145 -0.13230272 1.7295408 -0.86185133 0.2494002 0.34144256
-0.039054655 -0.075267866 -2.0583456 -0.19984189 0.39865538 0.07846717 -0.35429743 -0.6699064
-0.0069765993 0.005128406 -0.030566316 -0.00069066044 0.008593837 0.005077373 -0.020445041 0.0032372004
-0.0015571153 0.0059107696 -0.0155169 0.009523464 0.092378005 -0.10484178 0.44959536 1.2053457
0.5714179 -0.44352418 -0.011584052 -0.35039702 -0.38334695 -0.0058416394 -0.4301398 -3.5644653
-3.0847785 0.5041204 1.8041433 -0.8123713 0.5076181 0.29917654 0.035836022 0.21726197
0.9207485 -0.051525313 -0.3673692 -2.8145225 -3.114263 0.50737995 -1.2483453 -0.7325348
-0.6352565 0.4340052 2.8682125 0.338478 1.1295571 -0.061960574 0.2631063 -0.30255356
-0.5133862 -0.33175108 0.07915974 -0.16966891 0.06422803 0.15871608 -0.096969046 -0.14107473
-0.016536906 -0.08954903 0.051602714 -0.18295802 0.32936847 -0.6866938 -0.4123878 2.8961194
1.7262158 2.4952621 0.4090768 0.044599663 0.19083612 -2.9510593 1.9155853 -1.3522385
0.72601444 0.63628143 -0.23080303 1.0688217 2.370331 0.14186585 1.408223 0.56070644
-1.2742376 0.2819106 2.0438778 -3.109015 1.4972098 1.4087577 -0.6079239 1.0601631
-1.0728253 0.6526553 -0.16852595 1.3386029 -0.029876743 0.11306179 0.26029012 0.1620812
-0.29605168 0.029417649 -0.03357104 0.16054137 0.44317082 0.020490954 -0.3096251 0.1409682
-0.08558817 -0.004313966 0.9566525 0.6048294 -0.6167959 -0.7207541 1.8069085 0.7889812
1.5365833 -0.060273733 0.52059 -0.41790813 -0.8769262 -3.9983146 0.4461876 0.12556401
-0.506168 0.05029783 0.6620538 2.4820204 -0.43589473 1.0248687 0.25572902 0.42507675
-0.20114388 -0.8234006 -0.91774344 0.94435555 1.1796353 0.11809041 1.6132566 0.45252708
3.6848297 -0.49482417 -0.83943784 -0.35695267 0.37025234 0.32201636 -0.37817323 0.52747035
-0.0872755 0.045785252 0.21217626 -0.30162042 0.03132515 0.5661089 -0.04506368 0.069946855
-0.03383221 -0.4029595 0.5408596 0.35561582 2.416789 0.41073674 3.082827 -1.5865902
0.4122302 -0.12565473 -0.010661628 0.5107682 -0.008039464 1.3951685 -1.2618768 1.2036859
-0.61176264 -0.1325191 -0.5828583 -2.4197962 0.21021375 0.43196425 0.55592865 0.31578544

memory_a.rnn.weight_hh_l0 f4 [256, 64]
00000000: 9447 f73f b9aa 2cbf 2d55 363f ee80 79bf
00000010: ec5f bcbd 702c 90be bd11 083d ad7f 85be
00000020: 43a9 a1bf 463c f7bf 3d76 4e3f 31df c53e
00000030: 49a8 ffbc 0eb7 f3bd 812e 4c3f 63c3 65bf
00000040: 7c4b 1c3f 80ef 80bf 320b 0dbf f7b0 8b3f
00000050: cff7 a8bf ea1a 50bf c327 6a3f b070 983d
00000060: 56e1 393e 7af8 463f 6216 a23f 2899 4dbf
00000070: 7da1 b53f 5794 903e 8744 ae3e 2ef9 323d
00000080: ff12 4b3f 8ca8 9b3f 9ce3 c13f b798 9a3f
00000090: 24ed 8ebf 450a 313e 86e5 a4bf 3aa5 d4be
000000a0: c8b1 ef3f 17a4 d83d 61ae 0b3e 8bc6 ddbe
000000b0: 3ebf 123f 7288 8b3a b102 033f 757a 323f
000000c0: 6372 4bbf 78e4 2ebf f98d 86be 3636 dd3e
000000d0: 62f3 373e 5b74 24bf 84e8 3b3f b035 edbf
000000e0: a799 0e3f bb61 8b3e ac1e 043e fac4 61bf
000000f0: 705b 0d3c 0f3e a03f e44d 293f b55a 763f
00000100: 869c 833e d6dc bd3e 46e5 3cbe 2b5d f13d
00000110: 69c2 243f fbea cbbe e768 69be fb7d a8be
00000120: 8594 8f3e b931 7b3e ee43 dc3e bd89 afbe
00000130: 468d d9be d2d1 433f 6cfd 473d 7a79 653e
00000140: 0286 03bf 608b 563d 7036 6a3f 3444 9d3e
00000150: eb35 873e eaaa bc3e 5553 073f 6325 573e
00000160: c3e7 acbc 4aae 51be 5ffa 9ebe 7a45 3fbe
00000170: 075f 9c3e 77ef 88bc b99b 3cbe 44ec 0abc
00000180: 6894 8bbd 606a 813d bbd1 513d ee80 3a3e
00000190: 86f3 b43d 2f66 a13f 5840 04be aded e23c
000001a0: 01ce ee3e 03df f8be 8bf0 78bf eb12 133e
000001b0: be12 493e 9e0a 0b3f fb0b 803f 5cc1 0f3f
000001c0: 7b39 993e 8f4f e4bd b66d 973e 1378 61bd
000001d0: 1a27 2a3e 987e 99be 1340 b23e 9fca d0be
000001e0: 7ad9 01bf ea07 f63e 4520 8b3e e755 66bf
000001f0: b272 453e 2147 dfbd 6b37 2abf 485c e03c
00000200: 8578 c13e 945e 273e c62c 833c 1a18 d5bd
00000210: 0ca8 ad3f b864 823d 4b91 833c fabd 653f
00000220: 8fff d4bf 5fed 3ebe 6cc7 e63e 1adb 033f
00000230: 02c1 f03f 60d9 213f 9621 92bf 30c7 2dbe
00000240: 31ba 34bd bb44 9cbd 9d3a 983e db71 e13d
00000250: 3f01 743e c1da 97bf 1127 b23f 5558 77be
00000260: 8771 0abf 85ef 653f 1c31 0d3e c251 f83e
00000270: beb5 313f e969 7dbf 22c9 543f b546 f6be
00000280: 843b ae3f c1bb 4cbf 798a d4be e4dd 233f
00000290: 4a25 83bd 0f0c 32bd 7a74 21bc 6c1e 7bbf
000002a0: 4f84 ed3e bb9e d0bd 8dbb 693e 4bdd 8f3e
000002b0: 0098 d8be 37b9 9b3f 5fa3 f6be 96e3 4a3f
000002c0: 6a27 25bf 0cf5 acbc 2465 ecbe e586 c13e
000002d0: 8091 1d3f d1c5 80bf 231a 173f afd9 e33e
000002e0: 1374 50bf a3af f63e dbcf 0a3e e2ca 0abf
000002f0: 8a5f 293f 2a57 5e3e 76f8 19bd 8921 86bf
00000300: f210 1abf 47a7 4abf 961e 6abe 41e2 0d3f
00000310: 78f6 f03f 5295 283f a07b 9ebe 5054 133f
00000320: c5eb ac3e ec66 f2be d858 353e 12d4 2d3e
00000330: e6ed 9cbd 9269 b73d 7bc1 e53e 9dc1 603f
00000340: 8039 ed3e 780d b7bf 1fdb 12bf 9e0b 8d3e
00000350: 4ab1 373f 359a 3f3e 2dba fdbe 1a40 87bf
00000360: 04eb 833f aafc e5be c0ee 2ebf 13ac 1fbe
00000370: 14e9 86bf 631a 05c0 7bf8 f3bf f22c 47be
00000380: d5e5 153f 099d b33e 5a69 a0be 32eb c43e
00000390: 56b8 37bf 8082 cf3e 4444 473e 0d4f 39bf
000003a0: d66d a53e b09b 873f ce0b 03bf 0e84 80bf
000003b0: 968e 813f d4b4 2f3f 342e 8abe f045 f1be
000003c0: ca70 1d3e 0ba9 0040 ba96 903d 1131 77bf
000003d0: 6d2c 143f e440 85bf 5dd5 ed3d dec4 9b3f
000003e0: f076 19bf 83eb 5e3f 4b7b c73e d6c0 b7be
000003f0: 0de2 913f b4c5 5f3f 58ff 2c3e 8aa0 90be
1.9318719 -0.67448 0.7122372 -0.97462356 -0.09197983 -0.28158903 0.03322004 -0.2607397
-1.262978 -1.9315269 0.8064917 0.38646844 -0.031208174 -0.11900149 0.7975846 -0.8975126
0.6105268 -1.007309 -0.5509521 1.091338 -1.3200625 -0.8129107 0.9146692 0.074433684
0.18152365 0.77722895 1.2663081 -0.8031182 1.4189907 0.28238174 0.34036657 0.043694668
0.7932586 1.2160811 1.5147586 1.2077855 -1.116612 0.17289074 -1.2882545 -0.41532308
1.872613 0.10578173 0.13640739 -0.4331554 0.5732306 0.0010645522 0.5117598 0.69718105
-0.79471415 -0.68317366 -0.26280192 0.43205422 0.17963937 -0.64240044 0.73401666 -1.8532009
0.55703205 0.27223 0.12902325 -0.8819119 0.008627757 1.2518939 0.66134477 0.9623216
0.25705355 0.37082547 -0.18446836 0.117853485 0.64359146 -0.39827713 -0.22793923 -0.32908615
0.28043 0.24530686 0.43020576 -0.34284773 -0.42490596 0.76492035 0.048825666 0.22409621
-0.51376355 0.052379012 0.91489315 0.30716097 0.26408324 0.36849147 0.5286153 0.21010356
-0.021106606 -0.20476642 -0.31050393 -0.18678847 0.3054125 -0.016715748 -0.18418778 -0.008479182
-0.068154156 0.063191175 0.051225405 0.18213245 0.08835511 1.2609309 -0.1291517 0.027701223
0.46641544 -0.48607644 -0.9724204 0.14362685 0.19636056 0.54313076 1.0003656 0.5615442
0.29926667 -0.11147987 0.2957589 -0.055046152 0.16616479 -0.29979396 0.3481451 -0.40779588
-0.5072247 0.48052913 0.27173057 -0.89974827 0.19282034 -0.10902239 -0.6649081 0.027387753
0.37787262 0.16344672 0.01601256 -0.10404988 1.3566909 0.06366867 0.016060492 0.89743006
-1.664049 -0.18645237 0.45074022 0.515062 1.8808901 0.6322231 -1.14165 -0.16970515
-0.04412288 -0.07630297 0.29732218 0.11008044 0.238286 -1.1863633 1.3918172 -0.2415479
-0.5407948 0.898186 0.13788265 0.48499876 0.6941794 -0.9898973 0.83119404 -0.4810082
1.3611913 -0.7997399 -0.41511896 0.64010453 -0.06403597 -0.04346853 -0.00985443 -0.98093295
0.46390006 -0.101865254 0.22825451 0.2809852 -0.42303467 1.2165898 -0.48171517 0.7925352
-0.64513266 -0.021112941 -0.46170914 0.3779823 0.6155014 -1.0060369 0.59024256 0.44502017
-0.81427115 0.48180875 0.13555853 -0.54215825 0.66161406 0.21712938 -0.037590466 -1.0478984
-0.60182106 -0.79161495 -0.2286323 0.5542336 1.8825216 0.65852845 -0.30953693 0.57550526
0.33773628 -0.47344148 0.17709672 0.1697543 -0.07662563 0.08955683 0.44874176 0.8779543
0.46332932 -1.4300985 -0.573656 0.27547926 0.71754897 0.18711169 -0.49556103 -1.0566437
1.0306096 -0.4491933 -0.68333054 -0.15592985 -1.053988 -2.0797355 -1.9060205 -0.19450739
0.5855382 0.35080746 -0.31330377 0.3846069 -0.7176565 0.4052925 0.19459635 -0.72386247
0.3231036 1.0594387 -0.5118989 -1.00403 1.0121639 0.68635297 -0.26988375 -0.4712367
0.15375057 2.0103176 0.07059999 -0.96559244 0.5788029 -1.0410428 0.116129614 1.2169454
-0.5994711 0.8707811 0.38961253 -0.3588931 1.139711 0.87411046 0.16894281 -0.28247482

memory_a.rnn.bias_ih_l0 f4 [256]
00000000: c9fa 853e 2cda b5ba b4a7 6c3e 1d72 85be
00000010: ae5f e03d a643 51bf 4401 02bf 5251 8e3e
00000020: c365 1dbe fec3 eebe f594 80bd c194 24bf
00000030: 736c 733f 0172 d53e cce1 0abf c68e 4ebf
00000040: 0e35 423f 639c 723e 5594 3abf 6ead babd
00000050: 97ca a13e 80ec 2fbe a963 6bbc 53a6 61be
00000060: b1bc 32bf 858e d2be e6c3 c63f fd71 9ebe
00000070: 4d56 9a3e 8cb4 eb3e 50c0 11be c900 ac3f
00000080: 6fd1 b3be 8c5e e2be 9e1b dabe e854 663e
00000090: 3121 d93d cd74 d63d 2194 9d3e 4366 953e
000000a0: 5350 1abf 6b09 8a3f afb1 aebe 7b55 52be
000000b0: 1c0c bc3e 9437 08bf 3ad2 7c3f cd6e 853e
000000c0: d212 b23e cc45 96be 141c 93bf 5ce7 a93e
000000d0: e7f5 873e 8a76 b3be 8d08 883e 10d8 7dbd
000000e0: d817 0a3f 0a03 36be 07a3 45be c409 0fbd
000000f0: 2397 ca3e 8795 0abf bdc1 eebe 7ff6 0f3e
00000100: c5ee ee3d 323e 70bf fbf9 03be fcf5 8abf
00000110: 4afc 70bf 6d00 a2be f40e 303f 859d c53d
00000120: b477 b23d 4fe9 e6be 56d9 9ebf 8b89 0fbf
00000130: 5611 67bf 0a7e 4bbf 29ae 3b3c e2cb 3bbf
00000140: 9a47 73be 9061 e6be 8047 b73c cb6d 2c3e
00000150: fd81 fcbe ed60 90bd db04 883d 380c 943e
00000160: e011 083f e727 67be 61ef 9cbf f996 e43e
00000170: d83a a43e 9adf 80bf 69e3 5ebe 0dfd d8be
00000180: 222c 3bbf be65 d2be ebbb 12be b008 343f
00000190: 3fa3 7abf ff5a b0bf d52d 45bf 31b3 7ebf
000001a0: 14dc 00bf a8e4 293f d420 a7bf 0f62 cabf
000001b0: 65bd a7bf e335 76bf c5e0 eb3e 2e59 02bf
000001c0: b27e 43bf 74f6 be3e 78ed 193f dc4d d03e
000001d0: 6da1 103e 653e aa3e 0aec 9ebe 2213 9cbe
000001e0: cc1c 39bf 398e 043e b890 93bf 54e0 2cbe
000001f0: 473e fabe 881e afbf d453 c2be ea8a 71bf
00000200: 236a 70be 57b1 673f 759b d93f 1c67 5c3f
00000210: 4f93 1d3f d842 183f e417 7cbf 7984 57be
00000220: ed46 9b3f 85ac 243e 58da a43f 468e 433e
00000230: 79b8 64bd 1721 c0bd 74c7 90bd 9037 053f
00000240: df9c f43e 8d35 f3be 8464 a83f f507 0240
00000250: 4a21 423e 5c62 893e 0182 aebc 7954 373e
00000260: 7a86 3bbf dfac 3cbf 4f73 a2bd cb96 bdbe
00000270: 55e9 aebf 7bf8 0b3e 1b22 1bbe 8851 7bbf
00000280: 59de 0fbf 029f 913e 66b5 873e 20a6 8b3e
00000290: 58e5 bebd 0c5f c73d 42a6 0abf 91a3 303e
000002a0: 604c 7abf 7f3e e8bf 1ace 08bf c701 dabd
000002b0: 62c7 1c3e d3e9 4b3e e10c e6bf 7152 873e
000002c0: 2438 663e c0e8 74bc a573 9ebd e79c 463e
000002d0: 7828 91bf f4ae eabd 2d6a 5dbf b428 94bd
000002e0: 6f74 8a3f 99e4 d43e f6cf a2be 4bf6 30bf
000002f0: 6c31 793e eeee 303f 52bd 283f 1217 d83e
00000300: c57e 3fbf 15c7 0a3e 8f81 a4be 109a e8be
00000310: 96e7 283f 57b3 81be e65a 263e f16a a13e
00000320: e952 9abe b259 c8be 1406 3cbe 8cae 83be
00000330: 502a 45be 4d1a 803c 3f8e 973f a2f7 5bbf
00000340: 88fc a3be e1c0 b93f 2b56 15be 32ce 16bf
00000350: 2b24 33bf 4b88 5fbe b3e4 e73e 9dc8 433d
00000360: 2dda 6fbf 398d 683f 4cb9 e23e b775 ba3c
00000370: c2c5 743e a7bb 29bf 96cf 5fbe 6efb 34bd
00000380: b20f 28bf 7271 473e 59c8 143e bb45 c4be
00000390: 371a debd 4353 42bf 82cd 1ebf fb6c 03bf
000003a0: 9f61 c13e 4d27 d3be 2933 fcbe 1bd8 92be
000003b0: 8814 243d bf38 063f 7cc9 07bf b76f 01bf
000003c0: b4c5 ffbe 80bf a93f 0389 cebd 92b4 2a3f
000003d0: 6979 953e 8e93 493f 6fa1 513f 65be b3be
000003e0: cba9 4f3f 6b33 73be bf4b 8f3d 3e1b 3abe
000003f0: 6a59 753e 070f 153f c09e 04bf 5280 53be
0.26167896 -0.0013874224 0.23110849 -0.26063624 0.109557495 -0.8174385 -0.5078318 0.27796417
-0.1537085 -0.46633905 -0.06278411 -0.6428948 0.95087355 0.4168854 -0.5425079 -0.80686605
0.75862205 0.2369247 -0.72882587 -0.0911511 0.31599876 -0.17180061 -0.014367023 -0.22036104
-0.6981917 -0.4112436 1.5528533 -0.3094634 0.30143967 0.46036184 -0.14233518 1.343774
-0.35120723 -0.4421276 -0.42599195 0.22493327 0.10602034 0.10471497 0.30777076 0.29179582
-0.60278815 1.0784124 -0.34119937 -0.2054042 0.3672799 -0.53209805 0.9875828 0.26061097
0.34779984 -0.29350126 -1.1492944 0.33184326 0.26554796 -0.35051376 0.26569024 -0.06197363
0.5394263 -0.17774597 -0.19300471 -0.034921423 0.39568433 -0.5413441 -0.46632186 0.14058875
0.116666354 -0.938449 -0.12888329 -1.0856318 -0.9413496 -0.3164095 0.68772817 0.09649185
0.08714238 -0.45099875 -1.2410076 -0.5606925 -0.9026083 -0.79489195 0.011455097 -0.73357975
-0.23757783 -0.4499631 0.022372961 0.16838758 -0.49317923 -0.07049737 0.06641551 0.28915572
0.53152275 -0.22573815 -1.2260553 0.44646433 0.32076144 -1.0068238 -0.21766438 -0.42380562
-0.73114216 -0.41093248 -0.14329498 0.70325756 -0.97905344 -1.377777 -0.7702306 -0.99492174
-0.5033581 0.66364527 -1.3056893 -1.5811175 -1.3104674 -0.96175975 0.46069923 -0.5091733
-0.76365197 0.37297404 0.60127974 0.40684402 0.14124079 0.33250728 -0.3103946 -0.30483347
-0.72309566 0.12944879 -1.152854 -0.1688245 -0.4887564 -1.3681192 -0.3795458 -0.9435259
-0.23477988 0.90504974 1.7000567 0.8609483 0.615529 0.59476995 -0.98473954 -0.21046628
1.213102 0.16081436 1.2879133 0.19097242 -0.05583999 -0.093813114 -0.07069293 0.52037907
0.47775933 -0.47501794 1.3155675 2.0317357 0.18958011 0.26832855 -0.021302225 0.17903318
-0.7325207 -0.7370128 -0.079321496 -0.37029108 -1.3664957 0.13669007 -0.15149729 -0.9817128
-0.5619865 0.28441626 0.26505584 0.2727518 -0.093210876 0.09734926 -0.5415994 0.17249896
-0.9777279 -1.8144072 -0.53439486 -0.1064487 0.15310434 0.19913416 -1.797268 0.26430085
0.22482353 -0.01494807 -0.07736901 0.19395791 -1.1340475 -0.11459151 -0.86490136 -0.07234326
1.0816783 0.41580656 -0.31799287 -0.69125813 0.24335259 0.6911458 0.6591388 0.422051
-0.7480281 0.13552506 -0.32130095 -0.4543004 0.6597837 -0.25332138 0.16245613 0.31526902
-0.3014138 -0.39130932 -0.18361694 -0.25719106 -0.19254422 0.015637541 1.1840285 -0.8592473
-0.32028604 1.4511987 -0.14583652 -0.5890838 -0.6997706 -0.21829335 0.4529167 0.04779874
-0.93692285 0.9084049 0.44281995 0.022761209 0.23903564 -0.6630196 -0.21856532 -0.044185095
-0.6564895 0.1947687 0.14529552 -0.3833445 -0.10844844 -0.759083 -0.6203233 -0.51338166
0.3776979 -0.41240922 -0.49257782 -0.286805 0.040058643 0.5243034 -0.53041816 -0.5056109
-0.49955523 1.3261566 -0.10084727 0.6668178 0.2919419 0.78740776 0.81886953 -0.35106197
0.8111846 -0.23750083 0.06996869 -0.18174455 0.2395989 0.58226055 -0.51804733 -0.20654419

memory_a.rnn.bias_hh_l0 f4 [256]
00000000: be37 523e 7d2a d63a 4248 733e ecf6 9cbe
00000010: cffe 0b3d e575 33bf 466b dbbe 8c12 cc3e
00000020: bfcb 53be 6d03 04bf 685e 7a3d dc2d 28bf
00000030: 1b08 813f d9c1 ac3e fe22 cebe 38e9 3fbf
00000040: ce27 353f b754 bb3e d6e1 48bf 6dd6 e1bd
00000050: 953c cc3e d78e 37be 5b27 223d d17b 43be
00000060: 6b9d 1fbf 8ee1 ebbe 735c be3f f012 a3be
00000070: f433 bb3e 10b0 0a3f ca23 98be 3890 a93f
00000080: 06e1 ecbe dee8 7abe fca7 c5be 5f21 bd3e
00000090: 781d 303d 8584 4dbd 3a05 a43e 476e 383e
000000a0: 8fdc fdbe 7bff a03f 9590 07bf b6dd 8abe
000000b0: 7591 c23e c83d 29bf 2c65 703f 9a56 5e3e
000000c0: 3aea 663e b58e 69be 94f3 7dbf e790 643e
000000d0: d865 6d3e 7943 a0be a52e a33e d988 ad3d
000000e0: 8995 d13e 0344 8abe 56f1 abbe 1272 1ebe
000000f0: 8a99 b83e b4fb 09bf 7038 bdbe 43c8 0e3e
00000100: 9e34 023c 7c4e 64bf c1f3 9ebd c9d4 93bf
00000110: 3c41 3dbf 91e9 abbd 2e4f 283f d584 a1bd
00000120: 4a03 5c3e 69b2 c2be bac5 83bf aacb 06bf
00000130: 0089 8dbf 810f 82bf 4712 393e 3994 4dbf
00000140: 35b7 acbe c9a0 ecbe b7b5 db3b cfd7 053e
00000150: 2a21 0abf d631 09be b568 1e3e 1a37 db3e
00000160: cd7b 2d3f 914a 37be 1dfc a4bf fd43 e63e
00000170: d837 c83e 2a46 81bf 41c7 2dbe 33e9 44be
00000180: 2a69 46bf d9cb 0abf 06a9 f0bd b66b 0d3f
00000190: aac9 5cbf 4aa9 b3bf 099a 65bf 7d43 66bf
000001a0: 633f d0be e3f5 3a3f 0d73 a8bf 5947 b9bf
000001b0: 4ac9 a3bf 4013 66bf 2624 043f b472 26bf
000001c0: ee38 42bf 4620 723e b489 0b3f 2cb8 bb3e
000001d0: a44e a03d 96fd b03e a335 1abe 3296 07bf
000001e0: 2d3c 2ebf 4652 4e3e 177e 6bbf 6b45 75be
000001f0: 76a0 f7be 14cb adbf 3cf7 aebe 4ad8 79bf
00000200: 84a6 45be 2285 8f3f 207e d43f de1d 563f
00000210: 71dd 503f 6707 ca3e 0f90 6abf 0ce4 b6bd
00000220: e629 843f a0da 2b3b fcad ab3f 6efc 993d
00000230: b751 ed3d 11f1 55be 4f09 41be 50a3 a13e
00000240: 221c 073f e54f c8be 9e1b b43f 1518 fd3f
00000250: 3aca 753e 2266 523e 6244 043e 6368 813e
00000260: 2fab 3abf bec7 60bf d07b 89be e88e b8be
00000270: 8ef5 9fbf 9e57 313e f846 85be 4d39 89bf
00000280: fac8 40bf 7523 8a3e fb8c 693e c5b2 c43d
00000290: 0266 5bbe 3ab8 973d 40fe 15bf 3855 0e3e
000002a0: ff37 8dbf ac6d e6bf 42cb d7be 4442 ebbd
000002b0: f598 2f3e 51fb 3e3e 97e0 e5bf bd93 7c3e
000002c0: db0c 933e a2e4 61bd e046 15be 1ab7 b53d
000002d0: 9a2e 91bf a6ed 7e3d df78 80bf a3da b6bd
000002e0: a3ce 983f e351 dd3e a328 42be bd58 13bf
000002f0: 9334 b63e c50e f73e 3f0b 133f 8a95 163f
00000300: 62bc 18bf a4c1 353e ab48 8abe 80e4 e2be
00000310: 08f7 393f 8dc2 80be d728 863e 807e 913e
00000320: 1c58 aebe 8fc9 c0be c06f d1bd 4e4e 72be
00000330: 35d7 b5bc fca8 e9bd e6f1 a33f f514 77bf
00000340: d3ff b0be 8f48 b93f c8bd 48bc c5ab c7be
00000350: 50f7 fcbe df64 b2be 80f6 d23e db2a 01be
00000360: c9b0 78bf fee2 3e3f 2875 ac3e 3571 26bd
00000370: fa1a 3b3e 688a 29bf 8d08 8bbe 1968 c9bd
00000380: a2c1 eebe 9e62 093e 8236 293d 9d7c 89be
00000390: f177 cabd 9800 3abf 88e0 cebe ac23 08bf
000003a0: 4d92 bd3e b203 d8be fe32 33bf edd2 a0be
000003b0: f5db 323d 4f13 283f 57a2 cdbe aece c5be
000003c0: 7704 09bf f4f9 9f3f 4e6f ab3d a96c 1a3f
000003d0: dc44 873e 2e1c 623f eb46 553f 1f43 c0be
000003e0: d186 2f3f 8e75 a2be 7961 c1bc 8bf9 9cbe
000003f0: b867 6d3e e8bc 233f 851a 01bf 00ee 34be
0.20529076 0.0016339567 0.23758033 -0.30657136 0.03417855 -0.7010177 -0.4285528 0.398579
-0.20683192 -0.5156773 0.06112519 -0.65694976 1.0080599 0.33741644 -0.40261072 -0.7496524
0.7076386 0.3658807 -0.784696 -0.110272266 0.3988997 -0.17925583 0.039588314 -0.19090201
-0.62349576 -0.46070522 1.4871963 -0.31850386 0.36563075 0.541749 -0.29714805 1.3247137
-0.4626543 -0.24502894 -0.38604724 0.36939523 0.042996854 -0.05017521 0.32035238 0.18010817
-0.49582335 1.2577966 -0.5295499 -0.27122277 0.380016 -0.66109896 0.93904376 0.21712723
0.22550288 -0.22808345 -0.99199796 0.22320901 0.23183382 -0.31301478 0.31871524 0.08473367
0.409344 -0.27005014 -0.33582562 -0.15473202 0.3605464 -0.53899693 -0.3695712 0.13943581
0.007947115 -0.8918226 -0.07761336 -1.1549312 -0.73927665 -0.08394159 0.6574582 -0.07886664
0.2148563 -0.3802674 -1.0294716 -0.52654517 -1.1057434 -1.0160981 0.18073379 -0.80304295
-0.33733526 -0.4621642 0.0067050117 0.13070606 -0.53956854 -0.13397917 0.1546963 0.42815477
0.6776703 -0.17899539 -1.2889439 0.44973746 0.39105105 -1.0099537 -0.1697054 -0.19229583
-0.7750422 -0.54217297 -0.11750989 0.5524248 -0.86245215 -1.4036038 -0.89688164 -0.8994673
-0.4067336 0.73031443 -1.3160111 -1.4474899 -1.2795804 -0.89873123 0.5161766 -0.65018773
-0.7586812 0.23645124 0.54506993 0.3666395 0.078274995 0.3456847 -0.15059523 -0.52963555
-0.6806057 0.20148572 -0.9198927 -0.23952262 -0.4836461 -1.35776 -0.34173 -0.97595656
-0.19301802 1.1212504 1.660099 0.83639324 0.8158789 0.39458773 -0.91626066 -0.08930215
1.0325286 0.002622284 1.3412471 0.0751885 0.115878515 -0.20892741 -0.18851207 0.3156991
0.527773 -0.39123455 1.4070928 1.9772974 0.24002925 0.20546773 0.12916711 0.25274953
-0.72917455 -0.8780478 -0.26852274 -0.3604653 -1.2496812 0.1731858 -0.26030707 -1.0720612
-0.75306666 0.26980177 0.22807686 0.0960441 -0.21425632 0.07408185 -0.5859108 0.13899696
-1.1032714 -1.8002219 -0.4214726 -0.114872485 0.17148192 0.18650557 -1.7959164 0.24665733
0.28720745 -0.055149682 -0.14577818 0.088728145 -1.1342347 0.062238358 -1.0036887 -0.089284204
1.193806 0.43226537 -0.18960814 -0.5755728 0.35586986 0.48253456 0.57439035 0.5882193
-0.5966245 0.1774965 -0.27008566 -0.44314957 0.72642565 -0.2514843 0.26203033 0.28416824
-0.34051597 -0.37653777 -0.10226393 -0.23662683 -0.022197345 -0.11409184 1.2808197 -0.9651635
-0.34570178 1.4475268 -0.012252279 -0.38998237 -0.49407434 -0.34842584 0.4120369 -0.12614004
-0.9714475 0.7456511 0.33683133 -0.040635306 0.1827201 -0.66226816 -0.2715496 -0.09834308
-0.46632105 0.13416526 0.04131175 -0.26852885 -0.09886158 -0.72657156 -0.4040568 -0.5317943
0.3702568 -0.4219032 -0.6999968 -0.31410924 0.0436668 0.6565446 -0.40162918 -0.38634247
-0.5352244 1.2498155 0.08370839 0.6032205 0.26419723 0.8832425 0.8331134 -0.3755121
0.6856509 -0.31730312 -0.023606049 -0.30659136 0.23184097 0.63960123 -0.5043109 -0.17668915
